trained_models/H1_left_out_model.pth (torch, 257039 bytes, 26 tensors)

lstm.weight_ih_l0 f4 [128, 9]
0	0x3e35586c	0.17709512
1	0xbe01cf25	-0.12676676
2	0xbe19bba5	-0.15012987
3	0x3e0d8ba5	0.13822801
4	0xbe3f4643	-0.18679146
5	0x3e2555b8	0.1614598
6	0xbd0c3a06	-0.034235023
7	0x3e09f409	0.13471998
8	0x3e48dc48	0.1961528
9	0xbe8f8927	-0.28034326
10	0xbd829a2b	-0.063770615
11	0xbdd17543	-0.10227444
12	0xbcd47de2	-0.025938932
13	0xbe29d7b0	-0.16586185
14	0x3d4754f3	0.048665
15	0x3d198ef1	0.037489835
16	0xbdb89f02	-0.09014703
17	0xbdfcc0f5	-0.12341491
18	0x3e6cbb96	0.23118433
19	0x3e8d602c	0.27612436
20	0xbe0c24ec	-0.1368596
21	0x3d221999	0.039575193
22	0x3d653b32	0.055964656
23	0xbc8afabe	-0.016965266
24	0x3d48c0bd	0.049011935
25	0xbcf11e2b	-0.02943333
26	0xbd9cadc0	-0.07650328
27	0x3ca50198	0.020142362
28	0xbe8c4a82	-0.27400595
29	0x3d30005a	0.042969085
30	0x3e442651	0.19155242
31	0x3e48c589	0.19606604
32	0x3b139ff3	0.0022525757
33	0x3e53ed8d	0.20696087
34	0xbe3d12f7	-0.18464266
35	0xbec4a62f	-0.38408038
36	0xbc6d4100	-0.014480829
37	0x3dda5afe	0.10661887
38	0x3dbc94f6	0.092080995
39	0xbd0f9f65	-0.03506412
40	0x3ea1f29b	0.31630406
41	0xbe29aaf5	-0.16569121
42	0x3e4cd1ee	0.20001957
43	0x3dd7037b	0.10498711
44	0xbda3321d	-0.07968543
45	0xbce937a5	-0.028468916
46	0x3d91a69c	0.07111856
47	0xbdb9c5b2	-0.090709105
48	0xbe0d1809	-0.137787
49	0x3d0f8372	0.035037465
50	0xbf0f8150	-0.5605669
51	0xbdf4a1bb	-0.1194491
52	0x3d862e6e	0.065518245
53	0x3db8e0c2	0.09027244
54	0x3cee2512	0.02907041
55	0x3ec160d1	0.37769178
56	0xbe153090	-0.14569306
57	0xbe292328	-0.16517317
58	0x3e0a3cc3	0.13499741
59	0x3e20e89e	0.15713736
60	0xbdf969b5	-0.12178365
61	0x3dce4d12	0.10073294
62	0xbd0fb8da	-0.035088398
63	0x3e1853fe	0.1487579
64	0xbe4eb322	-0.20185521
65	0x3d271e72	0.04080052
66	0x3daa1ccc	0.08306274
67	0xbdb51f67	-0.0884388
68	0xbe1e9a45	-0.15488537
69	0xbd4dcc77	-0.05024382
70	0x3d94b1a5	0.072604455
71	0x3e0999a9	0.13437523
72	0x3d73505f	0.05940282
73	0x3d4a8b02	0.049448974
74	0x3dd7ef02	0.10543634
75	0xbba4e725	-0.0050324374
76	0x3e1bc53e	0.1521196
77	0x3e98b836	0.29828042
78	0xbe770fc8	-0.24127114
79	0x3c50e625	0.012750183
80	0xbe22036e	-0.15821621
81	0xbdfd2f15	-0.12362496
82	0xbdb96d54	-0.09054056
83	0x3d984f0f	0.07436954
84	0x3d4618c1	0.04836345
85	0xbcb56e41	-0.0221473
86	0xbe770133	-0.24121551
87	0x3df5a2fb	0.11993977
88	0x3dceb698	0.10093421
89	0x3e694dec	0.22783631
90	0xbe014d6c	-0.1262719
91	0xbdd32126	-0.10309057
92	0xbd48c1b7	-0.049012866
93	0xbdfc1d49	-0.12310273
94	0xbda20f08	-0.07913023
95	0xbe09133f	-0.13386248
96	0x3c821f8f	0.015884189
97	0xbd820e55	-0.0635039
98	0xbe3102c9	-0.17286219
99	0xbead2cd2	-0.33823258
100	0x3e8349d7	0.25642273
101	0xbe819c73	-0.25314674
102	0x3d3501a3	0.044191014
103	0xbd3ad461	-0.045612697
104	0xbe8af9da	-0.27143747
105	0xbe97e9e0	-0.2967062
106	0x3c81c2de	0.01583999
107	0x3d7a1068	0.061050802
108	0x3e900c0e	0.28134197
109	0x3dadc58a	0.08484943
110	0x3caba2b1	0.0209516
111	0x3ea4720d	0.32118264
112	0xbd91ef58	-0.07125729
113	0xbd311b79	-0.04323909
114	0xbe0457bd	-0.12924094
115	0xbcb78fea	-0.02240749
116	0x3e0f52eb	0.13996474
117	0x3dc12c5b	0.09432288
118	0xbc0af62c	-0.0084815435
119	0xbe9474fa	-0.28995496
120	0xbe063ac9	-0.13108362
121	0xbd00e993	-0.031472754
122	0x3e0ad823	0.13559012
123	0xbeb21596	-0.34782094
124	0x3d72a149	0.059235845
125	0xbe1ba58e	-0.15199873
126	0xbe6002fd	-0.2187614
127	0xbe9c902e	-0.3057875
128	0x3e388037	0.1801766
129	0x3e4717f7	0.19442736
130	0xbe649ba7	-0.22325002
131	0xbb837f80	-0.004013002
132	0xbc99c6a1	-0.018771471
133	0xbd3681b2	-0.04455728
134	0xbd1da5f9	-0.038488362
135	0x3d9f4e7b	0.07778641
136	0xbdc90f2b	-0.09817346
137	0xbd7aa5ad	-0.061193157
138	0xb9f490b9	-0.00046647133
139	0xbe5df20a	-0.21674362
140	0x3e8083f1	0.25100663
141	0xbde6fca7	-0.11278658
142	0xbd4080a0	-0.046997666
143	0x3d737a8b	0.059443038
144	0xbdbb4e87	-0.09145837
145	0xbd239c8b	-0.039944213
146	0x3d74d3d0	0.059772313
147	0x3dc73caf	0.09728371
148	0x3df26d7a	0.11837287
149	0x3dbe468e	0.09290801
150	0xbd70d18f	-0.0587936
151	0x3df22060	0.11822581
152	0xbdb44ff3	-0.088043116
153	0xbc7b94f7	-0.01535534
154	0xbf2643a4	-0.6494696
155	0xbe5e5fda	-0.21716252
156	0xbe27714c	-0.16351813
157	0xbde922bf	-0.113835804
158	0x3dfafd97	0.122554
159	0xbd800a55	-0.06251971
160	0x3d25c2c2	0.04046894
161	0xbd703ec0	-0.058653593
162	0xbda275f1	-0.07932652
163	0x3dd2cb66	0.102927014
164	0xbddc5d93	-0.10760035
165	0xbd333d2d	-0.043759514
166	0x3de8fe53	0.113766335
167	0xbcb1aeff	-0.02168989
168	0x3d300cfc	0.042981133
169	0x3e66d57b	0.22542374
170	0x3e28a17b	0.1646785
171	0x3e0a7cd5	0.13524182
172	0x3ec1e743	0.3787175
173	0xbe6582f8	-0.22413242
174	0x3e9b7513	0.30362758
175	0x3e510ec8	0.20415795
176	0x3da0764b	0.078350626
177	0x3e612d01	0.21989824
178	0x3d159e9a	0.036528207
179	0x3d80f620	0.062969446
180	0x3e0969d4	0.13419276
181	0x3c505d05	0.01271749
182	0xbe27b2ef	-0.16376851
183	0x3d6ddda8	0.058072716
184	0xbdea59b6	-0.11442892
185	0x3ea41c92	0.32053047
186	0xbe93e5ca	-0.28886253
187	0xbe336893	-0.1752036
188	0xbd54df64	-0.051970854
189	0xbe748777	-0.238798
190	0xbbfd0b13	-0.0077222674
191	0xbd92af9a	-0.071623996
192	0xbe8768ca	-0.26447135
193	0x3e3b61db	0.18299048
194	0x3d2e5764	0.04256381
195	0xbdc66794	-0.09687725
196	0x3ebf3f8f	0.3735318
197	0x3e3b42c0	0.18287182
198	0x3d9c077e	0.076186165
199	0xbf19ac48	-0.60028505
200	0xbde3bf56	-0.11120479
201	0xbeb33bf9	-0.35006693
202	0xbddc49e8	-0.10756284
203	0xbf2b299c	-0.66860366
204	0xbd8b935e	-0.068152174
205	0xbda509af	-0.080584876
206	0xbd6b51ff	-0.057451244
207	0xbd1c2272	-0.038118787
208	0x3deac1e8	0.11462766
209	0xbdeff3e6	-0.11716442
210	0x3d6d53f5	0.057941396
211	0xbcaf46de	-0.021396097
212	0xbe85be87	-0.26121923
213	0x3e56ec4e	0.2098858
214	0x3e7f4a4e	0.24930689
215	0x3ce6173d	0.028087253
216	0x3e0a573c	0.1350984
217	0xbe54e7f2	-0.20791605
218	0xbe5a5561	-0.21321632
219	0x3dae77fa	0.085189775
220	0xbe8bd71c	-0.27312553
221	0x3e7e170e	0.24813482
222	0xbd4c6cb4	-0.049908355
223	0xbe0ec09a	-0.13940659
224	0x3c97909f	0.018501578
225	0xbea1b26f	-0.31581447
226	0xbe2df70f	-0.16988777
227	0x3c913b7f	0.017728565
228	0x3e2bd462	0.16780236
229	0x3e15c7a2	0.14626935
230	0xbd8c9b0e	-0.06865512
231	0xbe8c9e1d	-0.2746438
232	0xbd9c73f1	-0.076393016
233	0xbd4baa3c	-0.049722895
234	0x3d81735c	0.06320831
235	0x3dba1269	0.09085543
236	0xbdd8dcc5	-0.105889834
237	0x3d8cb3a2	0.068702
238	0x3e9b5b2a	0.3034299
239	0xbc4f0b3a	-0.012636954
240	0xbdc512e7	-0.09622746
241	0x3b6fbf0e	0.0036582383
242	0x3e545560	0.20735693
243	0x3e1c7767	0.15279923
244	0xbde30636	-0.11085169
245	0x3c207126	0.009792602
246	0xbdc5e340	-0.09662485
247	0xbe9fd32f	-0.31215808
248	0xbd2d5d37	-0.042325225
249	0x3d26d71a	0.04073248
250	0x3e075477	0.13215815
251	0x3dbfc07e	0.09362887
252	0xbdd658cf	-0.10466158
253	0xbd29ef2e	-0.041487865
254	0x3d1226fe	0.035681717
255	0xbe439e51	-0.19103362

lstm.weight_hh_l0 f4 [128, 32]
0	0xbe166e29	-0.1469046
1	0xbdde6c25	-0.10860471
2	0xbd048bd5	-0.032359917
3	0xbcd059eb	-0.025433501
4	0x3e2093c0	0.15681362
5	0x3d9aef96	0.07565229
6	0xbc39bcc2	-0.011336507
7	0x3daa4af3	0.08315077
8	0xbe10fa9f	-0.14158104
9	0x3e2d3785	0.1691571
10	0x3e38d89f	0.18051384
11	0xbe6adfe9	-0.22936977
12	0xbe574103	-0.21020894
13	0x3e5282b9	0.20557679
14	0xbd685f9c	-0.056731805
15	0x3e2b2ef6	0.16717133
16	0xbe5332eb	-0.20624892
17	0xbdcb5d8b	-0.09929951
18	0x3e5790bf	0.2105131
19	0xbdda87af	-0.10670411
20	0x3e22fcda	0.15916768
21	0x3d512027	0.051056053
22	0x3d96df82	0.073668495
23	0xbe021fda	-0.12707463
24	0xbd03ed1e	-0.032208554
25	0x3d85c165	0.06531028
26	0x3d9f90da	0.077913
27	0xbe5b21f7	-0.21399675
28	0xbd57d869	-0.05269662
29	0x3df4fbb5	0.11962072
30	0x3df17a24	0.117908746
31	0x3e5215ec	0.20516175
32	0x3cc43fac	0.023956142
33	0x3e630459	0.22169627
34	0x3bc1ba4b	0.0059121004
35	0x3b845ba3	0.0040392443
36	0x3e86ebd3	0.26351795
37	0x3cc42318	0.023942515
38	0x3e64d32a	0.22346178
39	0x3e7c23f3	0.24623089
40	0x3d843055	0.06454531
41	0xbd82c2eb	-0.06384834
42	0xbce83ff2	-0.028350804
43	0x3e6ce994	0.23135978
44	0x3e71ce6c	0.236139
45	0x3da0737f	0.07834529
46	0x3dd00ede	0.10159086
47	0x3e00efe8	0.12591517
48	0xbc53c46a	-0.012925247
49	0x3e3f9813	0.18710355
50	0x3d73c79a	0.059516527
51	0x3cbf3409	0.023340242
52	0xbd8d132b	-0.068884216
53	0xbd445ca1	-0.0479399
54	0xbe285f8f	-0.16442703
55	0x3de41159	0.11136121
56	0xbe2c1faf	-0.16808961
57	0xbe616a9a	-0.22013322
58	0x3e0e5cd5	0.139026
59	0xbaa85f74	-0.001284583
60	0xbdb2548c	-0.08707532
61	0x3d33aea6	0.04386773
62	0x3d7847e0	0.06061542
63	0x3dd6c10c	0.104860395
64	0x3e14124e	0.14460108
65	0x3d8795c3	0.06620362
66	0xbd4300ac	-0.047608063
67	0xbeb5392c	-0.3539518
68	0x3daa575a	0.08317442
69	0xbcfb8b9d	-0.030706221
70	0x3e6fd637	0.2342156
71	0x3e9b66d5	0.30351892
72	0x3e2190e1	0.15777923
73	0x3d72da50	0.05929023
74	0xbe1cc3da	-0.15309086
75	0x3d0bc1cf	0.034120377
76	0xbd6daa72	-0.058023877
77	0x3b64becf	0.003490377
78	0x3eb28f38	0.34874892
79	0x3e07a842	0.13247779
80	0x3df1485a	0.11781378
81	0x3deb3c6a	0.114861324
82	0x3cd4659b	0.025927356
83	0xbe8ff5c5	-0.28117195
84	0xbd5ef083	-0.05442859
85	0x3d517bf3	0.051143598
86	0xbd19e809	-0.0375748
87	0xbcd632a7	-0.0261472
88	0x3db28721	0.0871718
89	0xbe7c60d0	-0.24646306
90	0x3e13106f	0.14361738
91	0xbe86e4c8	-0.2634642
92	0xbe4deed5	-0.20110638
93	0xbd75e77e	-0.06003522
94	0x3e4e184c	0.20126456
95	0x3e041666	0.1289917
96	0x3c15e521	0.009148867
97	0x3c584589	0.013200172
98	0x3dc2a7dc	0.09504673
99	0x3d0341c7	0.032045152
100	0x3e217112	0.15765789
101	0x3e10f551	0.14156081
102	0x3e5320b9	0.20617951
103	0x3e4c20a8	0.19934332
104	0xbdb3ce79	-0.08779616
105	0x3e4ffe00	0.20311737
106	0xbd9f9f6b	-0.077940784
107	0x3c0570b1	0.0081445435
108	0xbcdf807f	-0.027282951
109	0xbd9b6356	-0.07587306
110	0xbc818793	-0.015811717
111	0xbdf749ae	-0.120746
112	0x3e8051cf	0.25062415
113	0x3e7794ac	0.24177808
114	0x3e553db3	0.20824318
115	0xbd8199b8	-0.06328148
116	0xbda0acf5	-0.07845489
117	0x3e698f12	0.22808483
118	0x3dadb6f9	0.08482165
119	0xbdd32841	-0.10310412
120	0x3e725909	0.23666777
121	0x3d58937a	0.05287502
122	0x3d51d763	0.0512308
123	0xbeb32946	-0.34992427
124	0xbd289a8c	-0.041163012
125	0xbd441cce	-0.047879033
126	0xbc0f76f4	-0.008756388
127	0xbe07cab5	-0.1326092
128	0x3dee8571	0.11646546
129	0xbdf81800	-0.12113953
130	0x3dc4af50	0.09603751
131	0x3e106537	0.1410111
132	0xbdeac701	-0.11463738
133	0x3d232ec8	0.039839536
134	0x3d3c7cf7	0.046017613
135	0x3cac1cbb	0.021009794
136	0x3b7e5f1d	0.0038814016
137	0x3d868d02	0.06569864
138	0x3d86b43a	0.06577344
139	0xbcf63808	-0.030056015
140	0xbdc6c4fc	-0.097055405
141	0x3c43cb3c	0.01195031
142	0xbd15557d	-0.03645848
143	0x3c3dd703	0.011586907
144	0xbe31c175	-0.17358954
145	0x3dd6564e	0.1046568
146	0x3eb53387	0.35390875
147	0xbe42176e	-0.1895425
148	0xbd48c496	-0.049015604
149	0x3da335a7	0.07969218
150	0x3e4412e2	0.19147828
151	0x3db961ba	0.09051843
152	0x3dcbafd8	0.09945649
153	0x3d0a7303	0.03380109
154	0x3d0323b7	0.032016482
155	0x3ba719d6	0.0050995154
156	0x3df697b9	0.120406576
157	0x3d9a163b	0.075237714
158	0xbd84c573	-0.06482973
159	0xbd886ea3	-0.06661727
160	0x3c769573	0.01505028
161	0x3e43379c	0.19064182
162	0xbe136964	-0.14395672
163	0x3d5fdb22	0.05465234
164	0xbc88163e	-0.016612168
165	0x3e1fe74e	0.1561558
166	0x3e48358c	0.19551677
167	0xbd8cd188	-0.068759024
168	0x3cf547bd	0.029941434
169	0x3e334123	0.17505316
170	0x3e066b40	0.1312685
171	0xbe2307cf	-0.15920947
172	0xbd8d100d	-0.06887827
173	0x3c10198f	0.008795156
174	0xbda7855a	-0.08179732
175	0x3d5f37c5	0.054496545
176	0xbe1fc30d	-0.1560175
177	0xbe2ac862	-0.16678002
178	0x3e04dd1d	0.12974973
179	0x3c6d107a	0.01446926
180	0xbe420fa0	-0.18951273
181	0x3eaa111b	0.33216175
182	0xbe5c7210	-0.21527886
183	0x3e7e2365	0.2481819
184	0xbe22acb0	-0.15886188
185	0xbe4a25a2	-0.19740918
186	0xba806814	-0.0009796643
187	0xbe0a0155	-0.1347707
188	0x3e36d8f9	0.17856206
189	0x3e9bdc58	0.30441546
190	0xbcaf8409	-0.021425264
191	0x3e1e944b	0.15486257
192	0xbe2c1927	-0.1680647
193	0xbdc25d56	-0.09490459
194	0xbe38c130	-0.18042445
195	0xbe233839	-0.15939416
196	0xbdb9a109	-0.09063918
197	0x3c9337ea	0.017970998
198	0x3e2810da	0.16412678
199	0xbdbf6d8f	-0.093470685
200	0x3cafcaa5	0.021458933
201	0xbd33cce6	-0.04389658
202	0x3e4e6f72	0.201597
203	0x39b0ce99	0.00033723263
204	0xbea7a98f	-0.3274655
205	0x3e8083a2	0.25100428
206	0x3e320b05	0.17387016
207	0x3e1ab246	0.15107068
208	0xbd84f436	-0.06491892
209	0x3e834fb1	0.25646737
210	0x3e1cf3d0	0.15327382
211	0x3da47f2f	0.08032071
212	0x3e63fa3e	0.22263429
213	0xbdc76c97	-0.09737509
214	0x3e58d57c	0.21175188
215	0x3e1dce32	0.15410689
216	0x3e03b2ba	0.12861148
217	0xbdc9b1f5	-0.09848396
218	0xbe444031	-0.19165112
219	0xbd7421e4	-0.059602633
220	0xbe9912d2	-0.2989717
221	0xbd1063f1	-0.03525156
222	0x3e70f762	0.23531869
223	0x3eb0377e	0.34417337
224	0x3e809e16	0.2512061
225	0x3e59ff5a	0.21288815
226	0xbe0475f7	-0.12935625
227	0xbd089430	-0.033344448
228	0xbd31fb32	-0.04345245
229	0x3e665b29	0.22495712
230	0x3dad4d32	0.084619895
231	0x3e5b56dc	0.21419853
232	0xbdf46809	-0.11933906
233	0x3dc82062	0.097718015
234	0xbe494055	-0.19653447
235	0x3e16a767	0.14712296
236	0x3c9fd24c	0.019509457
237	0xbd99c822	-0.075088754
238	0x3e0d69b7	0.13809858
239	0xbd31a029	-0.04336563
240	0xbe26b64c	-0.16280478
241	0x3e441a68	0.19150698
242	0xbdb294b0	-0.08719766
243	0xbd301718	-0.042990774
244	0xbe094c80	-0.13408089
245	0x3ded8f80	0.11599636
246	0xbdf000b1	-0.11718882
247	0xbcfe2933	-0.031025505
248	0x3d17fd81	0.037106995
249	0xbe64d4b0	-0.22346759
250	0xbb98e27e	-0.004665672
251	0xbe4270d4	-0.18988353
252	0x3c9057d8	0.017620012
253	0xbd9fdfd5	-0.078063644
254	0x3d2cbd23	0.042172562
255	0xbdb8ebe8	-0.090293705

lstm.bias_ih_l0 f4 [128]
0	0x3bf297b8	0.00740334
1	0x3e8f58bd	0.2799739
2	0x3dfb32d0	0.12265551
3	0x3e101287	0.14069568
4	0xbc5c27f5	-0.013437261
5	0x3b578eee	0.003289159
6	0x3e51ea75	0.20499595
7	0x3ea8e67d	0.3298835
8	0xbd9908e8	-0.07472402
9	0x3d99c86c	0.075089306
10	0x3e2edf1e	0.170773
11	0x3e3816dd	0.17977472
12	0x3e18657d	0.14882465
13	0x3dd2612f	0.102724425
14	0x3e982855	0.2971827
15	0x3ca926e0	0.02064842
16	0x3e801fb3	0.25024185
17	0xbd6cea1a	-0.057840444
18	0x3dea87ce	0.11451684
19	0x3d75bf8c	0.059997126
20	0xbce3c278	-0.02780269
21	0xbb4cb73c	-0.0031237146
22	0x3e456878	0.19278133
23	0xbc9fce55	-0.019507566
24	0xbd8a062e	-0.0673946
25	0x3e4f701d	0.20257612
26	0xbbe1076b	-0.0068673394
27	0xbda38a55	-0.07985369
28	0x3dbd55ae	0.09244858
29	0x393691ac	0.0001741114
30	0x3db4745e	0.08811258
31	0x3e05dedc	0.13073295
32	0xbd9652c5	-0.07340006
33	0x3c0e7941	0.008695901
34	0x3e4cf01d	0.20013471
35	0x3d514225	0.05108847
36	0x3e135ef0	0.14391685
37	0xbe3d8f45	-0.18511684
38	0x3e32e5f5	0.17470534
39	0x3e0d1f23	0.13781409
40	0x3d685c54	0.056728676
41	0x3e5d04e2	0.21583894
42	0x3e4799b5	0.19492228
43	0x3da05b64	0.078299314
44	0x3dd929a0	0.106036425
45	0xbbde2feb	-0.0067806146
46	0x3e266d88	0.1625272
47	0x3c22cc1c	0.009936359
48	0x3d08b619	0.033376787
49	0x3d988e39	0.07449002
50	0xbe30e3a1	-0.17274334
51	0x3d77a40e	0.06045919
52	0x3dbdc10f	0.09265339
53	0xbe36ab0f	-0.17838691
54	0x3e7d0e81	0.24712564
55	0x3d188c8b	0.037243407
56	0x3e21f5a2	0.15816358
57	0xbdd5fe76	-0.10448925
58	0x3e34f0b0	0.1766994
59	0x3d6e9ac8	0.05825308
60	0x3c95b287	0.018273605
61	0xbda572e0	-0.08078551
62	0x3df17c41	0.11791278
63	0x3e4b6b0d	0.19865055
64	0x3d5f5c4f	0.05453139
65	0x3e201769	0.1563393
66	0xbe612306	-0.21986017
67	0xbe51ee1c	-0.20500988
68	0x3e047628	0.12935698
69	0x3e2f08ea	0.17093244
70	0xbbfc83cd	-0.0077061416
71	0x3dbb119e	0.091342196
72	0x3dbbfb53	0.09178796
73	0x3e48dd45	0.19615658
74	0xbe14a5a0	-0.14516306
75	0xbd961c7d	-0.073296525
76	0xbdd71400	-0.105018616
77	0xbdaba7c7	-0.0838161
78	0x3e3455f0	0.17610908
79	0xbd96a3ad	-0.073554374
80	0xbe12bd37	-0.14329992
81	0x3e123dc5	0.14281376
82	0x3da81d33	0.08208694
83	0x3c12ec76	0.0089675095
84	0xbd953c19	-0.07286853
85	0x3dd47934	0.1037468
86	0xbdc59427	-0.096473984
87	0x3cde1d4f	0.027113585
88	0xbc8a7902	-0.016903404
89	0xbd8a90b7	-0.067658834
90	0xbe435598	-0.1907562
91	0x3d9ea0f6	0.077455446
92	0xbdc3bdf0	-0.09557712
93	0xbd5d22bd	-0.053988207
94	0x3d590dfa	0.052991845
95	0xbdf71d76	-0.12066166
96	0x3ea5d6db	0.32390484
97	0x3e758f9e	0.23980567
98	0x3ea1d4ee	0.31607765
99	0x3e4445ac	0.19167203
100	0xbb2535da	-0.00252091
101	0x3e1ba0bf	0.15198039
102	0x3c9600c8	0.01831092
103	0x3e001ce6	0.12511024
104	0xba4caca2	-0.0007807707
105	0xbc05d3d9	-0.008168184
106	0x3df66329	0.12030632
107	0x3db4ad9d	0.088221766
108	0x3ddc4df8	0.10757059
109	0x3e4ec67a	0.201929
110	0x3d9ab60b	0.07554253
111	0x3d3962db	0.04526029
112	0xbcdbd0d6	-0.02683298
113	0x3ea32c50	0.31869745
114	0x3eab5654	0.334643
115	0xbb9268df	-0.004468068
116	0xbd508b49	-0.050914083
117	0x3d3b593b	0.045739394
118	0xbb934168	-0.004493881
119	0x3e32e781	0.17471124
120	0x3dc17e39	0.09447903
121	0x3d973473	0.07383051
122	0x3db55582	0.088542
123	0x3a14a930	0.0005670963
124	0x3de32166	0.110903546
125	0x3ea6fd29	0.3261502
126	0x3eefe892	0.46857125
127	0xbbd49a33	-0.0064881085

lstm.bias_hh_l0 f4 [128]
0	0x3e0929dd	0.13394876
1	0x3e837d2d	0.2568144
2	0x3e78c55b	0.24294035
3	0x3e2b6331	0.16737057
4	0x3dfa1eec	0.12212929
5	0x3e2921c0	0.16516781
6	0x3d3156b0	0.043295562
7	0x3eb5773f	0.3544254
8	0x3e2c79df	0.16843365
9	0xbc279955	-0.010229428
10	0x3e8a2996	0.26984853
11	0x3e60aba9	0.21940483
12	0x3e5ea9d5	0.21744473
13	0x3d11137f	0.035418984
14	0x3d9b27a9	0.07575924
15	0x3e3014ff	0.1719551
16	0x3ebeec0a	0.3728946
17	0xbdb85ed7	-0.09002464
18	0x3eba150a	0.36344177
19	0x3e4c08c7	0.19925223
20	0x3e3f4924	0.18680245
21	0xbcfb8be7	-0.03070636
22	0x3e07a70d	0.13247319
23	0x3e573f31	0.210202
24	0x3ddf838c	0.109137625
25	0x3e3e8805	0.18606575
26	0xbd20acc4	-0.039227262
27	0xbc43d102	-0.011951687
28	0x3dee8d54	0.1164805
29	0x3e1ea41c	0.1549229
30	0x3ea307e3	0.31841955
31	0x3e7e133f	0.2481203
32	0xbdba27b9	-0.09089608
33	0x3d029eb7	0.031889644
34	0x3e42b1c7	0.19013129
35	0xbd1110bd	-0.035416353
36	0x3dfb2144	0.12262204
37	0x3decd7ac	0.11564574
38	0x3df17456	0.117897674
39	0x3e0a543b	0.13508694
40	0x3e59340b	0.21211259
41	0xbd6620ac	-0.056183502
42	0xbcc9529a	-0.02457552
43	0x3e45e253	0.19324617
44	0xbc8698d8	-0.016430303
45	0x3d6d8eed	0.057997633
46	0x3dec98e1	0.11552597
47	0x3c3ab684	0.011396054
48	0x3dbd792f	0.092516296
49	0xbbdf97fb	-0.0068235374
50	0xbd8720c8	-0.065980494
51	0x3e07c862	0.13260034
52	0x3d8d19f1	0.068897136
53	0xbdbcbeb7	-0.092160635
54	0x3e6ea3d5	0.23304684
55	0xbdc53b4d	-0.09630451
56	0x3df54086	0.119751975
57	0x3d97440e	0.07386027
58	0x3d9d70be	0.076875195
59	0x3dddc03c	0.108276814
60	0x3da1b385	0.07895569
61	0x3cb73b79	0.022367226
62	0x3e230ca2	0.15922788
63	0x3e20990b	0.15683381
64	0xbcf1e2da	-0.029527117
65	0x3d876899	0.06611747
66	0xbe17f52a	-0.14839616
67	0xbd52fef8	-0.05151269
68	0xbe160206	-0.1464921
69	0x3dcf6a17	0.10127657
70	0x3e380b2c	0.17973012
71	0xbd83b70b	-0.06431397
72	0xbe456242	-0.19275764
73	0x3e5b5fbd	0.2142324
74	0xbe1bfd18	-0.15233266
75	0x3ddf23b5	0.108954825
76	0x3de108ca	0.109880045
77	0xbdc7f397	-0.09763258
78	0x3c6b1551	0.014348344
79	0xbe144f04	-0.14483267
80	0x3e154cdd	0.14580102
81	0xbdf1e508	-0.11811262
82	0x3d03c97b	0.03217457
83	0xbdf3d8f4	-0.11906615
84	0x3e22ec30	0.15910411
85	0x3d7d36ad	0.06181972
86	0x3e4cf52c	0.200154
87	0xbe113156	-0.14178976
88	0x3d835e55	0.06414477
89	0xbe1db3f7	-0.15400682
90	0x3d96607f	0.07342624
91	0xbbb2532b	-0.0054420433
92	0x3d3f0482	0.04663516
93	0x3dd0d73b	0.10197302
94	0xbe21893c	-0.15775007
95	0x3dbc9f2c	0.09210047
96	0x3dacc8dc	0.084367484
97	0x3e2895ce	0.16463396
98	0x3e020ba1	0.12699749
99	0x3e397bc2	0.18113616
100	0x3e1a592f	0.15073083
101	0x3eb0aef0	0.34508467
102	0x3e1ded9c	0.15422672
103	0x3e390d48	0.18071473
104	0x3e067869	0.1313187
105	0xbdd6bf5b	-0.10485717
106	0x3d941857	0.07231205
107	0x3ce5c69a	0.028048802
108	0x3e60a806	0.21939096
109	0x3e1baf8c	0.15203685
110	0x3e68bc3a	0.22728053
111	0x3d9781d7	0.07397812
112	0xbd979447	-0.074013285
113	0x3e613a03	0.21994786
114	0x3ea68336	0.3252198
115	0x3e7ad21c	0.24494213
116	0x3e7aff1d	0.2451138
117	0xbdf50a6e	-0.1196488
118	0x3e124f1d	0.14287992
119	0x3e82a350	0.25515223
120	0x3d898a5d	0.06715844
121	0x3e1f0939	0.15530862
122	0x3e6619f3	0.22470836
123	0x3e33c664	0.17556149
124	0xbd2a5b51	-0.041590992
125	0x3e7df43d	0.24800201
126	0x3efabf2a	0.48973972
127	0x3db7f62e	0.08982502

lstm.weight_ih_l0_reverse f4 [128, 9]
0	0xbd7a38f6	-0.06108948
1	0x3e906bda	0.28207284
2	0xbe5caac5	-0.21549518
3	0xbe1f3dd2	-0.15550926
4	0x3dc4390d	0.09581194
5	0xbd7ad88b	-0.061241668
6	0xbe783c9e	-0.24241874
7	0xbf00da79	-0.5033336
8	0x3c8954aa	0.016764004
9	0x3e1608a9	0.14651741
10	0x3e21fee7	0.15819894
11	0xbc8b8768	-0.01703234
12	0x3e0a74f8	0.13521183
13	0x3d38256a	0.044957556
14	0xbec06220	-0.37574863
15	0x3e1d5434	0.15364152
16	0x3d15d46a	0.036579527
17	0x3f067148	0.52516603
18	0xbe1c3468	-0.15254366
19	0x3e150ffe	0.14556882
20	0xbed956e6	-0.4244911
21	0x3e142a79	0.14469327
22	0xbdd55cef	-0.10418116
23	0x3e8ec8e6	0.27887648
24	0xbe9bc40c	-0.3042301
25	0xbb0e23fc	-0.0021688929
26	0x3e62066a	0.2207276
27	0xbdb452eb	-0.08804878
28	0xbe2afe59	-0.16698588
29	0x3e056d29	0.13029923
30	0x3de3f6d4	0.11131063
31	0x3e6c0b4f	0.23051189
32	0xbdf6ab67	-0.12044411
33	0x3db524a2	0.08844878
34	0xbc8d6191	-0.017258437
35	0xbef016c7	-0.46892378
36	0x3dc08ddb	0.09402057
37	0x3ccc42d3	0.024934208
38	0x3e9f3fe2	0.31103426
39	0xbe170865	-0.14749296
40	0xbcad976c	-0.021190368
41	0xbc7f612c	-0.015587132
42	0x3eba5a9a	0.36397249
43	0x3d7f1c30	0.06228274
44	0x3de8e819	0.11372394
45	0xbdfea39c	-0.1243355
46	0xbeec52a4	-0.461568
47	0xbe00e916	-0.12588915
48	0xbcc725f3	-0.024310088
49	0xbe1284fc	-0.14308542
50	0x3d9344a4	0.071908265
51	0xbc813eea	-0.01577707
52	0xbe534a1d	-0.2063374
53	0xbcf59520	-0.029978335
54	0xbe65d029	-0.22442688
55	0x3cfe0771	0.031009408
56	0x3e3109c2	0.17288879
57	0xbe1a6c63	-0.15080409
58	0x3e73e015	0.2381595
59	0x3d1621f6	0.03665348
60	0x3ea7d351	0.3277841
61	0x3e428e66	0.18999633
62	0x3e00e050	0.12585568
63	0xbe8b4f03	-0.2720872
64	0x3e21665d	0.15761705
65	0xbe46424c	-0.19361228
66	0xbcfc83da	-0.03082459
67	0xbd29822e	-0.041383915
68	0xbd07e993	-0.033181738
69	0xbece8cad	-0.40341702
70	0xbdb7a85b	-0.08967658
71	0xbe984b79	-0.2974508
72	0x3da12770	0.0786885
73	0xbdb0c02f	-0.08630406
74	0x3e47dd78	0.19518077
75	0xbdd22d90	-0.102625966
76	0x3dc7bc68	0.097527325
77	0x3868f7a2	5.5543736e-05
78	0x3d38a885	0.045082588
79	0xbdeee19d	-0.11664126
80	0x3ef632d2	0.48085648
81	0xbe9fde15	-0.31224123
82	0xbe1a323f	-0.1505823
83	0xbe3215bd	-0.17391105
84	0x3dde7ed9	0.10864038
85	0x3e5cb278	0.21552455
86	0x3e8f4f23	0.27990064
87	0x3e528138	0.20557106
88	0xbcabfaa0	-0.02099353
89	0xbe2fe196	-0.17175898
90	0x3e23d4d9	0.15999164
91	0x3d0bc341	0.034121756
92	0x3e71ead6	0.23624739
93	0xbd400837	-0.046882834
94	0x3e0aa655	0.13540013
95	0x3ea5eccb	0.3240722
96	0xbe171138	-0.14752662
97	0xbe73f82e	-0.23825142
98	0xbea69b60	-0.32540417
99	0xbe3781a1	-0.17920543
100	0xbe4c0c90	-0.19926667
101	0xbd14c175	-0.036317308
102	0xbdbc6e62	-0.09200741
103	0xbe9fc89d	-0.31207743
104	0xbe07dfb5	-0.13268931
105	0xbdd63af9	-0.10460467
106	0xbe8bcf65	-0.27306667
107	0x3d1dcae8	0.038523585
108	0x3b1da9a5	0.0024057415
109	0x3dbfcc75	0.09365169
110	0xbd2e20e8	-0.04251185
111	0xbe480375	-0.19532569
112	0xbe33846f	-0.17530988
113	0xbd197dee	-0.03747361
114	0xbdf56a37	-0.119831495
115	0xbdd2e6a0	-0.102978945
116	0x3e613543	0.21992974
117	0xbe485892	-0.19565037
118	0x3d355f01	0.044280056
119	0xbe93394f	-0.2875466
120	0xbe1f839b	-0.15577547
121	0xbeacc5b2	-0.3374458
122	0xbdf7af43	-0.120939754
123	0x3e0ad5d8	0.13558137
124	0xbda4db7f	-0.08049678
125	0x3e5a888a	0.21341148
126	0xbe263990	-0.16232896
127	0xbe82e9b5	-0.2556893
128	0x3d9370ca	0.07199247
129	0xbe5529da	-0.20816746
130	0xbde17cdc	-0.11010143
131	0xbd939d10	-0.07207692
132	0xbe4636ef	-0.19356893
133	0x3d87a8df	0.066240065
134	0xbe72b78f	-0.23702835
135	0xbe06b220	-0.13153887
136	0xbf0f15c6	-0.558926
137	0x3e2c6543	0.16835503
138	0xbc11583c	-0.008871134
139	0xbe0cf172	-0.13763979
140	0xbe2238ca	-0.15841976
141	0xbeb5288e	-0.35382503
142	0x3ce2b0ce	0.027672198
143	0xbe4182d0	-0.18897557
144	0x3e084935	0.13309176
145	0x3e3402f9	0.17579259
146	0xbdae0f6a	-0.08499034
147	0x3e3acdd7	0.18242584
148	0xbec1e83c	-0.37872493
149	0x3e5c49af	0.21512483
150	0x3db0604c	0.08612117
151	0xbcd9903d	-0.026558036
152	0xbd62f73a	-0.055411555
153	0xbe4c3614	-0.19942504
154	0xbe0abc94	-0.135485
155	0xbd9e3b2b	-0.07726129
156	0xbb140b41	-0.0022589716
157	0x3e3f4baf	0.18681215
158	0xbdc14ab6	-0.09438078
159	0x3e29ad2b	0.16569965
160	0x3d2ca70b	0.042151492
161	0xbe8dfdf5	-0.27732816
162	0x3e162544	0.14662653
163	0x3d960d35	0.07326738
164	0xbdf7f7ff	-0.121078484
165	0xbdbe84c9	-0.093026705
166	0xbddcb0e2	-0.10775925
167	0xbe14bb47	-0.14524566
168	0x3e0ccd41	0.13750173
169	0xbdd3fba5	-0.10350732
170	0x3e285733	0.16439514
171	0xbdfef315	-0.12448708
172	0x3dc992c6	0.09842448
173	0x3aa18712	0.0012323579
174	0xbd7b21e2	-0.06131161
175	0x3e3b57e7	0.18295251
176	0x3e24b702	0.16085437
177	0x3df6037c	0.12012383
178	0xbe7142c3	-0.23560624
179	0xbda74cb9	-0.081689306
180	0x3dd6482e	0.10462986
181	0x3e38a456	0.18031439
182	0x3da42a6f	0.08015906
183	0x3e786b73	0.24259739
184	0x3e677682	0.22603801
185	0xbd62971c	-0.05531989
186	0xbe7fa65a	-0.24965802
187	0x3e0e6658	0.13906229
188	0x3e32f6a4	0.17476898
189	0xbe369aa7	-0.17832433
190	0x3dc6cb42	0.09706737
191	0x3d549eed	0.051909376
192	0x3e3f3050	0.18670774
193	0x3d16245a	0.03665576
194	0x3e198c7e	0.14995
195	0xbe768a53	-0.24076204
196	0xbce55cd7	-0.027998371
197	0x3e38a413	0.1803134
198	0xbd2a596b	-0.041589182
199	0xbe26f50f	-0.1630442
200	0xbcc4c3f5	-0.02401922
201	0x3e2b6572	0.16737917
202	0x3c85637d	0.016282791
203	0xbe056710	-0.13027596
204	0x3c255ae1	0.010092468
205	0xbce65fdc	-0.028121881
206	0xbe33ce15	-0.17559083
207	0xbdfd9a78	-0.12382978
208	0x3d2a7a1d	0.041620363
209	0xbcde277c	-0.027118437
210	0xbeaecc66	-0.3414032
211	0xbe23a1bc	-0.15979666
212	0xbcca1c8b	-0.024671813
213	0xbe1fbc15	-0.15599091
214	0xbdc44f84	-0.09585479
215	0xbdcdbfe7	-0.10046368
216	0xbd46763a	-0.048452593
217	0xbdb411eb	-0.0879248
218	0x3ddfbb22	0.109243646
219	0xbd9f52ec	-0.07779488
220	0x3dbf4e64	0.09341124
221	0x3d14edd7	0.036359634
222	0xbd9510c8	-0.072785914
223	0x3d832cd1	0.064050324
224	0x3e4bbd55	0.19896443
225	0x3e615fcd	0.22009201
226	0x3e805ac9	0.25069264
227	0xbe35d1ce	-0.17755815
228	0x3e6133a6	0.21992359
229	0x3e2b2d11	0.1671641
230	0xbe34fd5d	-0.17674775
231	0x3e90c21d	0.28273097
232	0x3dc97656	0.09837024
233	0x3e5779e7	0.21042596
234	0xbec1ccbf	-0.3785152
235	0xbeb04673	-0.34428748
236	0xbdf53f0b	-0.11974915
237	0xbe41e0f8	-0.18933475
238	0x3d9b981f	0.07597374
239	0xbe40413f	-0.1877489
240	0xbcbc7bef	-0.023008315
241	0xbdc449ca	-0.09584387
242	0x3eabd434	0.33560336
243	0x3dbdd377	0.09268849
244	0x3ee22b18	0.44173503
245	0xbdc63a48	-0.09679085
246	0x3d5773c6	0.052600645
247	0xbe585870	-0.21127486
248	0x3e6497ed	0.2232358
249	0x3d2228d5	0.03958972
250	0xbd7b43b1	-0.061343852
251	0xbe74f401	-0.23921205
252	0xbd9b86eb	-0.07594093
253	0xbe24adda	-0.16081944
254	0xbd66223a	-0.056184985
255	0x3d4e0126	0.050294064

lstm.weight_hh_l0_reverse f4 [128, 32]
0	0x3d091949	0.03347138
1	0x3e71d7a1	0.23617412
2	0x3e867375	0.26259962
3	0xbd9dbe64	-0.0770233
4	0x3e8718d9	0.26386145
5	0xbd59ccdd	-0.05317389
6	0xbeb90d55	-0.36142984
7	0xbdd41f2a	-0.103575066
8	0x3d747a6c	0.059687063
9	0xbea269fb	-0.31721482
10	0x3ec80e5a	0.3907345
11	0xbdc66572	-0.09687318
12	0x3d8a15a4	0.06742409
13	0x3e4fe9a0	0.20303965
14	0xbe3474ac	-0.17622632
15	0x3e15b1d1	0.14618613
16	0x3e1486d1	0.14504553
17	0xbd0606e2	-0.032721408
18	0xbe39c783	-0.18142514
19	0x3e72efb3	0.2372425
20	0xbe15a204	-0.14612585
21	0xbeca56cc	-0.39519346
22	0x3c598556	0.013276419
23	0x3d710955	0.05884679
24	0xbe35203c	-0.17688078
25	0x3d136cb8	0.035992354
26	0xbea1cfe5	-0.31603923
27	0x3d18c4db	0.03729711
28	0x3d714e25	0.058912415
29	0xbddfb333	-0.109228514
30	0xbe83c25e	-0.25734228
31	0x3e0f9098	0.14020002
32	0xbebc65fb	-0.36796555
33	0x3e895ec5	0.26830116
34	0x3e25a986	0.1617795
35	0xbec103ac	-0.37698114
36	0x3d8f3f59	0.069945045
37	0xbe76ed08	-0.24113858
38	0xbd5b0de2	-0.053480037
39	0x3daffbd2	0.08592953
40	0xbe069f54	-0.13146716
41	0xbd34d39b	-0.044147115
42	0x3d9030be	0.07040547
43	0x3e5043a2	0.203383
44	0xbca55226	-0.020180773
45	0x3df0e897	0.11763113
46	0xbdcd5651	-0.10026229
47	0x3e56b89b	0.20968859
48	0x3dbdf37a	0.09274955
49	0xbe39fddd	-0.18163247
50	0xbe2826d0	-0.16421056
51	0x3d2dce92	0.04243333
52	0xbca31915	-0.019909421
53	0xbe2d9e1d	-0.16954847
54	0xbe54b407	-0.207718
55	0x3d92b230	0.07162893
56	0xbe7b245f	-0.24525593
57	0x3e57f473	0.21089344
58	0xbbd6738c	-0.006544536
59	0x3e5af774	0.21383458
60	0xbe3af388	-0.18256962
61	0x3cf84a65	0.030308912
62	0xbe86053d	-0.26175871
63	0x3d887843	0.06663563
64	0xbdd6ebf8	-0.10494226
65	0x3e5e0679	0.21682157
66	0xbcf15791	-0.0294607
67	0xbdee25b8	-0.11628288
68	0xbb855968	-0.004069496
69	0x3c825ac0	0.015912414
70	0xbea2ac43	-0.3177205
71	0x3e360a34	0.1777733
72	0x3e0bf1d6	0.13666472
73	0xbd663307	-0.056201007
74	0xbd6be75c	-0.05759369
75	0xbd8b388d	-0.067978956
76	0x3e607b27	0.21921979
77	0x3c84ab0b	0.01619484
78	0xbe435cee	-0.19078419
79	0x3e05a6c4	0.13051897
80	0x3e945a99	0.2897537
81	0xbeb14bda	-0.34628183
82	0x3db4f809	0.088363715
83	0xbdbc75e9	-0.09202177
84	0x3c74a2b1	0.014931367
85	0xbe1375c6	-0.14400396
86	0x3e516c52	0.20451477
87	0x3e4113d2	0.18855217
88	0xbdf4b6cb	-0.119489275
89	0x3e8b6404	0.27224743
90	0xbc5ff322	-0.013668807
91	0x3d629598	0.055318445
92	0x3e977aaa	0.29585773
93	0xbe7ad95c	-0.24496979
94	0xbe4cd0b7	-0.20001493
95	0x3e1c769a	0.15279618
96	0xbe8dc09a	-0.27686006
97	0x3ead6943	0.3386937
98	0x3ec7e7c0	0.39044
99	0x3d9b9cdc	0.07598278
100	0x3e9ff844	0.312441
101	0x3e308fc6	0.17242345
102	0xbeae0900	-0.3399124
103	0xbda1a7fb	-0.07893368
104	0x3da169b7	0.07881492
105	0x3da53daa	0.08068402
106	0xbe523764	-0.20528942
107	0x3d5ddbbc	0.054164633
108	0x3e20cc55	0.15702946
109	0x3dea5070	0.114411235
110	0xbe658996	-0.22415766
111	0x3e04a0d6	0.12951979
112	0x3ebecd7b	0.37266144
113	0xbdc539c9	-0.09630162
114	0xbe72c97e	-0.23709676
115	0x3e35459e	0.17702338
116	0xbe79f0c4	-0.24408251
117	0xbe8013c7	-0.2501509
118	0x3dc8e003	0.09808352
119	0x3e5bde55	0.21471532
120	0xbe29af81	-0.16570856
121	0x3e9a58ab	0.30145773
122	0xbe722706	-0.23647699
123	0xbe9cf1b1	-0.30653146
124	0xbdabd294	-0.08389774
125	0xbe98716e	-0.2977404
126	0xbb7290a5	-0.0037012484
127	0x3e941939	0.28925493
128	0xbf3035b2	-0.6883193
129	0x3f1723f8	0.5903926
130	0x3e97d5d4	0.29655325
131	0x3c8ec1c2	0.017426375
132	0x3e2e0b0a	0.16996399
133	0xbe9290de	-0.2862615
134	0xbdaf307e	-0.08554171
135	0x3e85d3ad	0.26138058
136	0xbe383c49	-0.17991747
137	0x3e45ec52	0.1932843
138	0x3d2ae4ea	0.041722216
139	0x3d06d5de	0.032918803
140	0x3efb7acf	0.49117133
141	0x3f04f17e	0.5193099
142	0xbf0b76a6	-0.5447792
143	0x3e72b233	0.2370079
144	0x3d985214	0.0743753
145	0xbdf82f81	-0.12118436
146	0xbdc84cfb	-0.09780308
147	0xbe177533	-0.14790802
148	0xbdf7bed7	-0.12096947
149	0xbec46bb6	-0.38363427
150	0xbdef48cf	-0.11683809
151	0x3e3fb6aa	0.18722025
152	0xbe04316d	-0.1290948
153	0x3d2e67cf	0.04257947
154	0xbf1b8834	-0.60754704
155	0xbd87378a	-0.0660239
156	0x3e9e1bdc	0.3088063
157	0x3ea2a050	0.31762934
158	0xbe7af203	-0.24506383
159	0x3f0392d2	0.51395905
160	0xbe9b1da0	-0.3029604
161	0x3e6c8fe5	0.23101766
162	0x3dad22dc	0.084539145
163	0x3e76fa80	0.24118996
164	0x3c4f0f6e	0.012637956
165	0x3dc1e886	0.094681785
166	0xbe1206b0	-0.14260364
167	0xbeb36ce9	-0.3504403
168	0x3dbe7d91	0.09301294
169	0xbe899d71	-0.2687793
170	0xbcd403e4	-0.025880761
171	0x3c9a6995	0.018849174
172	0xbc50313a	-0.012707049
173	0x3cd1244e	0.025530007
174	0x3df40f06	0.11916928
175	0xbbc68f56	-0.0060595674
176	0x3ec6e6ff	0.3884811
177	0xbeb1e3af	-0.3474402
178	0xbd7b8f63	-0.06141604
179	0x3e06837d	0.13136096
180	0x3d7ef155	0.06224187
181	0xbe847e37	-0.25877544
182	0x3d236a67	0.039896395
183	0x3eb59ea9	0.3547261
184	0xbc851d92	-0.016249452
185	0x3d927a69	0.07152254
186	0xbc9bcaf3	-0.019017672
187	0xbe601c0d	-0.218857
188	0x3ed30b19	0.41219404
189	0x3d4b9838	0.049705714
190	0xbdef0020	-0.11669946
191	0x3e444d06	0.19170007
192	0xbe8534e1	-0.26016906
193	0x3ed9bb27	0.42525598
194	0x3e236fca	0.15960613
195	0x3de8d4ee	0.11368738
196	0xbd798dcb	-0.06092624
197	0x3d21e788	0.039527446
198	0xbda46751	-0.080275185
199	0x3e94376a	0.28948528
200	0xbef0a272	-0.46998936
201	0x3e3371e9	0.17523922
202	0x3e8c47a0	0.27398396
203	0x3e4f9b51	0.20274092
204	0x3d2f772d	0.042838264
205	0x3e11b566	0.14229354
206	0xbedf005c	-0.43554962
207	0x3e124b2b	0.14286487
208	0xbe021918	-0.12704885
209	0xbe328e3f	-0.17437075
210	0xbe3e931d	-0.18610807
211	0xbe221618	-0.1582874
212	0xbe416088	-0.1888448
213	0xbead51c0	-0.33851433
214	0xbd8f126e	-0.06985937
215	0x3e824581	0.25443652
216	0xbe990ceb	-0.29892668
217	0xbe0f1c62	-0.13975671
218	0xbf17402a	-0.5908228
219	0x3dc7f672	0.097638026
220	0x3d22b448	0.03972271
221	0x3d51fd21	0.051266793
222	0xbea0ed50	-0.31431055
223	0x3de2d036	0.11074869
224	0xbe2df208	-0.16986859
225	0x3e539cee	0.20665333
226	0x3e4461a0	0.19177866
227	0x3e8e6795	0.27813402
228	0xbe33ecaf	-0.17570756
229	0x3e194b88	0.14970219
230	0xbe8b2792	-0.27178627
231	0xbcb1616e	-0.021652903
232	0x3d34844a	0.044071473
233	0xbe345419	-0.17610206
234	0x3edca6b9	0.4309595
235	0xbea0eb72	-0.3142963
236	0x3d927848	0.07151848
237	0xbd87db9b	-0.06633683
238	0xbd600364	-0.054690734
239	0x3d118f70	0.035537183
240	0x3e996e41	0.2996693
241	0xbdd4289e	-0.103593096
242	0xbe80f3a6	-0.2518589
243	0x3d95a937	0.07307666
244	0xbdc9c81a	-0.098526195
245	0xbdefdfa9	-0.11712582
246	0x3de13681	0.10996724
247	0x3e69fc0a	0.22850052
248	0xbe221d7a	-0.15831557
249	0x3e25dd6b	0.16197746
250	0xbdae74d8	-0.0851838
251	0xbe8a2aab	-0.26985678
252	0xbdfd0907	-0.123552375
253	0xbcb13506	-0.021631729
254	0xbd327fed	-0.04357903
255	0x3b1d1340	0.0023967773

lstm.bias_ih_l0_reverse f4 [128]
0	0x3e7e5cdc	0.2484011
1	0x3e0e2745	0.13882168
2	0x3ea340c8	0.31885362
3	0x3ea532dd	0.32265368
4	0x3ef549fe	0.47908014
5	0x3e0ff852	0.1405957
6	0x3e93e952	0.28888947
7	0x3eab4ab4	0.3345543
8	0x3df5a5ce	0.11994515
9	0x3e654b96	0.22392115
10	0x3eaaa54d	0.3332924
11	0x3e8598b0	0.26093054
12	0x3e373ca0	0.1789422
13	0x3e06bff0	0.13159156
14	0xbcb82d1f	-0.022482453
15	0x3e02b1fb	0.12763207
16	0x3e3eb5a7	0.18623982
17	0x3d9ef2ef	0.0776118
18	0x3ea417ce	0.32049412
19	0x3d7273a6	0.059192322
20	0x3d8f4d54	0.06997171
21	0x3e7d443e	0.24733064
22	0x3dd551a7	0.104159646
23	0x3e8d7bfa	0.2763365
24	0x3e9ce04d	0.30639878
25	0x3ed1482e	0.4087538
26	0x3e4eaeaa	0.20183817
27	0x3ebe8bcf	0.3721604
28	0xbd3eaeae	-0.046553306
29	0x3ef638f6	0.48090333
30	0x3dbcf299	0.09225959
31	0x3d992f9e	0.074797854
32	0x3e5528ab	0.20816295
33	0xbdf37746	-0.11887984
34	0x3e31dd1a	0.173695
35	0x3dcb1ca9	0.09917576
36	0xbe03f3f4	-0.1288603
37	0x3bdf89f4	0.006821865
38	0x3dbf2b0f	0.09334385
39	0xbdf8e660	-0.121533155
40	0xbd3c0e22	-0.045911916
41	0x3de97bbe	0.11400555
42	0x3e406674	0.18789083
43	0xbe06da31	-0.13169171
44	0x3df2c01a	0.11853047
45	0x3e60deee	0.21960041
46	0x3e069804	0.13143927
47	0xbe0f1b5d	-0.13975282
48	0x3c985414	0.01859478
49	0x3c70a6d3	0.0146882115
50	0xbaed1453	-0.0018087722
51	0x3d4e9b99	0.05044136
52	0x3bd2079d	0.006409599
53	0x3e6504cc	0.22365111
54	0xbd91acb3	-0.07113018
55	0xbde8a99c	-0.113604754
56	0x3e0930ea	0.13397565
57	0xbe0dd01c	-0.13848919
58	0x3e68f5cd	0.22750016
59	0x3e44d968	0.19223559
60	0x3cf6fca4	0.030149765
61	0x3de2db5f	0.11076998
62	0x3c42bb55	0.011885484
63	0x3d83545a	0.06412573
64	0xbe758e1f	-0.23979996
65	0xbd9cae31	-0.07650412
66	0x3e035c0a	0.12828079
67	0xbe0743d3	-0.13209467
68	0x3e61008a	0.21972862
69	0xbda2074a	-0.079115465
70	0x3c0dbf7b	0.0086516095
71	0x3ea1a142	0.31568342
72	0xbd3f1b07	-0.046656635
73	0xbdf53f50	-0.119749665
74	0x3d960a3d	0.073261715
75	0xbd6da319	-0.05801687
76	0xbdef64e6	-0.11689167
77	0x3dbe04b4	0.09278241
78	0xbe49b112	-0.19696453
79	0x3e1f8b14	0.15580398
80	0x3dfb6481	0.12275029
81	0x3cc7d3e5	0.024393031
82	0x3ce6dd37	0.028181655
83	0xbe14b340	-0.14521503
84	0xbe463388	-0.19355595
85	0xbdb37d7c	-0.087641686
86	0x3d4ca72e	0.049964122
87	0x3e5733c9	0.21015848
88	0xbe555f55	-0.20837148
89	0x3e704b28	0.2346617
90	0xbd9252f1	-0.07144726
91	0xbb930208	-0.004486326
92	0x3d3114ad	0.04323261
93	0x396dc0b5	0.0002267387
94	0x3cce11ac	0.025154911
95	0x3e767464	0.24067837
96	0x3a90522f	0.0011010821
97	0x3e981f95	0.29711595
98	0x3e02ca8c	0.12772578
99	0x3e370766	0.17873916
100	0x3e0a47d5	0.13503964
101	0xbd74e970	-0.059792936
102	0x3dd974e7	0.106180005
103	0xbd3fdb66	-0.046840094
104	0x3dbad1db	0.09122058
105	0x3ba92215	0.0051615336
106	0x3e9704c9	0.29495838
107	0x3db66def	0.08907687
108	0xbc08d14c	-0.0083506815
109	0x3d5232ce	0.051317982
110	0x3e264ede	0.16241023
111	0x3dd768f6	0.105180666
112	0xbc691bea	-0.014227847
113	0x3e061d2c	0.13097066
114	0x3d05cc03	0.032665264
115	0xbe266732	-0.16250303
116	0x3e1f472f	0.15554498
117	0x3cbc7877	0.02300666
118	0x3e6c64e8	0.23085368
119	0x3d691eda	0.056914188
120	0x3e84f9ed	0.25971928
121	0x3d1455ec	0.036214754
122	0x3c1b1ef4	0.009467829
123	0x3e556482	0.20839122
124	0x3c742baa	0.014902988
125	0x3eae1ab1	0.3400474
126	0x3e15fd37	0.14647375
127	0x3df9bee7	0.12194615

lstm.bias_hh_l0_reverse f4 [128]
0	0x3e838fa7	0.25695536
1	0x3e1b2591	0.15151049
2	0x3ee42700	0.44561005
3	0x3e72bc82	0.23704723
4	0x3ef9f878	0.4882238
5	0x3eb1bce2	0.3471442
6	0x3ea8f40e	0.329987
7	0x3d0acce8	0.03388682
8	0x3e13622d	0.1439292
9	0x3df31ba2	0.11870505
10	0x3e681b18	0.22666585
11	0x3d3e40f5	0.046448667
12	0x3d1b4655	0.03790887
13	0x3ef101df	0.4707174
14	0x3c0bba1f	0.008528261
15	0x3ea73877	0.32660267
16	0x3dd09f12	0.1018659
17	0x3e9285c0	0.28617668
18	0x3dd345ab	0.103160225
19	0x3d829443	0.06375935
20	0x3e89484a	0.26812965
21	0x3e833d5c	0.2563275
22	0x3e419ad4	0.18906718
23	0xbbe02b06	-0.0068410663
24	0x3e8cbcbb	0.2748774
25	0x3e264615	0.16237672
26	0x3e569a1c	0.20957226
27	0x3e558d1e	0.20854613
28	0x3ca3f7b1	0.02001557
29	0x3f3a86e3	0.7286207
30	0x3e197277	0.14985071
31	0x3df0aa14	0.1175119
32	0x3ddf54f8	0.109048784
33	0xbe396a0c	-0.1810686
34	0x3d0212ab	0.031756084
35	0x3cf3029a	0.029664326
36	0x3dc0dee9	0.09417517
37	0xbcdaa6a8	-0.026690796
38	0x3e042eee	0.12908527
39	0x3e3954ea	0.18098798
40	0xbdade36f	-0.08490645
41	0x3d3a1d18	0.045437902
42	0x3e42f6bc	0.19039434
43	0x3de2bdda	0.110713676
44	0x3e04515d	0.12921663
45	0x3d7b02b5	0.06128188
46	0x3d642c81	0.055706505
47	0x3e20c08b	0.1569845
48	0x3e3b2e76	0.18279442
49	0x3e144c51	0.14482237
50	0xbe00bc92	-0.12571934
51	0x3e26d126	0.16290721
52	0xbdfa7939	-0.12230153
53	0xbba624f0	-0.0050703213
54	0x3de9d625	0.11417798
55	0x3d88a874	0.06672755
56	0x3e817c49	0.25290135
57	0x3e0859b0	0.13315463
58	0x3e309349	0.17243685
59	0x3e007afa	0.12546912
60	0x3e655ea6	0.22399387
61	0xbdeaf621	-0.114727266
62	0xbd4d5015	-0.0501252
63	0x3dd75ca6	0.10515718
64	0xbe144ca5	-0.14482363
65	0xbd1fe6a1	-0.039038304
66	0x3d84cb15	0.06484047
67	0x3d4da349	0.05020455
68	0xba7ef287	-0.00097254704
69	0xbd955358	-0.07291287
70	0xbe346b9c	-0.17619175
71	0x3bbef3b7	0.005827393
72	0x3e13256e	0.14369747
73	0x3e25b485	0.16182144
74	0xbdc699e7	-0.09697323
75	0xbddb36af	-0.107037894
76	0x3e2e5e75	0.1702822
77	0x3e3856c2	0.18001845
78	0xbe256524	-0.16151863
79	0xbddca7a5	-0.10774163
80	0x3dd55bdb	0.10417911
81	0xbe640a64	-0.22269589
82	0x3d831e0c	0.06402215
83	0x3c1a148d	0.009404314
84	0xbdb3b66c	-0.087750286
85	0xbe1c88cf	-0.15286563
86	0xbda1eebc	-0.07906863
87	0x3d594804	0.053047195
88	0x3d76630a	0.060153045
89	0x3d55673a	0.052100398
90	0xbe3443b7	-0.17603956
91	0xbdfdcd00	-0.12392616
92	0x3b3e5ae2	0.002904587
93	0x3d0ae19b	0.03390656
94	0x3cc4398e	0.023953225
95	0x3ddef971	0.10887421
96	0x3e5d09b2	0.2158573
97	0x3dd760b1	0.10516489
98	0x3d8149bc	0.06312892
99	0x3ebebeb1	0.3725486
100	0x3e47b535	0.19502719
101	0xbd9cf496	-0.076638386
102	0x3e999242	0.29994398
103	0x3de3c217	0.11121004
104	0xbd6b3a8a	-0.057428874
105	0x3d439757	0.04775175
106	0x3e51d6ca	0.20492092
107	0x3cdaa40a	0.026689548
108	0x3e1c7a0a	0.15280929
109	0xbce613a0	-0.02808553
110	0x3da9bca4	0.082879335
111	0x3eda7b9d	0.42672434
112	0xbc79ac14	-0.0152387805
113	0x3e2a3816	0.16622958
114	0xbc58eea6	-0.013240492
115	0xbdf0afb8	-0.11752266
116	0x3ddebbe9	0.10875685
117	0x3e442bd8	0.1915735
118	0xbd1cdb57	-0.038295116
119	0x3e2b426d	0.16724558
120	0xbc089f63	-0.008338782
121	0x3e7714f8	0.24129093
122	0x3e889064	0.2667266
123	0x3e89a499	0.2688339
124	0x3de5f97f	0.11229228
125	0x3e80542b	0.25064215
126	0x3e2d6217	0.1693195
127	0x3c41303e	0.011791287

lstm.weight_ih_l1 f4 [128, 64]
0	0x3d128ce3	0.03577889
1	0xbe057fb4	-0.13036996
2	0x3c81c029	0.0158387
3	0x3d8cadf2	0.06869115
4	0x3d508bb8	0.050914496
5	0x3de3f000	0.11129761
6	0xbcb574e9	-0.022150474
7	0x3ecff387	0.40615484
8	0x3e4a2da3	0.19743972
9	0xbcf785b6	-0.030215126
10	0xbe824016	-0.2543952
11	0xbdbe49d7	-0.092914276
12	0xbce399ae	-0.027783241
13	0x3cfca2c6	0.030839335
14	0x3dfc0768	0.123061
15	0x3dd77898	0.10521048
16	0xbdd6e7ff	-0.104934685
17	0x3dedaa0e	0.11604701
18	0xbdc1f553	-0.0947062
19	0x3e302b1a	0.17203942
20	0x3e19b7c5	0.15011509
21	0xbd83f98e	-0.06444083
22	0xbe096d80	-0.13420677
23	0x3dc34cf2	0.095361605
24	0xbe6ea31e	-0.23304412
25	0xbe5a0e70	-0.2129457
26	0x3ea92138	0.33033156
27	0xbe3232ef	-0.17402242
28	0x3e6bedce	0.23039934
29	0xbdd8db2b	-0.10588678
30	0xba82f968	-0.0009992542
31	0x3e34f0b4	0.17669946
32	0xbdf83be6	-0.121208
33	0x3e8a2b2f	0.2698607
34	0x3cc8a32c	0.024491869
35	0x3eb04233	0.34425506
36	0xbe6ffab8	-0.23435485
37	0xbd038002	-0.0321045
38	0x3e4b4882	0.19851878
39	0x3ddc1ff6	0.107482836
40	0xbee2bf0b	-0.4428638
41	0x3c7b951b	0.015355374
42	0xbd8c9ea2	-0.06866194
43	0xbdde3eeb	-0.108518444
44	0xbdee52b3	-0.116368674
45	0xbdb528d6	-0.088456795
46	0xbdf114a0	-0.11771512
47	0xbdf49643	-0.11942723
48	0xbe87eeac	-0.2654928
49	0xbe6d9f99	-0.23205413
50	0x3e64ca8e	0.22342893
51	0x3dee2994	0.11629024
52	0xbe31b364	-0.17353588
53	0x3d351a2a	0.044214405
54	0x3e5cf4ff	0.21577834
55	0xbe1a6a0e	-0.15079519
56	0x3df1ebf4	0.118125826
57	0xbe556e04	-0.20842749
58	0xbdee3c96	-0.116326496
59	0x3e8b3626	0.2718975
60	0x3e48d212	0.19611385
61	0x3daa58ec	0.08317742
62	0xbe58a083	-0.2115498
63	0x3d961cb3	0.07329693
64	0xbcdc07b9	-0.026859151
65	0x3dfe4aa5	0.12416581
66	0xbe92a371	-0.2864032
67	0xbeaa7317	-0.33290932
68	0xbe00bbf9	-0.12571706
69	0x3d98a2a6	0.07452898
70	0x3e7786ce	0.24172518
71	0x3e2c8524	0.16847664
72	0x3dbae54d	0.09125767
73	0x3e07eb3e	0.13273332
74	0x3da46435	0.080269255
75	0xbd8e69cd	-0.06953774
76	0xbe2f034a	-0.17091098
77	0xbdd507b7	-0.10401862
78	0x3daebe30	0.08532369
79	0x3e5755a7	0.21028768
80	0xbe053ca6	-0.13011417
81	0x3e9893b1	0.2980018
82	0xbec21633	-0.37907562
83	0xbec61bfb	-0.38693222
84	0x3dfc959f	0.123332255
85	0xbd565b9f	-0.05233347
86	0xbdb086a5	-0.086194314
87	0x3e811d84	0.2521783
88	0xbd8080c2	-0.062745586
89	0xbe9bcf1d	-0.30431452
90	0x3e7286de	0.2368426
91	0x3c7b6a99	0.015345239
92	0xbc79a893	-0.015237945
93	0x3df67112	0.12033285
94	0x3e2f8f82	0.17144588
95	0x3d4e0317	0.050295915
96	0xbd3079f8	-0.04308507
97	0xbe67acb8	-0.2262448
98	0xbb926d66	-0.0044686077
99	0x3df0e8fb	0.117631875
100	0x3e516a86	0.20450792
101	0x3e7a3873	0.24435596
102	0xbe9d471f	-0.30718324
103	0xbe03303f	-0.12811373
104	0x3dbe6b74	0.09297839
105	0x3e1be994	0.15225822
106	0xbe022fe6	-0.12713584
107	0xbe8e1aa7	-0.2775471
108	0xbd8a6743	-0.06757977
109	0x3e194e8b	0.14971368
110	0x3cb90f44	0.022590287
111	0xbe3f1cd1	-0.18663336
112	0x3de6bdda	0.1126668
113	0xbdbdf926	-0.09276037
114	0xbddb04b3	-0.10694256
115	0x3e661022	0.22467092
116	0xbe209803	-0.15682988
117	0xbea7356e	-0.3265795
118	0xbdbbc0c9	-0.0916763
119	0x3e1cfebf	0.15331553
120	0x3e4364e9	0.19081463
121	0x3de75656	0.11295764
122	0xbde8c9ec	-0.113666385
123	0xbe516b1b	-0.20451014
124	0x3da28035	0.0793461
125	0xbe8f0c2c	-0.27938974
126	0xbe7fd7cb	-0.24984662
127	0x3df7f224	0.121067315
128	0xbda00374	-0.07813159
129	0xbd2c2262	-0.042024978
130	0xbe77ce41	-0.24199773
131	0xbe96fdfe	-0.29490656
132	0xbdaa12e6	-0.08304386
133	0x3cd1f2f0	0.025628537
134	0x3e715743	0.23568444
135	0x3eb92731	0.36162713
136	0xbe29d955	-0.16586812
137	0xbc855484	-0.016275652
138	0x3ddcd911	0.1078359
139	0x3d6e56fe	0.05818843
140	0x3e3dbf81	0.18530084
141	0xbda8ac92	-0.0823604
142	0x3cfe2b05	0.031026373
143	0xbb7c6411	-0.0038511793
144	0xbe91b280	-0.28456497
145	0x3deefea1	0.1166966
146	0xbdbe869b	-0.09303018
147	0xbdee41a1	-0.116336115
148	0xbd0ba308	-0.034091026
149	0x3e84cb18	0.25936198
150	0x3df4abe5	0.11946849
151	0xbd97ed78	-0.074183404
152	0xbc9dbd77	-0.019255383
153	0xbe8d2508	-0.27567315
154	0x3e79035a	0.24317685
155	0xbe925bf2	-0.28585774
156	0xbe24fcb8	-0.1611203
157	0xbcde26a8	-0.027118042
158	0x3e592980	0.21207237
159	0x3e7a8f6c	0.24468774
160	0x3d40919b	0.04701386
161	0x3e66f24f	0.22553371
162	0xbd354125	-0.04425158
163	0x3d9afcf5	0.07567779
164	0xbc0c42e1	-0.008560867
165	0x3d2d71d6	0.04234489
166	0xbe8f0004	-0.279297
167	0x3db2da1f	0.087330095
168	0x3d907d42	0.07055141
169	0xbe03481d	-0.12820478
170	0xbcaaa64c	-0.02083125
171	0xbd6f0726	-0.058356427
172	0xbe306b17	-0.17228352
173	0x3c9f4d6d	0.0194461
174	0xbd5b2a59	-0.053507183
175	0xbeccd085	-0.40002838
176	0x3b8b3b7c	0.0042490344
177	0xbdf33569	-0.118754216
178	0xbca26cc8	-0.019827262
179	0xbe50dfb6	-0.20397839
180	0xbe360cea	-0.17778364
181	0x3d9c7c80	0.07640934
182	0x3d97d95a	0.074145034
183	0x3e835497	0.25650474
184	0x3e81108b	0.25207934
185	0xbc0dc26b	-0.00865231
186	0xbde8ce94	-0.11367527
187	0xbdb7542c	-0.089516014
188	0x3ef2a7af	0.47393557
189	0xbe97fd65	-0.29685512
190	0xbebeec35	-0.37289587
191	0x3e969dbc	0.29417217
192	0x3e6f1279	0.2334689
193	0x3e413b43	0.18870263
194	0xbe0e4d2d	-0.13896628
195	0xbd2e6b4e	-0.042582802
196	0xbed84e62	-0.422473
197	0x3dc8535b	0.09781524
198	0x3e1e1770	0.15438628
199	0x3d7d8b90	0.061900675
200	0xbbaad90c	-0.0052138623
201	0xbda029cf	-0.07820474
202	0x3e0bf165	0.13666303
203	0x3c86d05c	0.016456775
204	0x3c8eafbb	0.01741778
205	0xbda461bb	-0.08026453
206	0x3ea25262	0.31703478
207	0x3e56c4a3	0.20973448
208	0xbe1b8d3a	-0.15190592
209	0x3caedc55	0.021345297
210	0xbb8c564d	-0.004282749
211	0xbe529be9	-0.20567288
212	0xbe28f627	-0.1650015
213	0x3db5536a	0.088538006
214	0x3e20f222	0.15717366
215	0x3dc47704	0.09593013
216	0x3e267380	0.16254997
217	0xbd115ab0	-0.035486877
218	0x3e1343b3	0.14381294
219	0xbeb0a89d	-0.34503642
220	0x3d7cbefe	0.06170558
221	0x3b0e26a8	0.0021690521
222	0x3db13f63	0.08654668
223	0x3e5150d5	0.20440991
224	0xbe253a57	-0.16135536
225	0xbcf77bcc	-0.030210398
226	0xbc30565f	-0.01076278
227	0x3cd58aa0	0.026067078
228	0x3d981ef2	0.07427777
229	0x3dc2c194	0.09509578
230	0xbdaeff16	-0.085447475
231	0xbe26b6e8	-0.1628071
232	0xbe05385c	-0.1300978
233	0x3e3d731e	0.18500945
234	0xbd29664f	-0.041357335
235	0xbe1a45ac	-0.1506564
236	0x3dbd1cd4	0.09234014
237	0x3d3c3195	0.045945723
238	0x3c3b0a7a	0.011416072
239	0x3d906db8	0.07052177
240	0x3e3cfc0e	0.18455526
241	0x3df3c593	0.11902919
242	0xbe445337	-0.19172369
243	0xbe5a778f	-0.2133467
244	0xbc88432e	-0.016633596
245	0xbe92126b	-0.28529677
246	0x3e3e2c28	0.18571532
247	0x3e071be0	0.13194227
248	0xbe283db2	-0.16429785
249	0x3e3781ad	0.17920561
250	0x3b4b12df	0.003098659
251	0xbe5bd497	-0.21467815
252	0x3e8ae396	0.2712676
253	0x3a816200	0.0009871125
254	0xbcc695da	-0.024241377
255	0x3e2a024f	0.16602443
