trained_models/HCT116_left_out_model.pth (torch, 257039 bytes, 26 tensors)

lstm.weight_ih_l0 f4 [128, 9]
0.09059565 0.06853451 -0.07795676 0.15168293 -0.30907762 0.08480823 0.031776574 0.06734058
0.20211029 -0.2934085 0.25446305 -0.32655305 -0.044387557 -0.34265873 0.060442183 -0.04580786
-0.08219406 -0.09055254 0.25901014 -0.06887761 0.14064887 -0.016042367 -0.09075126 0.04263078
0.016115386 -0.051861797 0.049416043 0.2338606 -0.11856263 0.12878308 0.25012743 0.43392667
-0.03234761 -0.045844518 -0.14150517 -0.31459168 0.0058689346 -0.42714405 -0.0982571 -0.35751677
-0.03513409 -0.1903597 0.010084155 0.15305762 -0.020484757 -0.011213316 0.30799535 -0.0009959673
0.092335336 0.25561824 -0.20959538 -0.20253351 -0.15707268 -0.26468745 0.13792616 0.19845481
-0.060652763 -0.13256754 0.14932103 0.14202465 -0.22072591 0.29192555 0.103739016 0.12703997
0.0880636 0.09482796 0.0578627 -0.01399389 0.020916734 -0.08241593 -0.12127503 0.03372753
0.23824492 0.07170354 0.0022687933 0.15045959 -0.0025863457 0.04494149 -0.074178696 -0.027471282
0.13831523 -0.15651771 -0.33066756 -0.030616045 0.070362605 -0.17374624 -0.27530125 0.17698097
0.08135875 0.21191995 0.022619242 -0.1556913 0.052700754 0.015243982 0.02402542 -0.06968298
0.0927597 0.046326727 0.02023986 -0.07736502 0.94631666 0.2227428 0.08758062 0.57276255
-0.21999651 -0.05346533 0.10229579 0.15401182 0.4607434 -0.09548244 0.1409559 0.48964834
0.086654596 -0.25748637 -0.091177955 -0.10447709 0.119586505 0.1002952 -0.056324985 -0.14687227
-0.059692666 -0.07889022 0.19477974 -0.23436649 0.024205152 -0.16996613 -0.14600152 0.21523042
-0.021495258 0.3048201 -0.16467497 0.052816838 -0.2323564 -0.09696352 -0.11000405 0.048878394
-0.09422969 -0.13599837 -0.1216519 -0.13125247 0.04275049 -0.014582225 0.008405399 0.002191825
-0.06842467 -0.37011233 0.12241569 0.0728334 0.24138413 0.16578843 -0.26401696 0.19705239
-0.025484562 0.10676852 -0.56950307 -0.46738076 -0.2742574 -0.4213146 0.23652928 -0.0080323145
0.18919976 -0.04292881 0.103918865 0.20361786 -0.15803123 0.08605333 -0.19295898 0.035891946
0.12704937 -0.120347604 0.08504652 0.21300268 0.07106571 -0.0049957684 0.3734155 0.27137318
0.034414876 -0.05391866 -0.08835345 0.12159773 0.07884629 -0.043305144 -0.2005673 0.011780077
0.025236994 0.32140446 -0.41452208 -0.030218806 -0.102681056 -0.15472956 -0.2517624 -0.09571084
-0.20409146 0.1126078 0.020081464 -0.063615955 0.12808971 0.14172259 -0.28628865 -0.35107598
-0.021132404 -0.3184691 -0.7035328 -0.29867545 -0.08395599 -0.17923713 -0.20736639 0.22564949
0.13638209 -0.0073326714 0.24781848 0.20556627 -0.2275661 0.12878543 -0.04059816 0.07967642
0.010338479 -0.28435427 -0.38352686 0.022736318 -0.49640512 0.30108553 -0.016012931 -0.2507013
0.09564025 -0.4057901 -0.055122208 -0.047509603 0.009551191 0.16942392 -0.056784004 -0.20323467
0.08788242 -0.034292627 0.013318824 -0.13207448 -0.06546181 0.12169107 0.2780302 -0.08144473
-0.29584986 -0.15098703 0.059017826 0.003706165 -0.09204643 -0.11402404 -0.016407525 -0.14631093
-0.08171539 0.2570691 0.047271628 0.09158093 -0.111551195 0.011611421 0.004187664 -0.23648222
00000000: 368a b93d d25b 8c3d cba7 9fbd c552 1b3e
00000010: 6c3f 9ebe f0af ad3d 2728 023d dce9 893d
00000020: 00f6 4e3e a439 96be fb48 823e f631 a7be
00000030: bacf 35bd f770 afbe 3992 773d 06a1 3bbd
00000040: 5c55 a8bd 9c73 b9bd fa9c 843e b40f 8dbd
00000050: 4206 103e 486b 83bc ccdb b9bd 9d9d 2e3d
00000060: 6a04 843c 096d 54bd 7a68 4a3d 2779 6f3e
00000070: f7d0 f2bd b6df 033e b410 803e a32b de3e
00000080: ed7e 04bd 76c7 3bbd bbe6 10be 2912 a1be
00000090: 3150 c03b a0b2 dabe 053b c9bd 700c b7be
000000a0: c3e8 0fbd a7ed 42be 0338 253c 23bb 1c3e
000000b0: a6cf a7bc 0eb8 37bc 91b1 9d3e 1e8b 82ba
000000c0: 4f1a bd3d 65e0 823e 2ca0 56be f264 4fbe
000000d0: a9d7 20be 1d85 87be 843c 0d3e bd37 4b3e
000000e0: 086f 78bd c9bf 07be 9de7 183e e96e 113e
000000f0: f905 62be 4477 953e 1f75 d43d c416 023e
00000100: b05a b43d 2935 c23d 7001 6d3d a146 65bc
00000110: 9259 ab3c afc9 a8bd 0b5f f8bd e125 0a3d
00000120: 7af6 733e 4ed9 923d 09b0 143b 1412 1a3e
00000130: ae7f 29bb 9114 383d 00eb 97bd 740b e1bc
00000140: 82a2 0d3e 2e46 20be 424d a9be 80ce fabc
00000150: 451a 903d 89ea 31be 49f4 8cbe 803a 353e
00000160: 6b9f a63d 8b01 593e fd4b b93c 8a6d 1fbe
00000170: bfdc 573d e5c1 793c f5d0 c43c f3b5 8ebd
00000180: ccf8 bd3d 18c1 3d3d 10ce a53c 8d71 9ebd
00000190: cf41 723f b016 643e 785d b33d 91a0 123f
000001a0: c446 61be 76fe 5abd 7580 d13d 46b5 1d3e
000001b0: 8fe6 eb3e 4c8c c3bd be56 103e 30b3 fa3e
000001c0: f777 b13d 41d5 83be 82bb babd 16f8 d5bd
000001d0: c5e9 f43d 9267 cd3d 07b5 66bd af65 16be
000001e0: 4c80 74bd 3291 a1bd 5774 473e c5fd 6fbe
000001f0: e249 c63c 9a0b 2ebe 6c81 15be 5d65 5c3e
00000200: d316 b0bc 6111 9c3e 8ea0 28be 7856 583d
00000210: d6ee 6dbe cf94 c6bd ce49 e1bd b634 483d
00000220: 7ffb c0bd 2843 0bbe a224 f9bd 0c67 06be
00000230: 231b 2f3d 49ea 6ebc ccb6 093c b9a4 0f3b
00000240: 3c22 8cbd 5d7f bdbe 14b5 fa3d ad29 953d
00000250: 672d 773e 71c4 293e 3b2d 87be 1ac8 493e
00000260: 00c5 d0bc 74a9 da3d f4ca 11bf 884c efbe
00000270: 776b 8cbe 8cb6 d7be bb34 723e f899 03bc
00000280: 95bd 413e 1fd6 2fbd 6ad3 d43d 3381 503e
00000290: f0d2 21be ba3c b03d 0a97 45be 6f03 133d
000002a0: 3b19 023e ce78 f6bd df2c ae3d 601d 5a3e
000002b0: e68a 913d 8bb3 a3bb 5130 bf3e 6df1 8a3e
000002c0: 9df6 0c3d d0d9 5cbd a7f2 b4bd 3b08 f93d
000002d0: 2a7a a13d bc60 31bd 8461 4dbe 3901 413c
000002e0: d0bd ce3c 208f a43e 3d3c d4be 6e8d f7bc
000002f0: 724a d2bd 6d71 1ebe 00e7 80be 0b04 c4bd
00000300: 5afd 50be eb9e e63d e281 a43c 1549 82bd
00000310: f329 033e ba1f 113e 6d94 92be 3bc0 b3be
00000320: dd1d adbc 620e a3be ba1a 34bf fdeb 98be
00000330: 1ef1 abbd f089 37be db57 54be a910 673e
00000340: bfa7 0b3e e846 f0bb 21c4 7d3e f77f 523e
00000350: 1607 69be 54e0 033e 424a 26bd 642d a33d
00000360: b962 293c e296 91be a25d c4be 8441 ba3c
00000370: d028 febe e227 9a3e 8d2d 83bc ec5b 80be
00000380: 09df c33d b8c3 cfbe d3c7 61bd 6e99 42bd
00000390: 997c 1c3c 777d 2d3e 5896 68bd c01c 50be
000003a0: b3fb b33d 6d76 0cbd 3237 5a3c 883e 07be
000003b0: d710 86bd 2b39 f93d f959 8e3e 7fcc a6bd
000003c0: a279 97be 589c 1abe adbc 713d 21e3 723b
000003d0: d782 bcbd 7085 e9bd 1369 86bc 88d2 15be
000003e0: 665a a7bd 909e 833e e59f 413d c88e bb3d
000003f0: f474 e4bd d43d 3e3c ac38 893b 6528 72be

lstm.weight_hh_l0 f4 [128, 32]
-0.09759069 -0.061418798 -0.032349803 -0.05972138 0.19839434 0.06381854 -0.04767354 0.11909393
-0.10511729 0.1694754 0.13087912 -0.12875429 0.03601214 0.14225434 -0.12547065 -0.005264167
-0.34485477 -0.09803931 0.0007658518 -0.18738385 0.24395847 0.026287436 -0.07112833 -0.059755605
0.11412686 0.115915656 0.18368074 -0.15519282 -0.028480034 0.21199934 0.062689446 0.12658131
0.20784867 0.28496426 0.07330653 0.041917402 0.33201456 0.055653423 0.24048844 0.23043431
-0.2012431 -0.11277804 -0.13357024 0.2700253 -0.010628886 -0.06135835 0.16475049 0.12018997
0.18160129 0.33696696 0.035257604 0.006245836 -0.1535893 -0.21184081 -0.3120894 -0.011250608
-0.013565065 -0.18233727 0.20541053 -0.10876645 -0.14589746 -0.17323953 -0.034442347 -0.2254396
0.30222467 -0.019109879 -0.09146923 -0.30127564 0.0745966 0.14919564 0.10818887 0.16653731
-0.24956866 0.2759862 -0.2542789 0.0112021435 0.0156883 -0.15524173 0.4122974 0.06936411
0.12872435 0.25427783 0.16573074 -0.40091723 -0.19709368 0.17391714 -0.030644642 -0.044887606
0.17372945 -0.23296437 0.25039804 -0.32247376 -0.21137597 -0.0056815883 0.14017999 0.2899576
0.008307272 -0.01870169 0.13568865 -0.018389462 0.096923605 -0.123354904 0.12853685 0.09454286
-0.24955522 0.040220197 0.052672904 0.15143794 -0.0021720584 -0.0286971 0.048263326 0.002183434
0.2475397 0.17086825 0.20445943 -0.07718097 -0.11751484 0.10290494 -0.089882866 -0.03527774
0.25925437 0.06626489 -0.159189 -0.23534669 -0.118040174 -0.2121715 0.05115356 -0.2161825
0.12387081 0.19314945 -0.006435169 -0.08485436 0.14211714 -0.13175963 0.10652197 -0.011426452
0.08923326 0.18941608 0.105014026 -0.01753042 0.29166222 -0.0024043075 0.00047084157 0.059414685
-0.26143393 0.15917015 0.21175453 -0.2886135 -0.018894717 0.04394737 0.024755435 0.15101567
0.10278117 -0.04252765 -0.052664097 -0.020307705 -0.12843776 0.23488638 0.033383112 -0.22591528
0.124228865 0.43826073 -0.25079778 -0.45744303 0.14301959 0.11662245 0.25020713 -0.098376215
0.018821975 0.0961633 -0.277372 0.31291586 -0.31646436 -0.15731682 0.13491936 -0.09644348
-0.11226756 -0.08911395 -0.08772388 -0.07774809 -0.39784956 0.20068263 -0.37956154 0.11385444
0.05058674 -0.13985416 -0.36541608 -0.07365033 -0.19157729 0.253229 -0.12692812 -0.31501627
-0.036947 -0.10620746 -0.20074865 -0.050381325 0.012971701 0.0968972 0.13471255 0.082450934
-0.24243082 0.07781064 0.10585288 0.07182992 -0.12500457 0.15853307 0.16382094 0.09717978
0.045611154 0.13585514 0.245144 -0.031648986 0.11509024 0.11829312 0.08750396 0.12725186
0.18754795 -0.25772366 -0.061607935 -0.34893888 -0.16532539 -0.049642604 0.13892576 0.24243957
0.24458387 0.32149395 -0.15428644 -0.09392071 0.2000952 0.042772185 0.06387178 0.16018003
-0.01799346 0.09955326 -0.38109186 0.25883698 0.00605213 -0.13481683 0.15099464 -0.05182206
-0.052516967 0.17419815 -0.12831394 -0.11950799 -0.45900807 0.13305238 -0.122656636 -0.06781454
0.03932905 -0.11583171 -0.1526425 -0.16531603 -0.1924936 -0.08713235 0.07493799 -0.17915423
00000000: a1dd c7bd 4792 7bbd 3a81 04bd 689e 74bd
00000010: e327 4b3e 4bb3 823d 5445 43bd 85e7 f33d
00000020: bc47 d7bd f68a 2d3e 2d05 063e 2ad8 03be
00000030: 7781 133d 1fab 113e 617b 00be 097f acbb
00000040: ce90 b0be d5c8 c8bd 72c3 483a 8de1 3fbe
00000050: 40d0 793e c058 d73c bbab 91bd 4bc2 74bd
00000060: 58bb e93d 3065 ed3d ce16 3c3e deea 1ebe
00000070: f64e e9bc 5b16 593e 5363 803d 889e 013e
00000080: 48d6 543e d6e6 913e bc21 963d 95b1 2b3d
00000090: d0fd a93e d8f4 633d 9a42 763e f9f6 6b3e
000000a0: ac12 4ebe 2cf8 e6bd a3c6 08be c240 8a3e
000000b0: c724 2ebc e552 7bbd 5ab4 283e 2926 f63d
000000c0: b0f5 393e ef86 ac3e 476a 103d dfa9 cc3b
000000d0: 8346 1dbe ccec 58be 2fca 9fbe 7854 38bc
000000e0: 0240 5ebc 9fb6 3abe 2357 523e f2c0 debd
000000f0: 2566 15be b465 31be 6b13 0dbd a3d9 66be
00000100: 31bd 9a3e 528c 9cbc 3854 bbbd cd40 9abe
00000110: 1ac6 983d bec6 183e 2092 dd3d c288 2a3e
00000120: ed8e 7fbe 104e 8d3e d830 82be 3289 373c
00000130: c084 803c b0f7 1ebe a518 d33e c50e 8e3d
00000140: 51d0 033e b430 823e 52b5 293e 0645 cdbe
00000150: edd2 49be 5617 323e 790a fbbc 11dc 37bd
00000160: 22e6 313e 368e 6ebe 2c34 803e 481b a5be
00000170: f172 58be 9e2c babb 588b 0f3e 5375 943e
00000180: 391b 083c 4934 99bc f7f1 0a3e 7fa5 96bc
00000190: e27f c63d 7fa1 fcbd 2a9f 033e b09f c13d
000001a0: 678b 7fbe efbd 243d 8bbf 573d 8c12 1b3e
000001b0: 1859 0ebb 2e16 ebbc c4af 453d f217 0f3b
000001c0: 0c7b 7d3e 16f8 2e3e d05d 513e 0e11 9ebd
000001d0: 9fab f0bd d3bf d23d 8214 b8bd 647f 10bd
000001e0: fdbc 843e e3b5 873d 7102 23be b9fe 70be
000001f0: 0cbf f1bd 7c43 59be 6586 513d f25e 5dbe
00000200: fbaf fd3d f8c8 453e 1cde d2bb 1fc8 adbd
00000210: 2887 113e ffeb 06be 3128 da3d 0336 3bbc
00000220: edbf b63d 4af6 413e 9811 d73d f59b 8fbc
00000230: c054 953e 9691 1dbb 49db f639 d05c 733d
00000240: abda 85be 80fd 223e 2ed6 583e 26c5 93be
00000250: 18c9 9abc 2802 343d e9cb ca3c daa3 1a3e
00000260: ef7e d23d 7931 2ebd 4fb6 57bd 585c a6bc
00000270: 3085 03be 0e86 703e bbbc 083d 5656 67be
00000280: b46b fe3d b663 e03e 9168 80be f935 eabe
00000290: ba73 123e c0d7 ee3d 261b 803e 7879 c9bd
000002a0: 8b30 9a3c 44f1 c43d b403 8ebe 8236 a03e
000002b0: 9e07 a2be a917 21be 4d28 0a3e 2984 c5bd
000002c0: 89ec e5bd 6081 b6bd 94a8 b3bd 643a 9fbd
000002d0: f0b2 cbbe bf7f 4d3e e455 c2be 842c e93d
000002e0: 0b34 4f3d ee35 0fbe d117 bbbe fcd5 96bd
000002f0: d62c 44be 3ba7 813e 72f9 01be d049 a1be
00000300: bd55 17bd 4c83 d9bd 0e91 4dbe a65c 4ebd
00000310: 4287 543c 0a72 c63d 16f2 093e 09dc a83d
00000320: c93f 78be 2f5b 9f3d 65c9 d83d 911b 933d
00000330: 3301 00be 7e56 223e adc0 273e 3106 c73d
00000340: c3d2 3a3d 9c1d 0b3e 0707 7b3e 5ea2 01bd
00000350: 6fb4 eb3d aa43 f23d 4735 b33d 504e 023e
00000360: 920c 403e 5bf4 83be 9a58 7cbd 1ea8 b2be
00000370: 0f4b 29be 0b56 4bbd 8e42 0e3e 1442 783e
00000380: 3274 7a3e db9a a43e 44fd 1dbe 8059 c0bd
00000390: c2e5 4c3e e331 2f3d 35cf 823d 3c06 243e
000003a0: 0567 93bc 94e2 cb3d 791e c3be 4886 843e
000003b0: f250 c63b 6c0d 0abe 579e 1a3e 5e43 54bd
000003c0: 081c 57bd 0061 323e bb64 03be 9bc0 f4bd
000003d0: 1b03 ebbe e23e 083e 6733 fbbd 59e2 8abd
000003e0: 7f17 213d 2d39 edbd 514e 1cbe 9b48 29be
000003f0: 0b1d 45be 7272 b2bd 1779 993d 3574 37be

lstm.bias_ih_l0 f4 [128]
-0.00922405 0.22079383 0.16250606 0.051775444 0.048276972 0.12290511 0.2770747 0.3760112
0.0043199454 0.08664975 0.0769845 0.20349349 0.20732245 0.1549609 0.3803957 0.12505212
0.12100656 0.07611605 0.09340423 -0.0858029 -0.07906049 0.04811642 0.17884178 -0.028598282
-0.024803422 0.2913905 -0.027915057 -0.041971274 0.08556938 0.044750173 0.03877649 0.055598035
-0.020999575 0.03807471 0.1485365 0.03348234 0.13041492 -0.10003363 0.19031788 0.11499195
-0.115412034 0.20094675 0.20795535 0.15359573 0.15410902 0.032616593 0.14129832 0.088398054
-0.020892873 0.04681181 -0.10326265 0.1727489 0.08202477 -0.1211078 0.24190332 0.12578884
0.11821454 -0.16857846 0.14485282 0.041278582 -0.051845547 -0.12392582 0.080353044 0.15049136
0.08802381 0.15117717 -0.22766967 -0.11887542 0.13982853 0.193873 -0.012638946 0.11247579
0.13798305 0.18862161 -0.1620586 -0.05478558 -0.12689103 -0.08828818 0.19587417 -0.075929664
-0.16117708 0.16831982 0.079737835 -0.016886724 -0.08573009 0.10310554 -0.096500285 0.02610024
-0.0011612898 -0.09730511 -0.14426635 0.022413554 -0.05864149 -0.06619443 0.012499895 -0.14683749
0.2963057 0.24103433 0.37630308 0.17126957 -0.08039635 0.36764172 0.16256218 0.17313334
0.057890456 0.018937673 -0.0016128247 0.08726332 0.14923598 0.14430478 0.09919051 0.08009001
-0.07387226 0.36134294 0.35516748 0.024316007 -0.08053822 0.068324834 -0.0037706252 0.17926511
0.22183901 0.13615686 0.0681602 0.054940462 0.117042504 0.33891642 0.49023017 -0.005868336
00000000: 7820 17bc c717 623e fd67 263e 7d12 543d
00000010: 13be 453d adb5 fb3d bcdc 8d3e 8a84 c03e
00000020: 548e 8d3b 6d75 b13d 0daa 9d3d 9960 503e
00000030: 564c 543e 12ae 1e3e 3ac3 c23e aa0d 003e
00000040: 4ad2 f73d bbe2 9b3d b84a bf3d 6eb9 afbd
00000050: 77ea a1bd b915 453d 4d22 373e f246 eabc
00000060: 8c30 cbbc 2331 953e 1eae e4bc 12ea 2bbd
00000070: 003f af3d f54b 373d 19d4 1e3d c4ba 633d
00000080: 4d07 acbc 3af4 1b3d f419 183e c724 093d
00000090: 7d8b 053e 6fde ccbd b1e2 423e e680 eb3d
000000a0: 255d ecbd fcc4 4d3e 3ff2 543e 3348 1d3e
000000b0: c1ce 1d3e fa98 053d 82b0 103e 0a0a b53d
000000c0: 8827 abbc bebd 3f3d 5e7b d3bd 16e5 303e
000000d0: 9afc a73d 5e07 f8bd 81b5 773e cace 003e
000000e0: 771a f23d d59f 2cbe 4c54 143e bb13 293d
000000f0: ff5b 54bd d2cc fdbd 2390 a43d 681a 1a3e
00000100: d445 b43d 30ce 1a3e 3d22 69be f574 f3bd
00000110: 362f 0f3e a586 463e 9513 4fbc b559 e63d
00000120: 6e4b 0d3e 0626 413e b1f2 25be d866 60bd
00000130: b9ef 01be 6fd0 b4bd 3d93 483e 0381 9bbd
00000140: 9b0b 25be 085c 2c3e 974d a33d 0756 8abc
00000150: 4293 afbd ff28 d33d f1a1 c5bd 2cd0 d53c
00000160: 6b36 98ba e747 c7bd 8fba 13be a19c b73c
00000170: 0f32 70bd f290 87bd 5ccc 4c3c 915c 16be
00000180: 61b5 973e b4d1 763e ccaa c03e 4a61 2f3e
00000190: d7a6 a4bd 893b bc3e b376 263e de49 313e
000001a0: 8b1e 6d3d 2e23 9b3c 6b65 d3ba 1db7 b23d
000001b0: 51d1 183e a2c4 133e 6524 cb3d 3b06 a43d
000001c0: 574a 97bd f101 b93e 83d8 b53e 5d32 c73c
000001d0: 39f1 a4bd e4ed 8b3d 981c 77bb 4691 373e
000001e0: c429 633e b46c 0b3e 9397 8b3d 4009 613d
000001f0: fbb3 ef3d 7486 ad3e 73ff fa3e 2c4b c0bb

lstm.bias_hh_l0 f4 [128]
0.11732042 0.19763003 0.28279102 0.078448 0.18384482 0.2847806 0.115376234 0.40055072
0.24747725 0.0013306874 0.17605701 0.24312262 0.27594268 0.08765608 0.15897109 0.2763575
0.24365729 0.043932993 0.34234193 0.053452656 0.13554531 0.020533169 0.118530884 0.20111212
0.15173207 0.2748812 -0.060274404 0.025930941 0.10960132 0.19949692 0.26907864 0.17298368
-0.038495086 0.06126824 0.13853317 -0.053022992 0.109113604 0.20072968 0.13350905 0.112266794
0.039972536 -0.07107596 -0.011543751 0.26854214 0.03164233 0.097394295 0.0943007 0.089857474
0.03824616 -0.034501687 0.0035037706 0.24488905 0.058267925 -0.034882724 0.22782485 -0.0077572074
0.07980286 0.009770404 0.045027368 0.0913024 0.008836246 -0.020771047 0.1216683 0.108674005
0.003964954 0.060959615 -0.1562054 0.034618106 -0.13601941 0.12421809 0.17479847 -0.04317882
-0.14656222 0.20669743 -0.16922857 0.12746342 0.0880109 -0.10210443 0.034113962 -0.14720866
0.12792253 -0.092609875 0.029826699 -0.14491652 0.14624421 0.061178204 0.20012859 -0.14280905
0.07988692 -0.18365008 0.11991457 -0.060485862 0.08357168 0.089766994 -0.19824012 0.065922864
0.05676823 0.16586185 0.18722197 0.16073388 0.072856165 0.56072026 0.29847923 0.22873178
0.18998994 -0.07775207 -0.0496072 0.027089857 0.26106375 0.09440898 0.25092673 0.10880909
-0.12105382 0.26257744 0.34574404 0.27372754 0.21548595 -0.09706204 0.14360395 0.25970933
0.19451934 0.21763593 0.20432706 0.22992854 -0.035451747 0.26076075 0.5113951 0.09044485
00000000: b045 f03d 875f 4a3e fcc9 903e 58a9 a03d
00000010: d141 3c3e c3ce 913e 604a ec3d fc14 cd3e
00000020: ad6a 7d3e 766a ae3a 4a48 343e 23f5 783e
00000030: 5c48 8d3e 0885 b33d 51c9 223e bb7e 8d3e
00000040: 4c81 793e 15f3 333d 7147 af3e 2cf1 5a3d
00000050: 64cc 0a3e 2d35 a83c 52c0 f23d 56f0 4d3e
00000060: a75f 1b3e 3bbd 8c3e 4be2 76bd 206d d43c
00000070: a876 e03d ec48 4c3e adc4 893e a222 313e
00000080: 06ad 1dbd 68f4 7a3d a4db 0d3e a32e 59bd
00000090: f476 df3d 158c 4d3e 99b6 083e 22ec e53d
000000a0: 3eba 233d 4690 91bd 0022 3dbc 5b7e 893e
000000b0: 639b 013d a976 c73d ba20 c13d 3207 b83d
000000c0: 01a8 1c3d a451 0dbd 849f 653b 32c4 7a3e
000000d0: 59aa 6e3d 30e1 0ebd eb4a 693e 2c30 febb
000000e0: af6f a33d 0b14 203c 9e6e 383d c1fc ba3d
000000f0: e7c5 103c 0b28 aabc 3b2d f93d 7a90 de3d
00000100: 72ec 813b cab0 793d 4ff4 1fbe b7cb 0d3d
00000110: ac48 0bbe 0e66 fe3d 5ffe 323e 46dc 30bd
00000120: 6814 16be 7ea8 533e 414a 2dbe c585 023e
00000130: 0f3f b43d 211c d1bd 15bb 0b3d debd 16be
00000140: 20fe 023e 3faa bdbd 1f57 f43c ff64 14be
00000150: 0bc1 153e ff95 7a3d 82ee 4c3e 893c 12be
00000160: c19b a33d c40e 3cbe c595 f53d 06c0 77bd
00000170: a127 ab3d c2d7 b73d 75ff 4abe 9102 873d
00000180: ce85 683d b0d7 293e 1eb7 3f3e 6c97 243e
00000190: 9d35 953d 5d8b 0f3f 45d2 983e aa38 6a3e
000001a0: b98c 423e 7a3c 9fbd eb30 4bbd 8ceb dd3c
000001b0: 26aa 853e 7f59 c13d 7879 803e 4dd7 de3d
000001c0: 11eb f7bd 8d70 863e 5d05 b13e 0426 8c3e
000001d0: 59a8 5c3e 76c8 c6bd ea0c 133e 9ff8 843e
000001e0: 1430 473e f4db 5e3e 1d3b 513e 6372 6b3e
000001f0: da35 11bd 6f82 853e caea 023f 263b b93d

lstm.weight_ih_l0_reverse f4 [128, 9]
0.12404228 0.42362812 -0.11644668 -0.027425786 0.07627448 -0.009254181 -0.42153454 -0.5637617
-0.12348847 0.15622899 0.28028688 -0.08335148 0.15876989 0.17100777 -0.0124511095 0.049975656
-0.19996965 0.4491028 0.06818711 0.12700683 -0.17832164 0.45116293 -0.096292526 0.057965845
-0.23443322 -0.0843768 0.3164695 0.014512717 -0.16461618 0.016847102 -0.011337927 0.0033412748
-0.037432753 0.19616327 -0.036366314 -0.32838473 0.1651061 -0.0135127315 0.3506614 -0.060509425
-0.056887276 -0.09159602 0.18519123 0.36505207 0.22998197 -0.055802252 -0.20273772 -0.27432248
0.0042423084 -0.14524773 -0.0009942714 0.07700229 -0.118379705 -0.045386244 -0.13855784 0.042253066
0.20137012 0.056588236 0.5145852 0.06514449 0.7033989 0.43121403 0.30629662 -0.35502875
-0.049251497 -0.11681795 -0.186335 -0.030316498 -0.00048144898 -0.23628026 0.039421245 -0.050451923
-0.12579831 -0.038352538 0.088706486 -0.1097851 0.14503333 0.23510495 -0.171541 -0.15269984
0.21773764 -0.26875883 -0.27993774 -0.14589053 -0.101956874 -0.042815797 0.11344802 0.07967445
-0.16098031 -0.17031425 0.16399561 0.16867995 0.17934954 0.013342471 0.20806056 0.18120533
-0.17377818 -0.11062056 -0.25176507 -0.25195327 -0.6072786 -0.091183014 -0.23626497 -0.2842122
-0.18557814 -0.061488383 -0.18043877 0.10932938 -0.24673435 0.23637418 -0.11657112 -0.27428457
-0.34833226 -0.10131651 -0.172429 -0.14616193 0.21113048 -0.019408735 0.16618143 -0.25533533
-0.024234766 -0.1806865 -0.09734055 0.32464465 -0.05347512 0.31754223 -0.0026653393 -0.25706008
0.15502505 -0.25384033 -0.12897211 0.11599699 -0.19929121 0.2463558 -0.03445261 -0.09699401
-0.697255 0.08352323 -0.023732575 -0.1908787 -0.20709608 -0.28128436 0.2058216 -0.20857695
0.2310438 0.3008967 -0.1464798 0.15397602 -0.09240999 0.23811801 0.09295862 0.23292318
0.06931006 -0.24724732 0.007703297 0.11037969 -0.10641464 0.13916147 -0.1839603 0.32718152
0.08882637 -0.20597711 0.18994486 0.19895782 -0.21776743 -0.030271387 0.023194011 -0.22709149
0.19706911 -0.3786819 0.21775815 -0.048228264 -0.10270906 0.04853915 -0.10836359 0.10567396
0.089274555 0.09270854 -0.31803593 -0.007590437 0.093265176 0.18997897 0.2137064 0.11249954
0.2807933 0.21607116 -0.21499369 0.1410088 0.12641056 -0.1538172 -0.2960015 0.021806449
0.13219705 -0.21138829 0.110766806 -0.2717169 -0.11451046 -0.104967736 0.4357024 -0.26457694
0.008748077 0.66089153 0.095136344 -0.3382114 0.15112126 0.036222834 -0.13124824 -0.16812313
0.007132852 -0.15052898 -0.32886648 -0.2439173 -0.12039869 0.021658245 -0.07475483 -0.025140518
0.22604276 -0.23793896 -0.11393675 0.19182077 0.110632576 -0.3073976 0.21488456 0.13783453
0.20753168 0.2115159 0.1022127 -0.04137725 0.043017566 0.15599923 -0.29703087 -0.029922342
0.027453797 0.10349076 -0.52579 -0.61248505 -0.1813768 -0.323785 -0.07147604 -0.1821046
-0.13426308 -0.16841887 0.2483445 0.054613657 0.49752623 -0.10937593 -0.021378404 -0.26870123
0.1569147 -0.17786838 -0.08782186 -0.27767015 -0.16832139 -0.4575301 0.29512274 -0.025505785
00000000: e109 fe3d c9e5 d83e 997b eebd 0bac e0bc
00000010: cb35 9c3d d99e 17bc 60d3 d7be b052 10bf
00000020: 86e7 fcbd 7efa 1f3e c381 8f3e 2eb4 aabd
00000030: 9394 223e a91c 2f3e bdff 4bbc 46b3 4c3d
00000040: d8c4 4cbe cdf0 e53e afa5 8b3d 140e 023e
00000050: f399 36be d4fe e63e 0435 c5bd 986d 6d3d
00000060: 430f 70be becd acbd 4a08 a23e bfc6 6d3c
00000070: 2591 28be ef02 8a3c b6c2 39bc 4af9 5a3b
00000080: 1653 19bd 06df 483e d8f4 14bd 0b22 a8be
00000090: 9311 293e 8164 5dbc e489 b33e bbd8 77bd
000000a0: a202 69bd b296 bbbd c5a2 3d3e 1be8 ba3e
000000b0: 6580 6b3e e790 64bd 7a9a 4fbe ff73 8cbe
000000c0: 1003 8b3b d2bb 14be 3652 82ba 60b3 9d3d
000000d0: 0f71 f2bd ede6 39bd 1be2 0dbe 8d11 2d3d
000000e0: f833 4e3e 11c9 673d dbbb 033f 796a 853d
000000f0: f311 343f 16c8 dc3e e9d2 9c3e 54c6 b5be
00000100: f0bb 49bd 403e efbd 9ace 3ebe 4e5a f8bc
00000110: fd6a fcb9 74f3 71be 2c78 213d ada6 4ebd
00000120: 46d1 00be 8d17 1dbd bfab b53d 03d7 e0bd
00000130: 9e83 143e 5abf 703e 72a8 2fbe 595d 1cbe
00000140: 9ef6 5e3e c29a 89be 0054 8fbe 5464 15be
00000150: c4ce d0bd 9e5f 2fbd 6f57 e83d 5c2c a33d
00000160: 06d8 24be dc66 2ebe 77ee 273e 70ba 2c3e
00000170: 68a7 373e 619a 5a3c d40d 553e e48d 393e
00000180: e8f2 31be 088d e2bd 5ae7 80be 0500 81be
00000190: 9c76 1bbf 29be babd 72ef 71be 4384 91be
000001a0: 3208 3ebe 3edb 7bbd f1c4 38be 15e8 df3d
000001b0: eea7 7cbe 130c 723e d7bc eebd 076f 8cbe
000001c0: 9b58 b2be 087f cfbd 3a91 30be 79ab 15be
000001d0: 9732 583e 11ff 9ebc 772b 2a3e 50bb 82be
000001e0: fd87 c6bc e205 39be 7b5a c7bd d337 a63e
000001f0: ba08 5bbd e594 a23e f9ac 2ebb 619d 83be
00000200: e3be 1e3e 5cf7 81be 4411 04be d48f ed3d
00000210: ff12 4cbe b244 7c3e 2e1e 0dbd cca4 c6bd
00000220: 4e7f 32bf 3a0e ab3d d16a c2bc b575 43be
00000230: ff10 54be 8104 90be e6c2 523e 3295 55be
00000240: bf96 6c3e 220f 9a3e cdfe 15be e4ab 1d3e
00000250: 7341 bdbd 35d5 733e 1761 be3d 6a83 6e3e
00000260: 6ff2 8d3d 672e 7dbe f06b fc3b bf0e e23d
00000270: ebef d9bd 5880 0e3e 1760 3cbe 5684 a73e
00000280: 9aea b53d aaeb 52be e880 423e 99bb 4b3e
00000290: 6dfe 5ebe b3fb f7bc 5e01 be3c ac8a 68be
000002a0: 7ccc 493e 98e2 c1be fefb 5e3e 008b 45bd
000002b0: 2159 d2bd fdd0 463d bbed ddbd 976b d83d
000002c0: 94d5 b63d fadd bd3d 9bd5 a2be 33b9 f8bb
000002d0: d001 bf3d d989 423e dad5 5a3e 2966 e63d
000002e0: 24c4 8f3e c241 5d3e 4e27 5cbe 9c64 103e
000002f0: c571 013e 4282 1dbe 828d 97be 70a3 b23c
00000300: aa5e 073e 2c76 58be b5d9 e23d 7a1e 8bbe
00000310: 7684 eabd 53f9 d6bd 6314 df3e a176 87be
00000320: 1854 0f3c 3030 293f d8d6 c23d 0b2a adbe
00000330: 88bf 1a3e 655e 143d f065 06be 7828 2cbe
00000340: b3ba e93b 4524 1abe 3061 a8be 75c5 79be
00000350: 9793 f6bd a26c b13c 0f19 99bd 7df3 cdbc
00000360: c177 673e 45a6 73be ac57 e9bd aa6c 443e
00000370: 5593 e23d 3863 9dbe b30a 5c3e 7f24 0d3e
00000380: 2f83 543e a097 583e e454 d13d 317b 29bd
00000390: 3033 303d 43be 1f3e 6e14 98be b31f f5bc
000003a0: c9e6 e03c f7f2 d33d 2c9a 06bf d2cb 1cbf
000003b0: d7ba 39be 26c7 a5be 0862 92bd a179 3abe
000003c0: 437c 09be ff75 2cbe 054e 7e3e 92b2 5f3d
000003d0: c2bb fe3e 7d00 e0bd c321 afbc 3593 89be
000003e0: 3fae 203e 2123 36be f3db b3bd c82a 8ebe
000003f0: 715c 2cbe 6341 eabe 541a 973e 82f1 d0bc

lstm.weight_hh_l0_reverse f4 [128, 32]
0.015135116 0.043800753 -0.16858451 -0.17413163 0.09754912 -0.10218486 -0.3708943 -0.015536921
0.22231013 -0.39973998 0.2772411 -0.17219801 -0.23123068 0.1503631 -0.23364906 0.14159125
-0.010343799 -0.10785718 -0.07677469 0.2261619 -0.20913091 -0.36082128 0.0344591 0.03118605
-0.14549337 0.044775486 -0.20718224 -0.02406582 0.009846312 -0.17129612 -0.19791204 0.09883541
-0.13535656 0.23038362 0.11058824 -0.3024614 -0.08864074 -0.10601503 -0.012737364 0.13980418
0.35670742 -0.24225722 0.03419202 -0.120067924 -0.39794895 0.11386617 -0.037184153 -0.14093126
0.09627052 -0.2986704 -0.02519732 0.07647943 0.040041406 -0.16556795 0.038401864 -0.078924224
-0.021538386 0.57093936 0.057453953 -0.1535497 0.05770393 -0.22025962 -0.035260018 0.111192845
-0.09252591 0.2880889 -0.2769875 -0.3751588 -0.2330092 -0.10804431 -0.23911297 0.15667671
0.16443415 -0.18538652 -0.09250225 -0.02521705 -0.017399946 0.058433916 -0.14852071 -0.010869648
0.03921482 -0.22275123 0.17705701 -0.034298256 -0.06849838 -0.2644508 -0.0757316 0.009778266
0.039052516 0.007615951 -0.007980386 0.062773995 0.2207921 -0.35069698 -0.182414 -0.13635015
-0.4167005 0.48186123 0.21662323 0.16314854 0.10911748 0.14229915 -0.23588073 0.12234174
0.16471063 0.28726006 -0.30671445 0.034160756 0.30100682 0.089127086 -0.18355533 0.017090542
0.31249496 -0.010555715 -0.036925983 0.059686776 -0.39471552 -0.36574358 0.079350576 0.261071
0.17860967 0.05257759 -0.2996498 -0.22698347 0.14954253 -0.19122392 -0.24739662 0.3281296
-0.5079721 0.42200896 -0.007830663 -0.031811077 0.05191345 -0.3179477 -0.051847674 0.1808351
-0.28588614 0.0806452 -0.22495128 0.09267056 0.33936855 0.39831895 -0.3789997 0.26058176
0.018097432 -0.10526117 -0.03432757 -0.16073197 -0.12082174 -0.33446214 -0.19628695 0.22813141
-0.1076092 -0.023596767 -0.6028017 0.069022864 0.27065733 0.44841054 -0.37018457 0.17246935
-0.18407354 0.15636753 0.20981604 0.15157479 -0.0991588 0.04050552 -0.10298354 -0.027711106
0.40574807 -0.20459805 0.044487882 -0.18866806 0.08742737 0.06731157 0.017279062 -0.019594394
0.43143144 -0.29649553 0.1090711 0.09241377 -0.002786263 -0.17522755 0.13013451 0.29193768
0.15818432 0.08411589 0.049205795 -0.33981586 0.38783062 0.025471887 -0.05866542 0.25290796
-0.024685904 0.48080537 0.11311752 0.20093262 -0.18856598 0.24730666 0.030434879 0.17309356
-0.09129008 0.016830087 0.0962115 -0.06280753 -0.49141586 0.18049535 -0.3261919 -0.12184058
-0.18322733 -0.1299083 0.01350251 -0.17315857 -0.00046421823 -0.057588786 -0.00054056256 0.14860281
0.08938626 -0.041663095 -0.1785149 0.0708325 0.18096446 -0.017890502 -0.2635931 0.051511247
-0.116724126 0.09561961 -0.024801113 -0.05362148 -0.20959128 -0.03769885 0.019771608 -0.0059161433
-0.019208007 -0.032726243 0.08088091 0.022620056 0.08945737 -0.055758677 -0.12938148 0.30923492
-0.061888512 0.09785906 0.023609808 -0.062088784 -0.080267124 -0.04837531 -0.11102874 0.093212515
-0.16522281 0.060195867 -0.08007575 -0.3224667 -0.070784524 0.28498116 -0.018719018 -0.025969138
00000000: 47f9 773c 6b68 333d 6ba1 2cbe 904f 32be
00000010: d5c7 c73d 4c46 d1bd dce5 bdbe 928e 7ebc
00000020: 44a5 633e b8aa ccbe 8cf2 8d3e ad54 30be
00000030: bcc7 6cbe c9f8 193e b341 6fbe 4cfd 103e
00000040: 0a79 29bc 3ae4 dcbd 0c3c 9dbd fc96 673e
00000050: 6a26 56be 91bd b8be fc24 0d3d e379 ff3c
00000060: 37fc 14be 8066 373d 9527 54be af25 c5bc
00000070: 6d52 213c 4068 2fbe 74a9 4abe 386a ca3d
00000080: e99a 0abe afe9 6b3e 167c e23d 38dc 9abe
00000090: 4789 b5bd 681e d9bd 60b0 50bc d428 0f3e
000000a0: 5ba2 b63e 4712 78be ee0c 0c3d 2ce6 f5bd
000000b0: f7bf cbbe ab32 e93d 694e 18bd 4950 10be
000000c0: 7a29 c53d 54eb 98be 9c6a cebc 3fa1 9c3d
000000d0: 7502 243d a58a 29be 464b 1d3d 06a3 a1bd
000000e0: 4571 b0bc 1529 123f d654 6b3d 223c 1dbe
000000f0: f55a 6c3d bd8b 61be cf6c 10bd 13b9 e33d
00000100: 397e bdbd 6380 933e 4ed1 8dbe d014 c0be
00000110: f799 6ebe 5646 ddbd 08da 74be dc6f 203e
00000120: 6d61 283e f7d5 3dbe d271 bdbd fd93 cebc
00000130: 558a 8ebc 6758 6f3d d015 18be 9c16 32bc
00000140: b89f 203d e618 64be 6f4e 353e 547c 0cbd
00000150: e148 8cbd 1866 87be 2b19 9bbd 0535 203c
00000160: 88f5 1f3d 3a8f f93b 2ac0 02bc a78f 803d
00000170: 5317 623e 8e8e b3be bcca 3abe 609f 0bbe
00000180: c559 d5be 84b6 f63e 7bd2 5d3e 6910 273e
00000190: fc78 df3d deb6 113e b88a 71be 4e8e fa3d
000001a0: e7a9 283e c013 933e ad09 9dbe 26ec 0b3d
000001b0: 911d 9a3e 4388 b63d eef5 3bbe 7701 8c3c
000001c0: 57ff 9f3e e1f1 2cbc b33f 17bd 1f7a 743d
000001d0: 2718 cabe be42 bbbe 8e82 a23d 19ab 853e
000001e0: 74e5 363e 995b 573d b36b 99be 5b6e 68be
000001f0: ad21 193e 34d0 43be 8a55 7dbe 9a00 a83e
00000200: 760a 02bf 8f11 d83e 2e4c 00bc 554c 02bd
00000210: 33a3 543d 0aca a2be 3a5e 54bd d62c 393e
00000220: ab5f 92be 5029 a53d a159 66be 10ca bd3d
00000230: b7c1 ad3e 76f0 cb3e 400c c2be f96a 853e
00000240: 1141 943c 2b93 d7bd 119b 0cbd ec96 24be
00000250: 6371 f7bd 9f3e abbe 72ff 48be 489b 693e
00000260: 3662 dcbd 024e c1bc 3651 1abf dc5b 8d3d
00000270: 9993 8a3e 1196 e53e d588 bdbe ce9b 303e
00000280: c67d 3cbe cf1e 203e 04da 563e 6c36 1b3e
00000290: c513 cbbd 1ee9 253d 09e9 d2bd 6702 e3bc
000002a0: 36be cf3e 2782 51be ed38 363d 3332 41be
000002b0: 1f0d b33d a6da 893d d28c 8d3c 6c84 a0bc
000002c0: 95e4 dc3e 43ce 97be ab60 df3d 6e43 bd3d
000002d0: bc99 36bb da6e 33be fb41 053e db78 953e
000002e0: 12fb 213e f444 ac3d 048c 493d 58fc adbe
000002f0: bc91 c63e 6baa d03c 274b 70bd 277d 813e
00000300: 183a cabc 1f2c f63e 29aa e73d 48c1 4d3e
00000310: 7117 41be f53d 7d3e 9152 f93c 703f 313e
00000320: 4bf6 babd 40df 893c 890a c53d 3ca1 80bd
00000330: dc9a fbbe c6d3 383e a002 a7be 8e87 f9bd
00000340: f29f 3bbe ae06 05be a239 5d3c 7b50 31be
00000350: 5162 f3b9 38e2 6bbd 8ab4 0dba 562b 183e
00000360: 2510 b73d eca6 2abd 9ccc 36be a110 913d
00000370: bf4e 393e 1a8f 92bc adf5 86be 75fd 523d
00000380: 0f0d efbd 37d4 c33d b42b cbbc 32a2 5bbd
00000390: 199f 56be 1c6a 1abd 11f8 a13c 35dc c1bb
000003a0: 1c5a 9dbc f40b 06bd e4a4 a53d b24d b93c
000003b0: 6d35 b73d 3663 64bd 947c 04be 0a54 9e3e
000003c0: cf7e 7dbd 556a c83d 5b69 c13c cf50 7ebd
000003d0: 1763 a4bd 3025 46bd 0963 e3bd 34e6 be3d
000003e0: 2b30 29be f18f 763d c1fe a3bd 5b1a a5be
000003f0: 7af7 90bd 0de9 913e a058 99bc 3bbd d4bc

lstm.bias_ih_l0_reverse f4 [128]
0.2420701 0.08089357 0.28378505 0.29512572 0.34614584 0.19344531 0.069715284 0.20066981
0.311722 0.3756853 0.26439336 0.3793916 0.2422025 0.071126446 0.02822421 0.113144204
0.22192723 0.08495221 0.2842182 0.15442231 0.04958707 0.1998255 0.22424448 0.2597141
0.16056089 0.44699425 0.32776463 0.3812759 -0.11055271 0.37004 0.30212086 0.17116627
0.14013684 -0.07909532 0.09170149 0.042914193 -0.111884244 0.03742497 0.14685556 -0.13425505
-0.013248858 0.06910003 0.14664988 -0.12984782 0.05535243 0.12421849 0.20665883 -0.13090618
0.006137231 0.03529443 0.018609608 0.04828011 0.05033434 0.2352234 0.025500558 -0.065596476
-0.027011463 -0.18297261 0.23907155 0.14729917 -0.07384914 0.082446225 0.0031000525 0.056959126
-0.24841902 0.042118743 0.08715167 -0.08318853 0.17010945 -0.018017618 -0.011102833 0.30995408
-0.15374096 -0.117361546 0.096897535 -0.159653 -0.18215905 0.06576499 -0.19543993 0.20456561
0.11485273 0.010537114 0.040183727 -0.084267385 -0.15412675 -0.12183517 0.14272664 0.24589823
-0.10609022 0.11341399 -0.09813795 0.021919133 0.096217744 -0.018282665 -0.04988489 0.19228004
0.004463288 0.20200855 0.19762641 0.03995963 0.09228821 -0.013036733 0.058714937 -0.13742678
0.19867939 0.16695103 0.25238356 0.13850313 0.10914958 -0.004809544 0.15049553 0.03404378
0.029497065 0.14063905 0.07316842 -0.11403373 0.16033615 -0.022187022 0.31209204 0.046059195
0.15980816 0.08851335 0.012774621 0.15106578 -0.0028702393 0.26532018 0.17931381 0.14342818
00000000: 39e1 773e 87ab a53d 464c 913e b81a 973e
00000010: 073a b13e 8716 463e e3c6 8e3d 637c 4d3e
00000020: 079a 9f3e d359 c03e 915e 873e 9e3f c23e
00000030: ef03 783e beaa 913d 7536 e73c 26b8 e73d
00000040: e440 633e 6dfb ad3d 0c85 913e e220 1e3e
00000050: d01b 4b3d 0e9f 4c3e 58a0 653e 3ff9 843e
00000060: 136a 243e 6edc e43e c4d0 a73e 9836 c33e
00000070: 7669 e2bd e275 bd3e 96af 9a3e 3646 2f3e
00000080: 0880 0f3e bafc a1bd fecd bb3d cbc6 2f3d
00000090: 9123 e5bd ed4a 193d 4e61 163e 287a 09be
000000a0: bd11 59bc 5184 8d3d 632b 163e d4f6 04be
000000b0: 3bb9 623d 4466 fe3d 5f9e 533e 450c 06be
000000c0: d31a c93b e490 103d 2d73 983c 5dc1 453d
000000d0: 622b 4e3d 67de 703e 8ce6 d03c 7257 86bd
000000e0: 2547 ddbc 2c5d 3bbe 2ccf 743e 98d5 163e
000000f0: 383e 97bd 91d9 a83d 402a 4b3b f94d 693d
00000100: 8e61 7ebe b484 2c3d 937c b23d bf5e aabd
00000110: 2c31 2e3e af99 93bc a8e8 35bc 4db2 9e3e
00000120: 456e 1dbe 405b f0bd 3772 c63d 137c 23be
00000130: e787 3abe ccaf 863d 6821 48be a679 513e
00000140: e837 eb3d dca3 2c3c b197 243d 6194 acbd
00000150: 67d3 1dbe b884 f9bd ef26 123e bfcc 7b3e
00000160: d445 d9bd 9845 e83d 8dfc c8bd c18f b33c
00000170: cf0d c53d 87c5 95bc 1954 4cbd 0fe5 443e
00000180: c640 923b 54db 4e3e 945e 4a3e b6ac 233d
00000190: 9a01 bd3d 0598 55bc 137f 703d 9bb9 0cbe
000001a0: 9c72 4b3e 36f5 2a3e 6b38 813e c4d3 0d3e
000001b0: d189 df3d 6199 9dbb 801b 1a3e 7e71 0b3d
000001c0: d4a3 f13c af03 103e 53d9 953d 848a e9bd
000001d0: 292f 243e 8fc1 b5bc 87ca 9f3e 91a8 3c3d
000001e0: c0a4 233e 7d46 b53d a54c 513c fdb0 1a3e
000001f0: a01a 3cbb 0cd8 873e 0a9e 373e d6de 123e

lstm.bias_hh_l0_reverse f4 [128]
0.25062442 0.09358277 0.41054487 0.20952353 0.35528937 0.39999315 0.110815085 -0.09999819
0.33571032 0.27047214 0.1577693 0.16490762 0.101168804 0.41025326 0.059235115 0.31210753
0.13755271 0.29351583 0.06687504 0.15898868 0.24774799 0.20882604 0.30915082 -0.023468185
0.12903778 0.20061962 0.33549947 0.2176626 -0.043981988 0.61775297 0.3597051 0.21388161
0.041024566 -0.14128387 -0.050236132 -0.0265977 0.111151256 0.0039125457 0.18259722 0.16826436
-0.052246023 0.000530989 0.1491536 0.11255554 0.06603859 -0.03410327 0.13092425 0.16583182
0.17033441 0.16542594 -0.10530005 0.16075106 -0.07837485 0.0065008313 0.2108089 0.11473544
0.09191565 0.0886714 0.18400851 0.0805321 0.11999315 -0.14305456 -0.05890938 0.09799189
-0.15343773 0.079583496 0.02371263 0.0991096 -0.050587438 -0.011815486 -0.19594583 0.000103238206
0.03661035 0.16420503 -0.07333758 -0.20867111 0.10501564 0.15300353 -0.1599923 -0.05897546
0.09628163 -0.23655128 0.07602457 0.07035006 -0.04831932 -0.18706106 0.013693256 0.088785596
0.16243239 -0.069147706 -0.20273042 -0.09751922 0.055888798 0.015397054 -0.051086556 0.060475945
0.21921904 0.010060162 0.13302903 0.23376736 0.15227915 -0.029882813 0.25247797 0.02062496
0.05003382 0.20953962 0.16234851 0.07611337 0.2703051 -0.084213525 0.07096501 0.35558966
0.028486013 0.17589615 0.027262991 -0.069051415 0.113552004 0.14637779 0.04293816 0.156392
-0.10825511 0.2935954 0.27002704 0.21150665 0.094518 0.1759114 0.20216066 0.033269692
00000000: d851 803e 53a8 bf3d f032 d23e 568d 563e
00000010: 7de8 b53e e7cb cc3e 05f3 e23d dacb ccbd
00000020: 39e2 ab3e 537b 8a3e 468e 213e 8bdd 283e
00000030: 9731 cf3d b70c d23e 85a0 723d 8fcc 9f3e
00000040: 9eda 0c3e b547 963e c8f5 883d eecd 223e
00000050: a6b1 7d3e 7ed6 553e 0449 9e3e 5a40 c0bc
00000060: 7b22 043e 3b6f 4d3e 96c6 ab3e f2e2 5e3e
00000070: 7526 34bd 0f25 1e3f 442b b83e c803 5b3e
00000080: 6009 283d b8ac 10be 67c4 4dbd 6be3 d9bc
00000090: 45a3 e33d d034 803b c4fa 3a3e 7e4d 2c3e
000000a0: edff 55bd 1232 0b3a b9bb 183e 8583 e63d
000000b0: 3e3f 873d dfaf 0bbd 0211 063e d1cf 293e
000000c0: 256c 2e3e 6b65 293e 8da7 d7bd ed9b 243e
000000d0: fe82 a0bd ed04 d53b 4ade 573e 6afa ea3d
000000e0: 463e bc3d 5a99 b53d ba6c 3c3e 03ee a43d
000000f0: f8be f53d e57c 12be f64a 71bd f9af c83d
00000100: c81e 1dbe acfc a23d fd40 c23c f9f9 ca3d
00000110: c634 4fbd bd95 41bc 06a6 48be 9781 d838
00000120: bcf4 153d 5d25 283e 0332 96bd e1ad 55be
00000130: 7112 d73d f5ac 1c3e 06d5 23be 4090 71bd
00000140: 4e2f c53d 803a 72be c5b2 9b3d b113 903d
00000150: 7bea 45bd ef8c 3fbe ae59 603c 39d5 b53d
00000160: ad54 263e 509d 8dbd 9098 4fbe 28b8 c7bd
00000170: a7eb 643d ed43 7c3c 2340 51bd a0b5 773d
00000180: f57a 603e 61d3 243c c338 083e b660 6f3e
00000190: 11ef 1b3e cdcc f4bc cb44 813e adf5 a83c
000001a0: 43f0 4c3d 8e91 563e b03e 263e 54e1 9b3d
000001b0: 6e65 8a3e 2478 acbd 1a56 913d d90f b63e
000001c0: 805b e93c 1f1e 343e a356 df3c d46a 8dbd
000001d0: f48d e83d 0fe4 153e eddf 2f3d 3925 203e
000001e0: dbb4 ddbd 2352 963e fc40 8a3e 3395 583e
000001f0: a792 c13d 1e22 343e 3403 4f3e cd45 083d

lstm.weight_ih_l1 f4 [128, 64]
0.057012446 0.106715344 -0.17339998 -0.08015549 0.419971 0.07485871 0.13353196 0.20807406
0.21701969 0.2507672 -0.25995678 -0.13213415 -0.049089413 -0.3132266 0.20832717 0.14424682
-0.14990024 -0.036750108 -0.23259199 0.05168716 0.000982536 0.21113572 -0.3266171 0.034783807
-0.1767759 -0.18042402 0.0024538604 -0.045706913 0.2835519 0.07468898 0.07993214 -0.25682384
-0.19609427 0.20966764 0.044079505 0.17461249 -0.06582129 0.19242926 0.020196602 0.06651282
-0.054632816 -0.09823353 0.1466785 -0.0669212 -0.18230738 0.042778634 -0.177044 -0.058936007
-0.06742535 -0.1940805 0.04857613 0.11265307 -0.09046879 0.04846891 0.19767113 0.15636796
0.074980974 -0.064299874 -0.15061654 -0.18268378 0.11694184 -0.03842051 -0.077548966 0.19541682
-0.073301196 -0.15272269 -0.34101495 -0.12502714 -0.005662032 0.20150793 0.062726766 0.16928113
-0.012625987 0.120983034 0.15853742 0.033769783 -0.03977072 -0.14868772 0.039258044 -0.08666559
0.04300668 0.17713833 0.002050207 -0.39426666 0.04681569 0.055341635 -0.05609674 0.21339445
0.092918865 -0.12584555 0.21584049 -0.06193574 -0.06284801 0.09155765 0.20818098 -0.045255948
-0.13452493 0.15674804 -0.05888742 0.20809822 -0.21417496 0.037083838 -0.23572886 5.31104e-06
-0.20487067 0.20474093 -0.10693067 -0.17306563 -0.24059944 0.2256122 0.005595077 0.050181866
-0.022543997 0.059332833 -0.019468121 0.09361607 -0.10040967 -0.39735502 -0.2325493 0.10259699
0.16604877 -0.124377586 -0.08029893 -0.09653156 -0.061326183 0.087155394 -0.25947204 -0.03104815
-0.09754744 -0.42353904 -0.13825357 -0.24801616 -0.05300391 -0.09553658 0.19222285 0.12792805
-0.24070087 -0.061388806 0.10143453 0.25812474 0.20126055 -0.30807027 -0.099012926 -0.09600164
-0.082581006 -0.02913896 -0.06355633 0.11481913 0.32469872 0.22125988 0.12892684 -0.07988254
0.0314014 -0.0843688 0.054206796 -0.128967 -0.32492575 -0.06808368 0.18806185 0.07377037
-0.0427916 0.13081197 0.096263506 0.093699425 0.10563755 -0.097699456 -0.6506722 0.2983091
0.10324203 -0.09947472 -0.15093227 -0.34972793 -0.43565097 0.19661188 -0.01886432 -0.38566247
0.063387975 -0.157408 0.046664722 -0.14565316 -0.31888103 0.09799839 0.15941297 0.07240806
0.3258056 0.07070408 -0.16943206 -0.055436388 0.34061944 -0.44590455 -0.20791598 0.29197788
0.25798094 0.30411968 -0.11979403 -0.066452764 -0.0088629555 -0.07833938 0.29215932 0.089287475
-0.21716101 -0.08447411 0.11754292 0.07259452 0.0055913376 -0.24380167 0.29913893 0.38334444
-0.20895581 -0.019481398 -0.14062564 -0.1435192 0.06348721 0.17875609 -0.004908226 0.15122835
0.19900037 0.037565164 0.104785234 -0.25410086 0.17416069 -0.0688719 0.10897836 0.02829325
-0.06438598 -0.057661947 -0.15470925 0.076879814 0.015520102 0.22398925 -0.0879967 -0.20697
-0.11737672 0.043250076 0.019916533 -0.32201952 0.06409701 0.04804232 0.005418663 -0.03424485
0.020884153 0.049241357 0.09077204 -0.16643442 -0.11577833 -0.16491298 0.17749862 0.028968746
-0.076532155 0.21563023 0.065091126 -0.28522912 0.20207155 -0.046504892 0.053556267 0.06814604
00000000: e285 693d 938d da3d c48f 31be 9028 a4bd
00000010: 7006 d73e 864f 993d 9abc 083e 5e11 553e
00000020: 693a 5e3e 8f64 803e 0e19 85be 2d4e 07be
00000030: fb11 49bd 3d5f a0be b853 553e 70b5 133e
00000040: 737f 19be 4887 16bd 982c 6ebe eab5 533d
00000050: 70c8 803a f633 583e 5b3a a7be 7779 0e3d
00000060: be04 35be 13c1 38be f2d0 203b 2c37 3bbd
00000070: b72d 913e 89f6 983d 76b3 a33d 6a7e 83be
00000080: f0cc 48be 1db3 563e b68c 343d 9ecd 323e
00000090: 50cd 86bd 2d0c 453e 5873 a53c e037 883d
000000a0: a9c6 5fbd a92e c9bd e432 163e fb0d 89bd
000000b0: c9ae 3abe a638 2f3d 064b 35be e266 71bd
000000c0: 4d16 8abd 0abd 46be c4f7 463d a7b6 e63d
000000d0: b347 b9bd 5687 463d 4d6a 4a3e ec1e 203e
000000e0: a08f 993d a7af 83bd 393b 1abe 7511 3bbe
000000f0: 347f ef3d d35e 1dbd fed1 9ebd 591b 483e
00000100: f01e 96bd 5663 1cbe 8399 aebe 1d07 00be
00000110: 9188 b9bb 1858 4e3e e476 803d 0858 2d3e
00000120: 3add 4ebc f4c5 f73d a257 223e 2f52 0a3d
00000130: 9fe6 22bd 9841 18be 0bcd 203d bb7d b1bd
00000140: c627 303d c063 353e c45c 063b 52dd c9be
00000150: cfc1 3f3d e9ad 623d b2c5 65bd 1384 5a3e
00000160: 3f4c be3d a8dd 00be 4a05 5d3e 55b0 7dbd
00000170: 75b6 80bd 9482 bb3d 652d 553e 4d5e 39bd
00000180: e7c0 09be 8f82 203e ef33 71bd b317 553e
00000190: ae50 5bbe 39e5 173d e862 71be 7c35 b236
000001a0: 9ec9 51be 9ba7 513e 78fe dabd 1e38 31be
000001b0: b35f 76be e206 673e e856 b73b 808b 4d3d
000001c0: 30ae b8bc fc06 733d 9c7b 9fbc c8b9 bf3d
000001d0: 96a3 cdbd 1e72 cbbe 6721 6ebe 5f1e d23d
000001e0: b008 2a3e adb9 febd c473 a4bd 57b2 c5bd
000001f0: 2a31 7bbd 877e b23d 85d9 84be b158 febc
00000200: f4c6 c7bd 1cda d8be 5892 0dbe f3f7 7dbe
00000210: a11a 59bd afa8 c3bd 11d6 443e 92ff 023e
00000220: 4a7a 76be d472 7bbd e8bc cf3d ed28 843e
00000230: 3f17 4e3e 63bb 9dbe 4ac7 cabd 829c c4bd
00000240: 3b20 a9bd d4b4 eebc d229 82bd 4b26 eb3d
00000250: e93e a63e f391 623e 6605 043e 7599 a3bd
00000260: c19e 003d 8dc9 acbd f207 5e3d ed0f 04be
00000270: ab5c a6be 756f 8bbd 4993 403e eb14 973d
00000280: 3f46 2fbd 93f3 053e cd25 c53d 7ce5 bf3d
00000290: 8058 d83d a716 c8bd 7492 26bf f8bb 983e
000002a0: 8f70 d33d 67b9 cbbd fd8d 1abe 8a0f b3be
000002b0: a50d dfbe a054 493e 5989 9abc 8d75 c5be
000002c0: 8ed1 813d 902f 21be 8223 3f3d 1a26 15be
000002d0: 6044 a3be 61b3 c83d 273d 233e ad4a 943d
000002e0: fecf a63e 4dcd 903d 997f 2dbe 4411 63bd
000002f0: ac65 ae3e 9a4d e4be ede7 54be 207e 953e
00000300: 1416 843e 93b5 9b3e 9356 f5bd 6318 88bd
00000310: ee35 11bc 6670 a0bd e895 953e 5adc b63d
00000320: 755f 5ebe c300 adbd 58ba f03d 70ac 943d
00000330: 8a37 b73b 25a7 79be bd28 993e b945 c43e
00000340: 83f8 55be 7497 9fbc 2b00 10be b2f6 12be
00000350: 9505 823d d60b 373e 2fd5 a0bb 9bdb 1a3e
00000360: c1c6 4b3e eedd 193d a499 d63d 8219 82be
00000370: 2e57 323e b60c 8dbd 0c30 df3d 3fc7 e73c
00000380: ccdc 83bd ef2e 6cbd 1a6c 1ebe 2a73 9d3d
00000390: 0748 7e3c 705d 653e 9d37 b4bd f2ef 53be
000003a0: 3563 f0bd fe26 313d ff27 a33c bedf a4be
000003b0: 4b45 833d 06c8 443d 0a8f b13b 5444 0cbd
000003c0: 3e15 ab3c 4eb1 493d b1e6 b93d c96d 2abe
000003d0: 301d edbd f3de 28be 33c2 353e dd4f ed3c
000003e0: e4bc 9cbd 2cce 5c3e 7f4e 853d 8d09 92be
000003f0: d8eb 4e3e ea7b 3ebd d15d 5b3d 2790 8b3d

lstm.weight_hh_l1 f4 [128, 32]
0.09597665 -0.051053513 0.07011454 0.010296834 -0.18107517 -0.24591693 0.22658752 -0.11947939
-0.21780637 -0.10564823 0.06711729 -0.29303098 0.06102291 -0.13427655 0.15594213 -0.25838515
-0.107965365 0.09430914 -0.12325979 -0.2859656 0.1291415 -0.161864 -0.24162729 0.20336832
0.23575711 -0.059540138 -0.020160912 0.0083941305 0.04869494 0.02182534 0.13952458 -0.10505941
0.090793125 -0.08946592 0.056464918 0.0099418545 0.3027633 -0.23221816 0.0020688225 0.0022058955
-0.009127215 -0.10695534 0.16663681 -0.21471934 0.1862721 -0.1275205 -0.17324993 -0.112747595
0.08152752 -0.13395727 -0.2393514 0.26825556 0.44588923 0.20280871 0.12535618 0.11842691
-0.0069658468 -0.27817145 -0.0701488 0.055517327 0.09511859 -0.11282566 -0.050916653 0.18167697
0.22327799 0.28763077 0.0007830556 0.05649132 0.3256281 -0.21635534 0.14991996 0.056164935
0.08842312 -0.09583395 0.013614606 -0.041936453 -0.10124923 0.02045764 -0.021140987 0.18568273
-0.20329155 0.054796513 -0.35697907 -0.09244881 -0.12909031 -0.19123097 -0.12496865 0.07324039
0.29746538 -0.26229003 0.2066397 0.12798716 -0.13621841 0.10003802 0.20837806 -0.00628006
0.15300827 -0.113074355 0.052350152 -0.04934177 -0.06910594 0.048162505 -0.049666744 -0.46479428
-0.25185412 0.028396834 -0.08634056 0.04369232 -0.0031272972 -0.11837826 -0.021352587 0.11816428
-0.1461524 -0.09034213 -0.04068953 -0.443669 -0.1323273 -0.20733075 -0.0080138985 0.19249773
0.13996719 0.13756832 0.1659182 -0.054957118 -0.015737718 -0.036441848 -0.12262546 -0.1670817
0.13143142 -0.026707113 0.18087533 -0.10060764 -0.08902722 0.16803193 -0.11438313 0.10290413
-0.17845495 0.011654931 -0.042001095 -0.2192305 0.13165677 -0.37834856 0.13292679 0.013813022
-0.16384684 -0.12151168 -0.33470225 0.13875765 -0.05690845 0.08484234 0.18660386 0.047087718
-0.031248573 0.06296447 0.058271233 -0.0062833154 -0.25840437 0.06252047 -0.1456197 -0.15974417
0.12903592 -0.12512645 -0.15388699 -0.024996592 0.3260394 -0.028513268 0.12595856 -0.2710895
-0.0019712222 0.15569378 0.059897844 0.017913137 -0.07620195 -0.3411302 0.24040487 0.17044356
0.07491896 0.16560398 -0.26227224 -0.004438274 0.02968432 -0.14274669 0.08628073 0.09082756
-0.15849008 -0.06539109 0.24048327 0.031001044 -0.08164116 0.010720517 -0.041992635 -0.20720147
0.16523367 -0.09921235 -0.08540286 0.07876776 -0.014986478 -0.1551967 -0.23994021 -0.14759699
-0.081245564 -0.08451814 0.13246307 -0.13760714 0.14753029 -0.10630466 0.048280086 0.17441627
0.009629335 -0.2550684 -0.14001341 0.1023512 0.16773616 -0.050484076 0.2504204 0.024587711
0.23027155 -0.23721069 0.4020833 0.17023501 0.038523097 0.15906233 -0.016050369 0.2331944
0.17693065 0.043010432 0.072908066 0.03907721 -0.14844933 -0.089647226 0.2555703 0.034778316
0.12690404 0.006446185 0.07208233 -0.0025872518 0.21471572 0.015968472 -0.051206924 0.11641767
-0.21631081 0.14941289 -0.14027642 0.25102437 0.21014675 0.3408601 -0.10768413 0.08155707
0.13515215 0.15140048 -0.12628233 -0.101942115 -0.038349688 -0.03355835 0.31365752 0.02762463
00000000: 688f c43d 7d1d 51bd 3698 8f3d 0db4 283c
00000010: c56b 39be a6d1 7bbe 8f06 683e 9cb1 f4bd
00000020: a208 5fbe 195e d8bd ca74 893d 2808 96be
00000030: 29f3 793d cb7f 09be 4baf 1f3e 0f4b 84be
00000040: f21c ddbd 2725 c13d a16f fcbd 156a 92be
00000050: ab3d 043e adbf 25be 256d 77be c93f 503e
00000060: 506a 713e 5ce0 73bd 7f28 a5bc 8987 093c
00000070: 5874 473d 0ecb b23c 88df 0e3e 6329 d7bd
00000080: bff1 b93d e939 b7bd c247 673d 29e3 223c
00000090: cb03 9b3e 99ca 6dbe 1595 073b c990 103b
000000a0: 508a 15bc 670b dbbd d7a2 2a3e 63df 5bbe
000000b0: 1dbe 3e3e bc94 02be 6e68 31be 36e8 e6bd
000000c0: e7f7 a63d 182c 09be 8918 75be cb58 893e
000000d0: 984b e43e 16ad 4f3e 5f5d 003e cf89 f23d
000000e0: c241 e4bb 7d6c 8ebe 2daa 8fbd 2366 633d
000000f0: 89cd c23d 2411 e7bd fb8d 50bd 8709 3a3e
00000100: fca2 643e 5744 933e f945 4d3a 7163 673d
00000110: bab8 a63e 418c 5dbe 9e84 193e 340d 663d
00000120: 2e17 b53d 9744 c4bd cc0f 5f3c 8fc5 2bbd
00000130: c25b cfbd c896 a73c dd2f adbc 9d23 3e3e
00000140: a92b 50be 4f72 603d f6c5 b6be cd55 bdbd
00000150: 4030 04be 0dd2 43be 90ef ffbd 0fff 953d
00000160: 624d 983e e14a 86be 5c99 533e 110f 033e
00000170: d77c 0bbe bce0 cc3d 0f61 553e f6c8 cdbb
00000180: 33ae 1c3e 8793 e7bd 1d6d 563d 991a 4abd
00000190: 6a87 8dbd 0c46 453d 5b6f 4bbd 84f9 edbe
000001a0: 06f3 80be 7aa0 e83c 52d3 b0bd b8f6 323d
000001b0: 57f3 4cbb 4d70 f2bd 9feb aebc 1d00 f23d
000001c0: faa8 15be 4b05 b9bd 11aa 26bd 9528 e3be
000001d0: cf80 07be 834e 54be ba4c 03bc 201e 453e
000001e0: 8f53 0f3e b6de 0c3e 76e6 293e b71a 61bd
000001f0: 63ec 80bc 0c44 15bd 0f23 fbbd 7717 2bbe
00000200: f595 063e e0c8 dabc 6237 393e 610b cebd
00000210: e753 b6bd 9010 2c3e b441 eabd 67bf d23d
00000220: e5bc 36be 53f4 3e3c 5709 2cbd f67d 60be
00000230: 08d1 063e e7b6 c1be f61d 083e 0350 623c
00000240: 77c7 27be 1edb f8bd 185e abbe 7c16 0e3e
00000250: d618 69bd d2c1 ad3d 1515 3f3e 0ddf 403d
00000260: 02fd ffbc 84f3 803d d1ad 6e3d 45e4 cdbb
00000270: 944d 84be bb0a 803d 551d 15be fa93 23be
00000280: fe21 043e 2621 00be 8d94 1dbe a7c5 ccbc
00000290: a3ee a63e a894 e9bc 48fb 003e 3ecc 8abe
000002a0: 9f2f 01bb 316e 1f3e 7157 753d 92be 923c
000002b0: c50f 9cbd 9ea8 aebe b22c 763e c288 2e3e
000002c0: 1d6f 993d 1794 293e 8c48 86be f16e 91bb
000002d0: 882c f33c 302c 12be f4b3 b03d cd03 ba3d
000002e0: 394b 22be c4eb 85bd 3f41 763e e7f5 fd3c
000002f0: 7b33 a7bd 1ba5 2f3c 7800 2cbd 9f2c 54be
00000300: 0433 293e d82f cbbd b2e7 aebd fe50 a13d
00000310: d889 75bc e2eb 1ebe e3b2 75be aa23 17be
00000320: 1364 a6bd d917 adbd 66a4 073e e3e8 0cbe
00000330: 2e12 173e 42b6 d9bd 57c1 453d 2e9a 323e
00000340: 5cc4 1d3c 5398 82be ad5f 0fbe 829d d13d
00000350: 07c3 2b3e 64c8 4ebd 1a37 803e 2b6c c93c
00000360: 4ecc 6b3e 5ce7 72be dddd cd3e 1652 2e3e
00000370: 65ca 1d3d 3ce1 223e 107c 83bc 83ca 6e3e
00000380: 4f2d 353e b52b 303d d350 953d 6d0f 203d
00000390: 1a03 18be f798 b7bd 1cda 823e b573 0e3d
000003a0: 22f3 013e 853a d33b e79f 933d e28e 29bb
000003b0: 70de 5b3e 50d0 823c 5abe 51bd 636c ee3d
000003c0: 9580 5dbe b1ff 183e 9fa4 0fbe 4486 803e
000003d0: b630 573e 3785 ae3e 7f89 dcbd 6507 a73d
000003e0: 5365 0a3e ba08 1b3e 2850 01be 07c7 d0bd
000003f0: 9014 1dbd 7b74 09bd b897 a03e 0c4d e23c
