trained_models/mESC_intra_cell_line_model.pth (torch, 359707 bytes, 34 tensors)

lstm.weight_ih_l0 f4 [128, 9]
-0.04579857 -0.128719 -0.10896296 -0.06429502 -0.26272953 0.12613033 -0.1489862 0.0073427428
-0.005005155 -0.17929657 -0.0657523 -0.100373805 -0.03652957 -0.15986931 0.029741993 -0.16380885
-0.12944084 -0.08723076 0.09878602 0.057853837 -0.056822162 -0.15871444 0.062907785 -0.14994304
-0.13703753 0.0030558263 0.09155467 0.021647502 -0.148602 0.09921237 -0.02151902 0.20431393
0.08635777 -0.16641006 -0.096596316 -0.08828939 0.021539228 -0.17605011 -0.04794037 -0.23810594
-0.11450762 -0.07607863 0.05012033 -0.086144604 -0.081048585 -0.025655823 -0.10540893 -0.08344548
-0.22444965 -0.11006186 -0.30697444 -0.10449474 -0.051988613 -0.027083032 0.032831617 0.21393503
-0.19750407 -0.2451011 -0.0628904 0.08052687 -0.2737017 0.05702337 0.009818494 0.103672616
-0.13996093 -0.07576819 -0.023874853 -0.033831988 -0.17367998 -0.09716216 0.10636265 0.07011794
0.06420047 -0.021598233 -0.03731047 -0.053404123 -0.033635158 0.14103468 -0.18952158 0.088642
-0.042613823 -0.24722354 0.0077646403 -0.078836866 -0.0066842493 -0.13213678 -0.15492484 0.0462707
-0.058022767 0.001536023 -0.006600888 -0.21427517 -0.017039895 -0.08820464 -0.19237375 -0.058788046
0.002353375 -0.030943295 -0.14335784 0.02874804 0.20802659 0.055945273 0.073446795 0.051139098
-0.089348234 -0.13159357 0.109980084 -0.0075093824 0.030452725 0.10175745 -0.020712914 0.04539672
0.10561697 -0.103907086 0.014320658 0.018289525 0.18230522 0.07986776 -0.15835749 -0.24610767
-0.19542608 -0.07434506 0.174854 -0.2328305 -0.014564925 -0.1088825 -0.11579404 -0.028499166
0.16503768 0.16692424 -0.06482611 -0.056649085 0.26992306 0.11901771 0.1907486 0.0939199
0.082830474 0.016003743 -0.12708595 -0.19132498 -0.10374708 -0.054950792 -0.03998193 -0.035048727
0.0458154 -0.11098767 0.09700352 0.07228844 0.14382444 0.09941783 -0.070271514 0.16098425
-0.027886648 -0.068211414 -0.14478567 -0.11201818 -0.09477106 -0.15718897 0.10633858 -0.07747585
-0.029150518 -0.048475347 0.0011578621 0.1340732 -0.094688065 0.015831085 -0.033777006 -0.056977924
-0.17094614 -0.02454258 -0.13920403 -0.038663357 -0.14076874 -0.05183349 0.045115314 0.070556045
0.07313779 -0.09641652 -0.11462634 -0.013668003 0.12263991 0.13119256 -0.11641812 -0.070707664
-0.0618535 0.19521238 0.028960766 -0.1595013 0.025196154 -0.11678502 0.093000054 -0.090938
-0.086173534 0.026839687 0.030157756 -0.08861223 0.031856146 0.08018727 0.011214889 -0.12864098
-0.10949304 -0.24491832 0.060734846 0.013743755 0.09482307 -0.0326245 0.072273284 -0.018069772
-0.09046861 0.0023862394 -0.046564862 -0.03846443 -0.1790214 0.060411647 0.07232093 0.104304545
0.10865463 -0.13078877 -0.18740684 0.06919758 -0.22081314 0.112096965 -0.20544444 -0.19764657
-0.0012005675 -0.23542242 -0.080541514 0.08690611 0.07921872 0.18979423 -0.06480811 -0.15037908
0.15762949 -0.12805136 -0.052866872 0.0682953 -0.09373264 0.12423881 0.090560004 -0.14981039
-0.12348625 0.015651397 0.20998818 -0.06149032 -0.13035724 0.022415744 -0.13971633 -0.24451406
-0.112425946 0.16389517 0.16816646 0.042468544 -0.015696265 0.08513237 -0.00037497084 -0.09323943
00000000: 4897 3bbd eace 03be f927 dfbd 1cad 83bd
00000010: 7c84 86be 4f28 013e d78f 18be 649b f03b
00000020: 4902 a4bb 8599 37be 24a9 86bd c890 cdbd
00000030: 08a0 15bd c8b4 23be 7ba5 f33c 82bd 27be
00000040: 248c 04be 0aa6 b2bd 5350 ca3d 25f8 6c3d
00000050: 5bbe 68bd 0a86 22be ccd5 803d ab8a 19be
00000060: 9153 0cbe 4244 483b 0481 bb3d 1a56 b13c
00000070: 1f2b 18be db2f cb3d a848 b0bc ac37 513e
00000080: 58dc b03d 6667 2abe 4ad4 c5bd 11d1 b4bd
00000090: 0973 b03c 7b46 34be 1f5d 44bd 0bd2 73be
000000a0: f982 eabd 1dcf 9bbd fa4a 4d3d 956c b0bd
000000b0: cdfc a5bd 292c d2bc a3e0 d7bd 77e5 aabd
000000c0: 21d6 65be 1d68 e1bd c12b 9dbe 5701 d6bd
000000d0: 03f2 54bd 3cdd ddbc 727a 063d c911 5b3e
000000e0: 823e 4abe c8fb 7abe afcc 80bd 46eb a43d
000000f0: a122 8cbe 5691 693d c0dd 203c 4f52 d43d
00000100: eb51 0fbe 5a2c 9bbd 3295 c3bc 6993 0abd
00000110: 2ad9 31be f4fc c6bd a9d4 d93d ff99 8f3d
00000120: 897b 833d c7ee b0bc ddd2 18bd 48be 5abd
00000130: 05c5 09bd 656b 103e f211 42be f089 b53d
00000140: d58b 2ebd 2b28 7dbe 866e fe3b 3975 a1bd
00000150: 8c07 dbbb dd4e 07be 9ea4 1ebe 5886 3d3d
00000160: 48a9 6dbd 6154 c93a 434c d8bb f36a 5bbe
00000170: 4097 8bbc a2a4 b4bd a0fd 44be bccb 70bd
00000180: 153b 1a3b cb7c fdbc 66cc 12be 0281 eb3c
00000190: ec04 553e df26 653d 466b 963d 3b77 513d
000001a0: 35fc b6bd 77c0 06be 3d3d e13d 4411 f6bb
000001b0: fe77 f93c 3666 d03d 21ae a9bc e9f1 393d
000001c0: b64d d83d 3dcd d4bd 31a1 6a3c ead3 953c
000001d0: 38ae 3a3e b591 a33d 7728 22be a603 7cbe
000001e0: c61d 48be 3942 98bd ed0c 333e 1e6b 6ebe
000001f0: b9a1 6ebc cafd debd 6d25 edbd 1577 e9bc
00000200: a3ff 283e 30ee 2a3e 8dc3 84bd df08 68bd
00000210: 5b33 8a3e 8fbf f33d 9a53 433e 1459 c03d
00000220: 06a3 a93d 481a 833c d222 02be b2ea 43be
00000230: 5979 d4bd 1514 61bd 18c4 23bd 418f 0fbd
00000240: eea8 3b3d 814d e3bd c8a9 c63d f60b 943d
00000250: b746 133e 939b cb3d 83ea 8fbd 0ed9 243e
00000260: 8a72 e4bc 6db2 8bbd b242 14be ca69 e5bd
00000270: 5417 c2bd 25f6 20be 0bc8 d93d a9ab 9ebd
00000280: 11cd eebc 168e 46bd 68c3 973a 7c4a 093e
00000290: d1eb c1bd 31b0 813c c259 0abd af61 69bd
000002a0: 810c 2fbe 850d c9bc 808b 0ebe 785d 1ebd
000002b0: ae25 10be 5b4f 54bd d6ca 383d b07f 903d
000002c0: 44c9 953d 0676 c5bd 37c1 eabd c2ef 5fbc
000002d0: a22a fb3d 5857 063e a06c eebd 2ecf 90bd
000002e0: 185a 7dbd c1e5 473e 213f ed3c 4f54 23be
000002f0: 2a68 ce3c fc2c efbd d076 be3d b43d babd
00000300: c07b b0bd e7de db3c 660d f73c 547a b5bd
00000310: 977b 023d 3939 a43d a7be 373c 76ba 03be
00000320: e33d e0bd decb 7abe 1ac5 783d 7d2d 613c
00000330: 9932 c23d 45a1 05bd 0404 943d 0f07 94bc
00000340: 9b47 b9bd 7462 1c3b ccba 3ebd e18c 1dbd
00000350: 6351 37be 3472 773d ff1c 943d 9f9d d53d
00000360: 5286 de3d 7eed 05be 94e7 3fbe 76b7 8d3d
00000370: d71c 62be 1893 e53d 0760 52be dd63 4abe
00000380: 5c5c 9dba 9312 71be f3f2 a4bd d5fb b13d
00000390: 6d3d a23d 6b59 423e 1dba 84bd f9fc 19be
000003a0: a069 213e e51f 03be ef8a 58bd 68de 8b3d
000003b0: e6f6 bfbd eb70 fe3d 8677 b93d e567 19be
000003c0: 5ce6 fcbd 5c37 803c 2407 573e 46dd 7bbd
000003d0: 5e7c 05be 39a1 b73c cc11 0fbe e561 7abe
000003e0: 933f e6bd 23d4 273e d433 2c3e 7ff3 2d3d
000003f0: 7495 80bc e159 ae3d bc97 c4b9 50f4 bebd

lstm.weight_hh_l0 f4 [128, 32]
-0.09475003 -0.05138212 -0.13329193 -0.27045387 0.25206828 0.058566097 0.048761833 0.05642881
-0.23539591 0.23088421 0.11552989 -0.06505258 0.026106907 0.22363368 0.02719099 0.17714801
-0.25364384 -0.018675134 0.10726922 -0.16154605 0.21020597 0.090534344 -0.10523853 0.0046181586
-0.037318382 0.027677566 0.0506079 -0.16369459 -0.09547406 0.20585525 0.08529131 0.14349787
0.027130542 0.107560374 -0.04432579 -0.037434064 0.21586859 0.13794522 0.2667618 0.23779191
-0.04831398 0.009570384 -0.037725713 0.22205368 0.17683475 0.024734126 0.102034636 0.17385204
-0.048663646 0.22697547 0.15984583 0.079439044 0.11361236 -0.062367003 -0.1722059 0.17587517
-0.2226823 -0.24949688 0.20701054 0.01740643 -0.016268741 -0.04419683 0.14331451 0.16474983
0.1731941 -0.088155754 0.008438515 -0.20069717 -0.008300892 -0.077951334 0.03377686 0.15626967
0.096169606 -0.031919554 -0.038427018 -0.046402268 -0.044061378 -0.097117245 0.19542195 0.20317368
0.10830306 -0.030074231 0.18864922 -0.03377907 -0.03279983 0.0119258575 -0.017985743 -0.06867539
-0.026879126 -0.18228695 0.09311368 -0.12883888 -0.04005994 -0.09163244 0.13288918 0.14948061
-0.18703154 -0.17627183 0.114597045 0.0077484404 0.08943595 -0.14873998 0.12455319 0.10810645
-0.044837113 0.060901236 0.20346133 0.0030240489 0.066988006 0.044103485 -0.052248396 -0.026327096
0.15151526 0.053490415 0.22945386 0.073502965 -0.042063158 0.058548052 -0.018150324 0.027376883
0.043206535 0.026849516 -0.100998886 -0.0724181 -0.15088835 -0.1082492 0.20581397 -0.04998398
-0.023366287 -0.06847966 -0.12338404 -0.20538896 0.0916028 0.11160601 0.28292918 0.119105145
0.011946895 0.2115951 0.17345338 0.051183995 0.2613732 0.17865446 0.079906695 0.29428157
-0.32758376 0.17191282 0.35860687 -0.238886 0.025543617 0.16693549 0.062385406 0.26470345
-0.18023245 -0.13258183 0.024367193 -0.076424845 0.028206863 0.23763187 0.0045617186 0.044716664
-0.07378366 0.051271755 -0.10558189 -0.099586114 -0.055393104 0.096345015 0.0805374 -0.1466765
-0.10150976 0.13989614 0.09753221 0.18508945 0.027110592 0.21624522 -0.13099171 -0.07504017
-0.11817835 -0.0032307138 0.08172886 -0.114199676 -0.117606595 0.23342256 -0.06455376 0.25871372
-0.05436694 -0.16039187 -0.20114219 0.049071006 -0.14366205 0.22000179 -0.052877706 0.06343525
-0.0965536 -0.20929313 -0.19061138 -0.07888659 0.052490346 0.10964988 0.1841169 -0.02962632
-0.072779104 0.033260487 0.13735299 -0.09323589 -0.21364918 0.13252252 0.12038197 0.09786281
0.014572904 0.19395211 -0.005357233 0.14306334 0.19130988 0.027714163 0.08894144 0.08633656
0.14247446 -0.11440082 -0.043210585 -0.11481568 -0.064609095 0.05314513 0.16543068 0.2191752
0.13787232 0.04223193 -0.055048086 0.07137239 0.16045433 0.031537447 -0.0002828741 0.12082568
-0.076903515 -0.07730497 -0.07047957 0.10444753 0.19962446 -0.041653804 0.020156885 -0.020543395
-0.05838072 0.22501703 -0.10103669 0.036269773 -0.13501933 -0.018168405 -0.05358268 0.03185785
-0.0529387 -0.14057268 -0.016741544 -0.1821489 -0.08686229 -0.06885757 0.13954672 -0.04261256
00000000: 4e0c c2bd 0f76 52bd ae7d 08be ee78 8abe
00000010: 180f 813e 01e3 6f3d 7dba 473d e521 673d
00000020: a00b 71be e96c 6c3e ef9a ec3d 493a 85bd
00000030: 27de d53c 3a00 653e a4bf de3c 4a66 353e
00000040: 9bdd 81be 98fc 98bc f7af db3d 546c 25be
00000050: 3c40 573e 126a b93d 4c87 d7bd ec53 973b
00000060: 29db 18bd 10bc e23c 3b4a 4f3d 8e9f 27be
00000070: e787 c3bd b8cb 523e 36ad ae3d 1bf1 123e
00000080: df40 de3c 9d48 dc3d f68e 35bd 7654 19bd
00000090: a80c 5d3e 8341 0d3e 0195 883e b97f 733e
000000a0: e1e4 45bd 1acd 1c3c 4786 1abd 0a62 633e
000000b0: 2b14 353e 399f ca3c 89f7 d03d 4506 323e
000000c0: 8853 47bd 426c 683e a0ae 233e f0b0 a23d
000000d0: 99ad e83d 8b74 7fbd be56 30be 9f18 343e
000000e0: d406 64be 1c7c 7fbe 92fa 533e ee97 8e3c
000000f0: 0646 85bc bc07 35bd 0ac1 123e 2eb4 283e
00000100: cb59 313e 018b b4bd b241 0a3c 8f83 4dbe
00000110: 7700 08bc f3a4 9fbd 9b59 0a3d 2805 203e
00000120: 92f4 c43d 14be 02bd a665 1dbd 4e10 3ebd
00000130: b479 34bd 68e5 c6bd b11c 483e c30c 503e
00000140: ffcd dd3d 3c5e f6bc 432d 413e ec5b 0abd
00000150: 1d59 06bd ac64 433c d656 93bc afa5 8cbd
00000160: 9d31 dcbc 6ea9 3abe 63b2 be3d 57ee 03be
00000170: e415 24bd caa9 bbbd 1a14 083e 7211 193e
00000180: 3285 3fbe 9a80 34be dbb1 ea3d a1e6 fd3b
00000190: 322a b73d 4b4f 18be be15 ff3d ea66 dd3d
000001a0: 1fa7 37bd 9373 793d 2b58 503e 1f2f 463b
000001b0: 0231 893d dba5 343d 6a02 56bd ecab d7bc
000001c0: d126 1b3e c418 5b3d f4f5 6a3e b988 963d
000001d0: 6b4a 2cbd 15d0 6f3d fdaf 94bc 7c45 e03c
000001e0: 56f9 303d 84f3 db3c 81d8 cebd f14f 94bd
000001f0: 7a82 1abe c2b1 ddbd e6c0 523e 00bc 4cbd
00000200: a86a bfbc 103f 8cbd c6b0 fcbd 7c51 52be
00000210: 409a bb3d b191 e43d 18dc 903e 66ed f33d
00000220: e9bc 433c 63ac 583e c39d 313e 4fa6 513d
00000230: b5d2 853e 32f1 363e 1fa6 a33d 13ac 963e
00000240: 0fb9 a7be ea09 303e 529b b73e 889e 74be
00000250: d940 d13c 23f1 2a3e d787 7f3d 3687 873e
00000260: db8e 38be 88c3 07be b59d c73c a184 9cbd
00000270: 1412 e73c c555 733e 787a 953b d228 373d
00000280: e31b 97bd 5502 523d 513b d8bd cef3 cbbd
00000290: e1e3 62bd 8950 c53d cbf0 a43d 5d32 16be
000002a0: 59e4 cfbd ef40 0f3e f8be c73d 1788 3d3e
000002b0: 0817 de3c 636f 5d3e b122 06be a9ae 99bd
000002c0: 7e07 f2bd 62ba 53bb 7661 a73d 85e1 e9bd
000002d0: badb f0bd 5306 6f3e c334 84bd 2076 843e
000002e0: deaf 5ebd c43d 24be 38f8 4dbe aefe 483d
000002f0: 251c 13be 2648 613e 4b96 58bd 57ea 813d
00000300: e5bd c5bd f050 56be a12f 43be 4b8f a1bd
00000310: 1e00 573d 1e90 e03d 2489 3c3e e5b2 f2bc
00000320: 360d 95bd 263c 083d 43a6 0c3e 75f2 bebd
00000330: dac6 5abe fcb3 073e d38a f63d 4c6c c83d
00000340: 31c3 6e3c 629b 463e ba8b afbb 327f 123e
00000350: bde6 433e d008 e33c ee26 b63d 39d1 b03d
00000360: d3e4 113e fa4a eabd 95fd 30bd 7c24 ebbd
00000370: c651 84bd b5ae 593d a966 293e 776f 603e
00000380: 672e 0d3e 63fb 2c3d 1a7a 61bd b02b 923d
00000390: 244e 243e 692d 013d b84e 94b9 7473 f73d
000003a0: 977f 9dbd 1152 9ebd 9857 90bd 96e8 d53d
000003b0: 5b6a 4c3e 2e9d 2abd 0d20 a53c 9f4a a8bc
000003c0: 9f20 6fbd dd6a 663e 53ec cebd 9d8f 143d
000003d0: 8242 0abe e8d5 94bc 8379 5bbd 607d 023d
000003e0: 40d6 58bd 49f2 0fbe 9025 89bc 3e85 3abe
000003f0: dbe4 b1bd 3305 8dbd 56e5 0e3e 828a 2ebd

lstm.bias_ih_l0 f4 [128]
0.059818536 0.27817887 -0.036161292 0.011678273 0.1573798 -0.09037695 0.2283212 0.20813581
-0.04767226 0.05680517 0.107010856 0.30655813 0.17471239 0.0960813 0.25857902 0.016146222
0.091453426 0.09792784 -0.025640815 -0.02764829 -0.10837638 0.07320787 0.1625506 0.019374268
-0.11235844 0.22544955 -0.026139978 -0.023623886 0.094222754 0.050256368 0.010395246 0.032902274
-0.06875865 -0.0011209953 0.14954442 0.058644086 0.14333874 -0.15673684 0.24049968 0.10560226
-0.06841075 0.19319825 0.16738738 -0.001237995 0.0036934863 0.003953274 0.070033886 0.0045795287
-0.043537863 -0.006211113 -0.009536583 0.06569406 0.09165029 -0.07693278 0.15627187 0.0939385
0.074635394 -0.10763184 0.13668723 0.050888117 -0.032092076 -0.14996879 0.04782856 0.11834398
0.058770124 0.1338789 -0.24464372 -0.16177817 0.18131493 0.1559251 0.055976473 0.10400663
0.0978802 0.17892437 -0.1233511 -0.04733949 -0.09632439 -0.061564527 0.23139305 0.0053530056
-0.19415192 0.14825357 0.12396821 0.07623681 -0.0543865 0.19939312 -0.15897173 0.07239966
-0.025580654 -0.12924838 -0.1633398 -0.0025360398 -0.06650686 -0.07031778 0.08451715 -0.06675486
0.31379715 0.27791697 0.19549906 0.06288246 0.03414795 0.0362579 0.007088962 0.039177366
-0.047013804 -0.0012103557 0.060026 0.21725848 0.061861385 0.19526437 0.016136792 -0.06082203
-0.04758952 0.41719395 0.16735063 -0.12688948 -0.09315381 0.06502146 0.0070702536 0.2187524
-0.008146426 0.09487395 0.03257427 -0.033770088 0.12944251 0.31362545 0.32369718 -0.05928755
00000000: 4804 753d 766d 8e3e dd1d 14bd 3a56 3f3c
00000010: 2c28 213e 8d17 b9bd 08cd 693e 8e21 553e
00000020: fd43 43bd 8aac 683d 8228 db3d 30f5 9c3e
00000030: cee7 323e 46c6 c43d 7864 843e 1545 843c
00000040: ef4b bb3d 648e c83d b00c d2bc ab7e e2bc
00000050: 6ff4 ddbd 02ee 953d aa73 263e c9b6 9e3c
00000060: 2f1c e6bd 3fdc 663e 8223 d6bc e186 c1bc
00000070: dcf7 c03d 9fd9 4d3d d250 2a3c 89c4 063d
00000080: 56d1 8cbd 5cee 92ba 2c22 193e c834 703d
00000090: 64c7 123e 9f7f 20be 8c45 763e ff45 d83d
000000a0: ef1a 8cbd c3d5 453e 9967 2b3e 3844 a2ba
000000b0: 6b0e 723b 778a 813b ed6d 8f3d df0f 963b
000000c0: c254 32bd 9886 cbbb 543f 1cbc 9b8a 863d
000000d0: 26b3 bb3d ef8e 9dbd bc05 203e d462 c03d
000000e0: 71da 983d 156e dcbd bdf7 0b3e 0f70 503d
000000f0: fb72 03bd 6b91 19be e1e7 433d 545e f23d
00000100: f1b8 703d 8d17 093e e283 7abe 2da9 25be
00000110: 9faa 393e d4aa 1f3e 9647 653d 6e01 d53d
00000120: 6a75 c83d f337 373e 809f fcbd 0ee7 41bd
00000130: b945 c5bd 162b 7cbd 4df2 6c3e 4468 af3b
00000140: c3cf 46be c9cf 173e 0be3 fd3d 0b22 9c3d
00000150: 61c4 5ebd b62d 4c3e 7cc9 22be 4646 943d
00000160: 858e d1bc b059 04be 8c42 27be b033 26bb
00000170: c034 88bd c502 90bd 5417 ad3d c6b6 88bd
00000180: 05aa a03e 224b 8e3e e830 483e 85c8 803d
00000190: b9de 0b3d 2a83 143d 864a e83b 7278 203d
000001a0: 8c91 40bd cca4 9eba d3dd 753d 0279 5e3e
000001b0: 5d62 7d3d 62f3 473e 4e31 843c 8520 79bd
000001c0: 3bed 42bd 729a d53e f75d 2b3e 51ef 01be
000001d0: 6dc7 bebd f929 853d 96ad e73b a100 603e
000001e0: 9678 05bc 464d c23d 996c 053d 8152 0abd
000001f0: 948c 043e 8493 a03e a3bb a53e 81d7 72bd

lstm.bias_hh_l0 f4 [128]
0.186361 0.25501454 0.08412768 0.038352203 0.2929489 0.07150317 0.066618554 0.23267746
0.19548298 -0.028513776 0.20608495 0.34618765 0.24332988 0.028774638 0.037159923 0.16745275
0.2141014 0.06574398 0.2232846 0.111604944 0.10623085 0.04562483 0.102244556 0.24908262
0.06417393 0.20893918 -0.058500484 0.044278104 0.118254915 0.2050037 0.24069929 0.1502887
-0.08625464 0.0220727 0.13954192 -0.027860932 0.12204281 0.14402609 0.18369195 0.10287725
0.086973794 -0.07882286 -0.052108113 0.11370786 -0.11877319 0.06873123 0.023034682 0.0060391757
0.015601683 -0.08752481 0.097229056 0.13783555 0.06789556 0.009290835 0.1421926 -0.039609943
0.03622489 0.07071718 0.036860865 0.10090894 0.028588587 -0.04681558 0.08914325 0.07652861
-0.025288375 0.043661002 -0.17317766 -0.008285369 -0.094530396 0.086269855 0.24341294 -0.05165001
-0.18666619 0.19700028 -0.13052125 0.13491376 0.11857387 -0.075381 0.06963178 -0.06592803
0.09494671 -0.11267298 0.07405721 -0.051795047 0.17758721 0.15746576 0.13765669 -0.09650621
0.055466387 -0.21559575 0.10084262 -0.085434124 0.07570569 0.085643865 -0.12622432 0.14600791
0.07425824 0.2027434 0.006425334 0.05234588 0.18739925 0.22935306 0.14300609 0.09477535
0.085084505 -0.09789796 0.012032148 0.15708448 0.17368309 0.14537144 0.16787064 -0.032103144
-0.09477183 0.31843525 0.15792744 0.12252178 0.2028729 -0.10036587 0.15444423 0.29919448
-0.035467215 0.17635335 0.16873915 0.14122196 -0.023051795 0.23547828 0.34486303 0.03702565
00000000: 6bd5 3e3e 4491 823e 224b ac3d 3317 1d3d
00000010: 66fd 953e 4170 923d 4f6f 883d 0043 6e3e
00000020: b12c 483e b995 e9bc ef07 533e 823f b13e
00000030: 782b 793e cab8 eb3c 0135 183d bc78 2b3e
00000040: 663d 5b3e c8a4 863d b8a4 643e 2291 e43d
00000050: 8f8f d93d 1ae1 3a3d 9865 d13d 840f 7f3e
00000060: 9f6d 833d 27f4 553e 349e 6fbd f55c 353d
00000070: a22f f23d 7dec 513e e079 763e 48e5 193e
00000080: 46a6 b0bd cfd1 b43c 14e4 0e3e 9c3c e4bc
00000090: 95f1 f93d 937b 133e be19 3c3e 4fb1 d23d
000000a0: 511f b23d e16d a1bd 516f 55bd abdf e83d
000000b0: 5c3f f3bd f6c2 8c3d 3bb3 bc3c 47e4 c53b
000000c0: 349e 7f3c 3540 b3bd 0720 c73d c324 0d3e
000000d0: d40c 8b3d 9638 183c f09a 113e 093e 22bd
000000e0: 8d60 143d 2bd4 903d 6bfb 163d 59a9 ce3d
000000f0: 9d32 ea3c b2c1 3fbd bc90 b63d 08bb 9c3d
00000100: 9129 cfbc e1d5 323d 7c55 31be 5bbf 07bc
00000110: 2799 c1bd 40ae b03d 3e41 793e f68e 53bd
00000120: 6c25 3fbe 71ba 493e 5da7 05be d526 0a3e
00000130: dbd6 f23d 5b61 9abd 1b9b 8e3d 4605 87bd
00000140: 6c73 c23d 17c1 e6bd 4eab 973d 0b27 54bd
00000150: 6cd9 353e b43e 213e e0f5 0c3e 0ca5 c5bd
00000160: b930 633d 22c5 5cbe 9386 ce3d 16f8 aebd
00000170: 960b 9b3d 0d66 af3d f340 01be 1983 153e
00000180: b414 983d f79b 4f3e 9c8b d23b a268 563d
00000190: 97e5 3f3e 87db 6a3e 3070 123e 9419 c23d
000001a0: c940 ae3d ba7e c8bd 7d22 453c c1da 203e
000001b0: fbd9 313e 40dc 143e 48e6 2b3e 967e 03bd
000001c0: bc17 c2bd f209 a33e bbb7 213e b3ec fa3d
000001d0: eabd 4f3e 9f8c cdbd a126 1e3e 0530 993e
000001e0: 1246 11bd f995 343e f5c9 2c3e 7d9c 103e
000001f0: 1ed7 bcbc 3821 713e e391 b03e 35a8 173d

lstm.weight_ih_l0_reverse f4 [128, 9]
0.07556289 0.23075984 -0.1775639 -0.19343288 0.08103175 -0.0050036837 -0.06775822 -0.19516699
0.0046380623 0.11510606 0.042390108 -0.13533817 -0.00355054 0.014940974 -0.16690886 0.17933615
0.08654754 0.34221676 -0.19350465 -0.22144571 -0.22838624 0.09578122 -0.073318504 0.16132995
-0.18884113 0.019220535 0.19506705 -0.014833406 0.07446691 0.06425236 0.06849014 -0.055698305
-0.22599386 0.027888931 -0.15442328 -0.20174576 0.13915773 0.055246532 0.24718778 -0.04995368
-0.05838862 0.065304995 0.009986653 -0.065347224 -0.010217558 0.047084764 -0.072871156 -0.11040539
0.09266401 -0.08123186 -0.24319465 0.013239893 -0.013443323 0.1380694 -0.03401934 -0.021211848
0.17747267 0.04339061 0.17848468 0.19592594 0.29909387 0.18240072 0.1230623 -0.17551947
-0.07176505 -0.056842465 -0.07393524 0.09290316 0.11178098 -0.24367687 -0.024256865 -0.0075167897
0.004831105 -0.08999715 0.19895273 -0.117762715 0.20254892 0.13579111 -0.15747166 -0.023390656
0.14027424 -0.15523681 0.060769722 -0.16507821 0.031964272 0.109639145 0.24289756 0.15031275
-0.014196456 -0.14011917 0.11380046 0.11480702 0.21082732 -0.04873144 0.17590815 -0.07198642
-0.09034528 -0.16649264 -0.03728771 -0.12668179 -0.21816969 -0.047615465 -0.1071604 -0.1775566
-0.13007224 0.053633753 -0.084378086 0.16274494 0.09079246 0.17991352 0.08309084 -0.051653236
-0.056285895 0.11563324 -0.2617281 -0.10949587 0.10639186 -0.17713977 0.06374089 -0.13630137
-0.20896983 -0.16020313 -0.009994765 -0.10714183 -0.072817825 0.06557797 0.0040382734 -0.13561203
0.07198722 -0.16720356 0.082930245 -0.049414176 -0.1812435 0.19145828 -0.16248597 -0.055916827
-0.26927418 0.040488455 0.0928624 -0.20902869 -0.15050696 -0.3173776 0.033463802 -0.22546546
0.070008844 0.20016365 0.064755216 0.12804867 -0.047549177 0.14605546 -0.124609165 0.029697739
0.057744138 -0.042671587 -0.023380017 0.008964899 0.039703667 0.06449489 -0.05435212 0.12931362
0.009934206 0.014994477 0.115003675 0.16364694 -0.012658706 -0.09932512 0.1288289 -0.13715062
-0.026613107 -0.07626179 0.26711035 -0.13921736 -0.08287194 0.01644956 -0.25243917 0.061403137
0.07032362 0.0573436 -0.12521318 -0.046582006 0.05838719 0.02764003 -0.048126534 0.15008372
0.08603242 -0.003152061 -0.22947323 0.13614148 -0.0061611636 -0.002662634 0.068243295 0.16498822
0.16380064 -0.031211302 -0.0019932704 0.020372627 0.16702335 0.04558897 -0.11392565 0.06683031
-0.16240297 0.060931977 -0.11518845 -0.114790276 0.018261375 -0.090756714 -0.2495405 -0.004009791
0.04513548 0.03200576 -0.046880294 -0.046378233 -0.026672633 -0.011284949 -0.16780983 0.07089666
0.0064804167 -0.16697308 0.19018164 0.08367049 0.11469401 0.0692368 -0.06718988 -0.05902893
0.09433569 0.1332165 0.14054345 -0.25427315 0.04307067 -0.053382497 -0.08839564 0.13123062
0.012944725 0.049519666 -0.08655809 -0.25492036 0.07345614 -0.05207563 0.0936041 -0.06840977
0.055354014 -0.008043636 0.075265355 0.12535115 0.08309887 -0.033171687 -0.20516375 -0.24171561
0.14451112 -0.02634555 -0.057460494 -0.21765696 -0.22416492 -0.07768366 -0.025047237 -0.08976781
00000000: b7c0 9a3d 4f4c 6c3e 50d3 35be 4513 46be
00000010: f9f3 a53d f1f5 a3bb d2c4 8abd dbd9 47be
00000020: e3fa 973b babc eb3d 40a1 2d3d 1796 0abe
00000030: 2db0 68bb fdca 743c 28ea 2abe e5a3 373e
00000040: d63f b13d 0937 af3e 1526 46be aac2 62be
00000050: 15de 69be f228 c43d 0328 96bd ae33 253e
00000060: 925f 41be 6274 9d3c a8bf 473e d007 73bc
00000070: 1b82 983d be96 833d 8f44 8c3d e823 64bd
00000080: ef6a 67be 5477 e43c 2321 1ebe 7196 4ebe
00000090: 5d7f 0e3e 304a 623d cb1e 7d3e 3b9c 4cbd
000000a0: e828 6fbd a0be 853d 0f9f 233c c4d4 85bd
000000b0: 8b67 27bc f4db 403d 793d 95bd 391c e2bd
000000c0: a1c6 bd3d e45c a6bd 0508 79be 23ec 583c
000000d0: 6241 5cbc 1162 0d3e dd57 0bbd 78c4 adbc
000000e0: 65bb 353e 5aba 313d b0c4 363e cfa0 483e
000000f0: d522 993e 41c7 3a3e 1608 fc3d 60bb 33be
00000100: 8ef9 92bd a5d3 68bd 5c6b 97bd 0344 be3d
00000110: 6ded e43d 6e86 79be 55b6 c6bc 674f f6bb
00000120: 3f4e 9e3b 6d50 b8bd 44ba 4b3e 942d f1bd
00000130: fc68 4f3e d30c 0b3e 4040 21be c39d bfbc
00000140: 0da4 0f3e 66f6 1ebe ace9 783d 430a 29be
00000150: f8ec 023d 7d8a e03d 23ba 783e 96eb 193e
00000160: 4198 68bc 667b 0fbe 3710 e93d f11f eb3d
00000170: 1ee3 573e 9e9a 47bd 4421 343e 9e6d 93bd
00000180: f206 b9bd 0c7d 2abe ffba 18bd dfb8 01be
00000190: e067 5fbe 6f08 43bd e976 dbbd 66d1 35be
000001a0: a831 05be 11af 5b3d 6bce acbd 9ca6 263e
000001b0: 66f1 b93d 403b 383e 882b aa3d 5892 53bd
000001c0: 0a8c 66bd 1fd1 ec3d 3a01 86be 5f3f e0bd
000001d0: fae3 d93d 2164 35be 958a 823d 9692 0bbe
000001e0: 30fc 55be 4a0c 24be 15c1 23bc 2d6d dbbd
000001f0: 8321 95bd be4d 863d 7e53 843b e1dd 0abe
00000200: 096e 933d 6937 2bbe 55d7 a93d 8566 4abd
00000210: e597 39be a40d 443e b962 26be 0b09 65bd
00000220: 4ede 89be 39d7 253d a42e be3d 9e0b 56be
00000230: 7f1e 1abe 517f a2be 5711 093d 6be0 66be
00000240: cc60 8f3d b3f7 4c3e 629e 843d 311f 033e
00000250: edc2 42bd 908f 153e 1733 ffbd ac48 f33c
00000260: 1e85 6c3d 67c8 2ebd 7387 bfbc 83e1 123c
00000270: 50a0 223d e615 843d 54a0 5ebd ca6a 043e
00000280: 14c3 223c 65ab 753c 0c87 eb3d 1093 273e
00000290: 7666 4fbc f86a cbbd b9eb 033e 3671 0cbe
000002a0: bb03 dabc 242f 9cbd b0c2 883e ff8e 0ebe
000002b0: c4b8 a9bd 3ac1 863c b53f 81be db81 7b3d
000002c0: d505 903d 1fe1 6a3d e237 00be c6cc 3ebd
000002d0: 6827 6f3d 586d e23c 5420 45bd 8caf 193e
000002e0: c431 b03d cf92 4ebb 08fb 6abe ac68 0b3e
000002f0: 96e3 c9bb 967f 2ebb 24c3 8b3d acf2 283e
00000300: 5bbb 273e d8ae ffbc 87a1 02bb 7fe4 a63c
00000310: 2b08 2b3e 80bb 3a3d da51 e9bd 54de 883d
00000320: f74c 26be cf93 793d ece7 ebbd 2a17 ebbd
00000330: e198 953c a8de b9bd 8b87 7fbe 9164 83bb
00000340: fbdf 383d 7918 033d 8d05 40bd 1af7 3dbd
00000350: 9180 dabc 82e4 38bc 57d6 2bbe 4532 913d
00000360: ad59 d43b fefa 2abe fabe 423e 6f5b ab3d
00000370: b1e4 ea3d 06cc 8d3d d99a 89bd 52c8 71bd
00000380: 1233 c13d e869 083e 9fea 0f3e 1730 82be
00000390: df6a 303d 9ba7 5abd c608 b5bd 5261 063e
000003a0: 1d16 543c 22d5 4a3d 5e45 b1bd ec84 82be
000003b0: 2c70 963d 414d 55bd 82b3 bf3d 6c1a 8cbd
000003c0: e4ba 623d 74c9 03bc b924 9a3d 0d5c 003e
000003d0: be2f aa3d 09df 07bd 7216 52be 4c84 77be
000003e0: b9fa 133e 9fd2 d7bc b25b 6bbd 77e1 5ebe
000003f0: 7d8b 65be 9c18 9fbd dd2f cdbc 30d8 b7bd

lstm.weight_hh_l0_reverse f4 [128, 32]
0.13514052 0.06059608 -0.061456107 -0.031363696 0.02262397 -0.12225821 -0.18972002 -0.12024056
-0.03286475 -0.16173576 0.17234053 -0.078014135 0.010222995 0.036909856 -0.032074455 0.06888802
-0.05107123 0.12947325 -0.09874372 0.1368603 -0.22272925 -0.18439476 -0.02206352 -0.06274117
-0.058292016 -0.1350934 -0.14267835 0.08326105 -0.07431411 0.10877225 -0.17981704 0.2516405
-0.12907302 0.20787571 0.17090859 -0.19958322 -0.12981662 -0.13767208 0.10400704 -0.02724217
-0.057915516 -0.045740932 0.0015427672 0.03836812 -0.0899534 0.0959638 0.072284356 0.023461055
0.05613807 -0.037701976 0.008202007 0.07194372 0.019970289 -0.02702014 -0.034610376 -0.21410689
-0.013682553 0.15113483 0.08900028 0.04912479 -0.065538 0.23229477 -0.13381313 0.090984836
-0.0042389156 0.20680104 -0.22342333 -0.006651146 -0.06182026 -0.060827903 -0.0684018 -0.004975398
-0.036979392 -0.11626367 0.19429064 0.013537673 0.25795233 -0.020886846 0.0042753643 0.04683064
0.28940254 -0.06717212 0.14319728 0.07026258 -0.085630596 -0.052861273 0.061404895 -0.14783299
-0.15700646 0.11120293 0.095222354 0.028103044 0.16485462 0.10612557 -0.3066965 0.102601975
-0.11151982 0.26223627 0.27731797 0.15861493 0.06934245 0.0047476892 -0.0855563 -0.09275733
-0.047168203 0.047569714 -0.12765487 0.14048693 -0.010709392 -0.109990366 -0.00028120496 0.103206456
0.16445485 0.1123547 0.014395181 0.1350206 -0.15876204 -0.10066678 -0.09296999 0.069492914
0.26322976 0.11718228 -0.17332447 -0.17322259 0.015093827 -0.027292266 0.006274922 0.02256065
-0.24916287 0.16647011 -0.06394848 0.11688955 -0.073543705 -0.16174045 -0.050932392 -0.000368516
-0.11731685 -0.053769715 -0.017512571 -0.13125134 0.13998254 0.22107047 -0.14641325 -0.059887536
-0.059473224 -0.011184235 0.069276385 -0.0055077905 0.15862173 -0.062363934 -0.14340979 0.014223748
0.18176557 0.058709193 -0.16434965 -0.042079154 0.32787466 0.27252674 -0.0966421 0.030216439
-0.12587604 0.03636854 0.17564788 0.08961843 -0.10733869 -0.1767995 -0.049195454 -0.08601428
0.14563966 -0.09616215 -0.035026737 0.0895029 0.006176546 0.09854868 0.078805916 0.20684148
0.17478734 0.08283927 0.104576066 0.09149264 0.19303563 -0.12785354 -0.12309542 0.13841571
0.22222374 -0.039961245 0.037757095 -0.1049745 0.2803039 0.2356406 0.08660123 -0.09202176
0.16169764 0.06213873 -0.10808003 0.15859766 -0.18596849 0.100773856 -0.17996353 0.12820162
-0.13080926 -0.062277086 0.13002862 0.0074502937 -0.2256011 -0.206211 -0.11888228 0.06398973
-0.102903105 -0.009198424 -0.09987423 0.14588572 0.07669245 -0.1390498 -0.070115626 -0.1725121
-0.11259692 -0.07321617 0.046288643 0.12110896 -0.13435976 0.011318554 -0.122207984 0.028082056
-0.0964509 0.15972549 -0.01839774 -0.0072822985 -0.19111115 -0.15340866 -0.2621923 -0.029084215
0.046378866 -0.034964122 0.096556745 -0.109516494 0.093424514 -0.091797575 -0.050691605 0.107543744
0.15195404 0.035096224 0.032523405 -0.0025287962 -0.16052505 0.020830436 -0.04435093 0.081206284
-0.13484848 0.077893324 -0.016878782 -0.20825846 -0.048600946 0.17393923 -0.024447458 0.09075467
00000000: 4762 0a3e 9833 783d 66b9 7bbd 3877 00bd
00000010: e755 b93c 8362 fabd f745 42be af40 f6bd
00000020: 309d 06bd 0f9e 25be 097a 303e e0c5 9fbd
00000030: 597e 273c ca2e 173d 8160 03bd 2a15 8d3d
00000040: 1130 51bd a394 043e 263a cabd 1b25 0c3e
00000050: 2313 64be fbd1 3cbe 8ebe b4bc 717e 80bd
00000060: 9cc3 6ebd ed55 0abe 461a 12be c584 aa3d
00000070: ff31 98bd fcc3 de3d f521 38be 06d7 803e
00000080: b82b 04be 5fdd 543e a902 2f3e 8b5f 4cbe
00000090: a6ee 04be e9f9 0cbe a501 d53d f92a dfbc
000000a0: d238 6dbd d85a 3bbd ad36 ca3a e427 1d3d
000000b0: 7d39 b8bd ab88 c43d d209 943d 6631 c03c
000000c0: 08f1 653d 636d 1abd b661 063c 3b57 933d
000000d0: bb98 a33c 5759 ddbc 9cc3 0dbd d63e 5bbe
000000e0: c92c 60bc 17c3 1a3e c745 b63d 1337 493d
000000f0: c938 86bd aede 6d3e 4f06 09be 4256 ba3d
00000100: 9ae6 8abb a7c3 533e 16c9 64be dbf1 d9bb
00000110: 3e37 7dbd ae26 79bd 3e16 8cbd aa08 a3bb
00000120: b477 17bd a61b eebd 20f4 463e 1ecd 5d3c
00000130: 5412 843e e41a abbc 5b18 8c3b 7cd1 3f3d
00000140: 922c 943e 8991 89bd 4fa2 123e d4e5 8f3d
00000150: 185f afbd 1085 58bd b383 7b3d 8861 17be
00000160: 4dc6 20be 5dbe e33d f003 c33d 5b38 e63c
00000170: a6cf 283e 5d58 d93d 5307 9dbe fc20 d23d
00000180: 8164 e4bd d543 863e 9ffc 8d3e f46b 223e
00000190: 6a03 8e3d 8192 9b3b 2438 afbd 8ef7 bdbd
000001a0: 7233 41bd 76d8 423d f5b7 02be cedb 0f3e
000001b0: 7276 2fbc a142 e1bd b16e 93b9 e85d d33d
000001c0: da66 283e 391a e63d c4d9 6b3c d742 0a3e
000001d0: 8492 22be 622a cebd 0d67 bebd 4d52 8e3d
000001e0: 0dc6 863e 43fd ef3d f87b 31be 4361 31be
000001f0: 194c 773c 0894 dfbc dc9d cd3b 1dd1 b83c
00000200: 8d24 7fbe 2477 2a3e 6cf7 82bd ca63 ef3d
00000210: 159e 96bd 4a9f 25be 7c9e 50bd 6135 c1b9
00000220: d143 f0bd a23d 5cbd 8676 8fbc c066 06be
00000230: 9557 0f3e 4c60 623e 5bed 15be a24c 75bd
00000240: 329a 73bd 153e 37bc c7e0 8d3d b27a b4bb
00000250: bc6d 223e 5371 7fbd 04da 12be b90a 693c
00000260: c120 3a3e 0d79 703d 464b 28be 315b 2cbd
00000270: 30df a73e a088 8b3e 4bec c5bd 7788 f73c
00000280: a6e5 00be 2ef7 143d 0add 333e de89 b73d
00000290: 63d4 dbbd ee0a 35be 2c81 49bd 4128 b0bd
000002a0: 9022 153e a9f0 c4bd 3278 0fbd 4c4d b73d
000002b0: a064 ca3b e4d3 c93d ff64 a13d 41ce 533e
000002c0: 74fb 323e a3a7 a93d fa2b d63d 7e60 bb3d
000002d0: 22ab 453e 0aec 02be 7419 fcbd d9bc 0d3e
000002e0: 9f8e 633e 67ae 23bd 2fa7 1a3d dffc d6bd
000002f0: fe83 8f3e c54b 713e fc5b b13d e875 bcbd
00000300: 1194 253e 2e85 7e3d 1059 ddbd 6d67 223e
00000310: 866e 3ebe 8662 ce3d 5c48 38be 4947 033e
00000320: ddf2 05be 4216 7fbd 3926 053e 9821 f43b
00000330: fa03 67be fa28 53be 8e78 f3bd 0c0d 833d
00000340: ddbe d2bd fdb4 16bc dc8a ccbd 1163 153e
00000350: ee10 9d3d 1263 0ebe c898 8fbd 03a7 30be
00000360: 3799 e6bd 5cf2 95bd 2999 3d3d f907 f83d
00000370: 9b95 09be 7571 393c 2e48 fabd 570c e63c
00000380: 0d88 c5bd 148f 233e dbb6 96bc 59a0 eebb
00000390: a4b2 43be 2917 1dbe 123e 86be 0542 eebc
000003a0: c4f7 3d3d 8a36 0fbd 8bbf c53d 2f4a e0bd
000003b0: 5a55 bf3d 5e00 bcbd 00a2 4fbd e53f dc3d
000003c0: d799 1b3e 0fc1 0f3d 4337 053d 29ba 25bb
000003d0: ae60 24be 97a4 aa3c 52a9 35bd 7b4f a63d
000003e0: b815 0abe 8986 9f3d 5f45 8abc b541 55be
000003f0: c911 47bd 201d 323e 0946 c8bc 96dd b93d

lstm.bias_ih_l0_reverse f4 [128]
0.032539476 -0.08763252 0.1107312 0.100018136 0.28238565 0.048009723 -0.07883681 0.18222922
-0.037025604 0.15210447 0.2639558 0.24715668 0.046900693 0.09135085 0.047834516 0.02159678
0.23778874 0.025395267 0.32168168 -0.030658022 0.07196098 0.24345538 0.10275892 0.17248504
0.059735622 0.27829966 0.122887194 0.21776858 -0.054624733 -0.014401377 0.11808464 0.13335235
-0.0021515717 -0.09807622 0.04280211 0.050860148 -0.11024545 0.033307526 0.11744514 -0.15939581
0.054592647 0.108123615 0.20808189 -0.09418552 0.080438726 0.1630396 0.1819257 -0.076945215
-0.04889019 0.030495415 9.678966e-05 -0.0021449134 -0.025998576 0.15235296 -0.10748936 -0.07964476
-0.010021472 -0.14466028 0.13869193 0.13840307 -0.11299848 0.15468206 -0.060163934 -0.009894498
-0.12084605 0.042867377 0.08736396 -0.081493504 0.11831789 -0.025778955 0.12912449 0.21685347
-0.18425624 -0.10905573 0.2137971 -0.042369977 -0.10699392 0.05385405 -0.17229107 0.17334624
0.10418026 0.1199231 0.05705748 -0.15190238 -0.14669074 -0.08024822 0.077315174 0.14430253
-0.15488452 0.119962454 -0.05242541 0.03608296 0.05598117 0.04667203 -0.101031266 0.19231254
-0.05700361 0.19212508 0.007496632 0.037945837 0.0695462 0.023811886 -0.10064391 -0.12260347
0.043564636 0.057943735 0.27444902 -0.00086634624 -0.013911856 0.115873195 0.17791122 -0.0024514198
0.09948019 0.12870952 0.05866185 -0.12720993 0.24806015 -0.010414128 0.23465584 0.017123552
0.16103585 0.006125535 -0.06742793 0.12582614 0.011713335 -0.0021410862 0.089204006 0.14797781
00000000: 1d48 053d ae78 b3bd 0ac7 e23d 4fd6 cc3d
00000010: da94 903e d8a5 443d 3275 a1bd 4c9a 3a3e
00000020: 29a8 17bd 46c1 1b3e 3725 873e a416 7d3e
00000030: f11a 403d 2816 bb3d 20ee 433d bbeb b03c
00000040: e47e 733e bc09 d03c 76b3 a43e 8826 fbbc
00000050: 4760 933d 5e4c 793e 4573 d23d eb9f 303e
00000060: 57ad 743d 4b7d 8e3e 48ac fb3d bafe 5e3e
00000070: 2fbe 5fbd c1f3 6bbc 5cd6 f13d 858d 083e
00000080: 6201 0dbb 2fdc c8bd 4451 2f3d bb52 503d
00000090: 5ec8 e1bd 796d 083d 1487 f03d a838 23be
000000a0: 8a9c 5f3d ea6f dd3d 6b13 553e 57e4 c0bd
000000b0: 0fbd a43d daf3 263e bb4a 3a3e 7495 9dbd
000000c0: 1441 48bd 85d1 f93c 8efb ca38 ad91 0cbb
000000d0: f7fa d4bc 6a02 1c3e 6223 dcbd cb1c a3bd
000000e0: 1a31 24bc d321 14be 4205 0e3e 89b9 0d3e
000000f0: bf6b e7bd f964 1e3e 756e 76bd 881c 22bc
00000100: 227e f7bd b495 2f3d e0eb b23d 11e6 a6bd
00000110: a650 f23d 632e d3bc 3639 043e d60e 5e3e
00000120: abad 3cbe 9c58 dfbd a1ed 5a3e 248c 2dbd
00000130: a11f dbbd 1096 5c3d 126d 30be ad81 313e
00000140: 765c d53d 3e9a f53d 1bb5 693d 4c8c 1bbe
00000150: 1936 16be 2e59 a4bd 6b57 9e3d 0bc4 133e
00000160: 0c9a 1ebe e0ae f53d 07bc 56bd bacb 133d
00000170: 834c 653d 2c2b 3f3d 7be9 cebd 94ed 443e
00000180: 9e7c 69bd 70bc 443e 4fa6 f53b 186d 1b3d
00000190: 3d6e 8e3d 2511 c33c 651e cebd 8717 fbbd
000001a0: d570 323d 6956 6d3d 9584 8c3e 831b 63ba
000001b0: 8eee 63bc ed4e ed3d 5c2e 363e 00a8 20bb
000001c0: 45bc cb3d 6ecc 033e 6847 703d 5243 02be
000001d0: 7b03 7e3e 05a0 2abc 9f49 703e b146 8c3c
000001e0: 95e6 243e b6b8 c83b a817 8abd 91d8 003e
000001f0: 4ae9 3f3c 7751 0cbb 97b0 b63d 7f87 173e

lstm.bias_hh_l0_reverse f4 [128]
0.041093443 -0.07494295 0.2374867 0.014413031 0.29152948 0.25455484 -0.03773738 -0.11843924
-0.013039196 0.04688911 0.15732697 0.032673262 -0.09413162 0.4304804 0.07884513 0.22056542
0.15341401 0.2339636 0.10434193 -0.026092071 0.27011892 0.2524562 0.18766919 -0.110693336
0.028212482 0.03191741 0.13062213 0.05415545 0.011944367 0.23331326 0.17567143 0.17606549
-0.101265766 -0.16026434 -0.09913594 -0.018651495 0.1127899 -0.00020476604 0.15318736 0.14312461
0.015596394 0.039554197 0.21058564 0.14821792 0.091124065 0.004720954 0.106193304 0.21979356
0.11530955 0.16062716 -0.12381291 0.1103233 -0.15470865 -0.07636881 0.077819884 0.10068751
0.10890406 0.12698796 0.08362945 0.07163396 0.08084314 -0.07081562 -0.122173786 0.031136231
-0.025866946 0.08033315 0.023924801 0.100804694 -0.10237977 -0.019576607 -0.055716965 -0.092998326
0.0060963673 0.17251079 0.043560725 -0.0913911 0.18018323 0.14109439 -0.13684383 -0.09019604
0.08560957 -0.12716438 0.09289663 0.0027177932 -0.040883962 -0.1454727 -0.051716156 -0.012807896
0.11363647 -0.06259793 -0.1570187 -0.083356984 0.015652353 0.080352694 -0.10223291 0.06051046
0.15775211 0.00017628536 -0.0570987 0.23174958 0.12953705 0.006965909 0.09312143 0.03544665
-0.1050824 0.10053444 0.18441395 -0.063254654 0.14724465 0.036469035 0.09838081 0.3190951
0.09846925 0.16396677 0.0127565805 -0.08222798 0.20127274 0.15814935 -0.03449502 0.12745596
-0.107025824 0.21120338 0.18982491 0.18627022 0.10910194 -0.09154877 0.11204984 0.0378217
00000000: 9951 283d b07b 99bd b72f 733e a224 6c3c
00000010: 5a43 953e 0355 823e 8392 1abd 4690 f2bd
00000020: 5aa2 55bc cc0e 403d 521a 213e 66d4 053d
00000030: 14c8 c0bd ed67 dc3e 8e79 a13d e7db 613e
00000040: 9018 1d3e 2794 6f3e 39b1 d53d 0abf d5bc
00000050: 074d 8a3e f041 813e 5a2c 403e 30b3 e2bd
00000060: dd1d e73c d5bb 023d cfc1 053e 1bd2 5d3d
00000070: 4eb2 433c ace9 6e3e 36e3 333e 834a 343e
00000080: 6d64 cfbd 561c 24be c907 cbbd 05cb 98bc
00000090: 64fe e63d 77b6 56b9 26dd 1c3e 428f 123e
000000a0: 0588 7f3c 9503 223d c3a3 573e 70c6 173e
000000b0: 419f ba3d 3cb2 9a3b e07b d93d 9011 613e
000000c0: 6a27 ec3d 727b 243e 9f91 fdbd 2ff1 e13d
000000d0: f26b 1ebe 4067 9cbd 0860 9f3d 4135 ce3d
000000e0: 1809 df3d 2209 023e eb45 ab3d d3b4 923d
000000f0: 1791 a53d c807 91bd 4036 fabd 6911 ff3c
00000100: ebe6 d3bc b585 a43d f2fd c33c b172 ce3d
00000110: 7cac d1bd 1f5f a0bc 7937 64bd e875 bebd
00000120: 09c4 c73b aba6 303e bb6c 323d 422b bbbd
00000130: f481 383e 0c7b 103e ca20 0cbe b4b8 b8bd
00000140: 1254 af3d 6137 02be 9740 be3d 011d 323b
00000150: f175 27bd ccf6 14be 52d4 53bd 36d8 51bc
00000160: 3dba e83d 5833 80bd 83c9 20be 11b7 aabd
00000170: 5d39 803c f48f a43d 7d5f d1bd d1d9 773d
00000180: c589 213e 3ed9 3839 54e0 69bd c34f 6d3e
00000190: 5ca5 043e 4842 e43b 73b6 be3d 8230 113d
000001a0: 7135 d7bd 00e5 cd3d 03d7 3c3e a88b 81bd
000001b0: 4dc7 163e 8e60 153d e17b c93d 6f60 a33e
000001c0: 3faa c93d e8e6 273e fa00 513c 2567 a8bd
000001d0: 711a 4e3e e7f1 213e a64a 0dbd d183 023e
000001e0: 5b30 dbbd b345 583e 7661 423e 9fbd 3e3e
000001f0: d770 df3d ec7d bbbd 637a e53d edea 1a3d

lstm.weight_ih_l1 f4 [128, 64]
0.08412342 -0.17172626 -0.30794764 -0.22994995 0.23625101 0.2709783 0.30939513 0.3681141
0.03840793 0.42183203 -0.082251556 -0.3051828 -0.10330563 0.14043395 0.16249274 0.3813017
-0.07173715 0.20172557 0.2210468 -0.17048481 0.19792487 0.29377845 -0.21926564 0.14193055
-0.3579957 -0.38950115 0.18142836 -0.18597324 0.33223802 -0.10557597 -0.0544341 0.31795272
-0.16422766 0.14490864 0.13659616 0.29316136 -0.2696562 -0.023715613 -0.03377805 0.19001015
-0.26170006 0.1561123 0.25039136 -0.15337527 0.011167809 0.08553519 -0.20037855 0.061496623
-0.10561853 -0.03407372 0.19962923 -0.0023583982 -0.11737087 -0.010530527 0.13289756 0.060906585
0.23674983 -0.10577618 -0.13512719 -0.18425494 0.17187163 0.16800585 -0.14227037 0.09215167
0.12730348 -0.060581535 -0.3260168 -0.118357494 0.12678796 0.22068511 0.18955998 0.19680347
-0.18124889 0.1035928 0.0038317994 0.11774757 0.0023383813 -0.17091058 0.10758491 -0.06196021
0.14090545 0.054765984 -0.07414099 -0.13091423 0.07819161 0.058958787 -0.20709057 0.01369515
0.07361293 -0.14245515 0.26507077 -0.07945868 0.13731273 -0.010768161 -0.055792592 -0.1837652
-0.036443554 0.02794128 0.021438465 -0.06355778 -0.25816852 -0.3076414 -0.23680179 0.18129972
0.05036704 0.09788972 -0.026878504 -0.25713733 -0.13537103 0.20411018 -0.10717197 0.010379412
-0.039441302 0.11037056 0.19105469 0.108281344 -0.017299527 -0.40178996 -0.13847445 0.261669
0.39224428 -0.012356838 -0.14208893 -0.052613545 0.23481092 -0.015914401 -0.00027556374 -0.103816
-0.0086728865 -0.2038165 -0.21527787 -0.21252249 0.24400066 -0.11901267 0.28548944 0.21294196
-0.2441337 -0.039652698 0.007324516 0.18986042 0.21839213 -0.06887404 0.0011395838 0.043417122
-0.15808979 0.053011935 -0.018869441 0.066209346 0.0958957 0.1792609 -0.078351475 -0.063661784
-0.005009878 -0.2373187 0.25649095 -0.23472095 -0.14993341 -0.056879066 0.084886424 0.064477965
0.01716956 0.10992242 0.12441622 0.15960658 0.2516147 0.06353923 -0.060082555 0.14342439
-0.20802379 0.0376376 0.16648439 -0.009516876 -0.11055609 0.050767995 0.059405215 -0.195989
-0.0418637 -0.049946994 0.13226545 -0.15079601 -0.12582065 0.085057475 0.054829773 0.10858441
0.23576783 0.0018890797 -0.23525213 -0.03282934 0.1807535 -0.03165431 -0.38943654 0.054463312
0.19057186 0.10730996 -0.18416406 -0.0808457 -0.13379557 0.07704737 0.19511998 0.013332394
-0.057824064 -0.06978239 0.15082064 0.031409577 0.018888718 -0.115840375 0.23539126 0.25094545
-0.17892416 -0.07216922 -0.05090151 -0.13492694 -0.06022655 0.12837002 0.048035964 0.13024664
0.08532681 -0.024366088 0.14088441 -0.23347628 0.10412911 -0.050534174 0.0984081 0.22422293
-0.15431724 -0.06086156 0.08782751 0.10005612 0.022569232 0.20736538 -0.07336779 -0.14969788
-0.12541066 0.22346975 0.047824454 -0.06832961 -0.0053326 0.052705165 0.027034875 -0.045210764
0.18637122 0.20208363 -0.119917296 -0.18513294 -0.029186387 -0.22536835 0.1382074 0.12247235
-0.08015816 0.10147631 0.022901088 -0.20556317 0.163562 -0.044126313 -0.04111662 0.07535731
00000000: e648 ac3d 02d9 2fbe 50ab 9dbe 0078 6bbe
00000010: c9eb 713e abbd 8a3e 0a69 9e3e 7479 bc3e
00000020: a251 1d3d 5efa d73e 8173 a8bd ec40 9cbe
00000030: e791 d3bd ebcd 0f3e 7f64 263e fa39 c33e
00000040: edea 92bd 2691 4e3e 185a 623e 9293 2ebe
00000050: d1ac 4a3e 216a 963e 2c87 60be 3e56 113e
00000060: 364b b7be b26c c7be 5bc8 393e c56f 3ebe
00000070: 1a1b aa3e 3738 d8bd 4af6 5ebd b3ca a23e
00000080: 4c2b 28be ee62 143e dddf 0b3e 3f19 963e
00000090: 6110 8abe 3f47 c2bc da5a 0abd 0592 423e
000000a0: 8dfd 85be e7db 1f3e 4c33 803e 680e 1dbe
000000b0: 30f9 363c 132d af3d 0930 4dbe e2e3 7b3d
000000c0: 874e d8bd e390 0bbd 9b6b 4c3e 5b8f 1abb
000000d0: 2460 f0bd 3b88 2cbc 4c16 083e 2f79 793d
000000e0: 8c6e 723e 2fa1 d8bd c85e 0abe 54ad 3cbe
000000f0: 1eff 2f3e ba09 2c3e 53af 11be 04ba bc3d
00000100: d85b 023e 5824 78bd adeb a6be 6a65 f2bd
00000110: b4d4 013e 47fb 613e 031c 423e d986 493e
00000120: 4f99 39be 7628 d43d ed1e 7b3b a325 f13d
00000130: 873f 193b 2f03 2fbe 7a55 dc3d fdc9 7dbd
00000140: 8549 103e 4c52 603d 3bd7 97bd 610e 06be
00000150: ec22 a03d c57e 713d 8d0f 54be 9f61 603c
00000160: 60c2 963d c3df 11be 5bb7 873e 3bbb a2bd
00000170: b59b 0c3e f16c 30bc c686 64bd f22c 3cbe
00000180: d645 15bd 1ce5 e43c b89f af3c 952a 82bd
00000190: aa2e 84be 2c83 9dbe 2b7c 72be a2a6 393e
000001a0: ab4d 4e3d 687a c83d 4f30 dcbc 81a7 83be
000001b0: b49e 0abe 4202 513e fa7c dbbd 690e 2a3c
000001c0: 348d 21bd f609 e23d d7a3 433e 9cc2 dd3d
000001d0: bdb7 8dbc 6ab7 cdbe 3fcc 0dbe 7bf9 853e
000001e0: 3ed4 c83e 5674 4abc c37f 11be 4d81 57bd
000001f0: 4672 703e eb5e 82bc 8a79 90b9 7c9d d4bd
00000200: b918 0ebc 46b5 50be cd71 5cbe 7f9f 59be
00000210: 4fdb 793e eabc f3bd ac2b 923e 750d 5a3e
00000220: 2ffe 79be de6a 22bd 7e02 f03b c56a 423e
00000230: 30a2 5f3e d50d 8dbd 165e 953a 27d6 313d
00000240: 4ae2 21be 0b23 593d 1694 9abc c498 873d
00000250: f764 c43d 2b90 373e bd76 a0bd 1c61 82bd
00000260: e729 a4bb ac03 73be c852 833e b05a 70be
00000270: 2588 19be 06fa 68bd efd8 ad3d 060d 843d
00000280: 2da7 8c3c 011f e13d eecd fe3d e86f 233e
00000290: a4d3 803e db20 823d 2019 76bd d8dd 123e
000002a0: 3004 55be e229 1a3d e27a 2a3e acec 1bbc
000002b0: 3b6b e2bd 1af2 4f3d e252 733d 57b1 48be
000002c0: 4579 2bbd 3895 4cbd 9870 073e 456a 1abe
000002d0: 21d7 00be 9d32 ae3d 2f95 603d 8161 de3d
000002e0: 1f6d 713e ff9a f73a efe5 70be 0f78 06bd
000002f0: 7217 393e f3a7 01bd 3a64 c7be ec14 5f3d
00000300: 4525 433e 53c5 db3d 8195 3cbe 6e92 a5bd
00000310: b501 09be 03cb 9d3d 88cd 473e 1d70 5a3c
00000320: edd8 6cbd 12ea 8ebd ba70 1a3e 54a7 003d
00000330: 83bc 9a3c b83d edbd 680a 713e ec7b 803e
00000340: e537 37be 75cd 93bd 1a7e 50bd 4a2a 0abe
00000350: 1db0 76bd 6e73 033e 5cc1 443d 605f 053e
00000360: d3bf ae3d 649b c7bc 0144 103e 6814 6fbe
00000370: a541 d53d ecfc 4ebd 308a c93d b29a 653e
00000380: 5705 1ebe f949 79bd e9de b33d 39ea cc3d
00000390: 1ce3 b83c 9757 543e da41 96bd 674a 19be
000003a0: a76b 00be 41d5 643e 93e3 433d 65f0 8bbd
000003b0: 17bd aebb 5fe1 573d 3e78 dd3c ec2e 39bd
000003c0: 19d8 3e3e 03ef 4e3e 3397 f5bd 7d93 3dbe
000003d0: 4a18 efbc f6c6 66be 3e86 0d3e c9d2 fa3d
000003e0: f629 a4bd d0d2 cf3d 109b bb3c 277f 52be
000003f0: cc7c 273e cbbd 34bd e769 28bd ef54 9a3d

lstm.weight_hh_l1 f4 [128, 32]
0.04630376 0.060687166 0.2204456 0.116165124 0.2752492 -0.4310812 -0.11710502 -0.11533746
0.06957271 -0.48216945 0.27238885 0.0053924522 0.071166396 -0.4257673 0.057537194 0.0017741905
-0.24496466 -0.22811478 -0.2537869 -0.4414448 0.31518015 0.16274695 -0.32868528 0.20890659
0.20519069 -0.46781832 0.07789232 0.20041092 0.18498762 0.17051041 0.11694377 0.069058545
0.19303232 -0.06428056 0.11833382 0.29393747 0.3409071 -0.3130175 0.16213836 -0.19186658
0.048952483 -0.21171968 -0.027324414 -0.025606051 0.14375229 -0.03722567 -0.38759318 -0.15970106
-0.024452116 -0.1400181 0.024344012 -0.04161878 0.18368413 0.39804733 -0.0027480845 -0.08073022
0.12177697 0.011964637 0.21873172 0.038992528 0.40463603 0.06460934 0.1481143 0.35250667
0.2294781 0.22374643 0.014862571 0.20925117 0.26504496 -0.20387587 0.03071966 -0.08525148
0.09786416 -0.07962721 -0.13804556 0.13791937 -0.028687598 0.089152806 0.024764244 0.14465901
-0.16524978 0.05507185 -0.124214984 0.0025505181 -0.08079597 0.109974094 -0.22818485 0.038791858
0.24898256 -0.22279081 0.22033453 0.06708309 -0.004011721 -0.025518522 0.21234545 -0.02840794
0.10934768 -0.055981215 0.12832254 -0.081433594 -0.05831348 0.03270623 -0.11900541 -0.16382986
-0.13583483 -0.12704301 -0.03279168 0.14632262 -0.048737362 -0.093718536 -0.039378136 0.14517103
-0.13700408 -0.17955989 0.067958266 -0.25732395 -0.04852579 -0.12071403 0.0040439735 0.16917498
0.18230057 -0.028359208 0.20034058 -0.024289506 0.09684014 -0.003229955 -0.06015434 -0.13269767
0.057549868 0.11552702 0.19660121 -0.0354207 -0.073178284 0.09005933 -0.20140938 0.10147136
-0.019608099 -0.010898207 -0.055002518 -0.076630995 0.14529194 -0.21937908 0.068761215 0.19278145
-0.15340121 -0.17503259 -0.1138794 -0.03796453 -0.044378668 -0.16664729 0.092532165 -0.037104186
0.04479937 0.01614731 0.042574707 -0.07387145 -0.19364597 0.081532106 -0.1835999 -0.10695024
0.22191493 -0.16095105 -0.08824864 0.058696594 0.18137173 -0.16437948 0.14802979 -0.13806634
0.040342852 0.13401619 0.1115016 -0.03624302 -0.058842577 -0.19272058 -0.017937057 0.08199873
-0.011927734 0.074418224 0.14418928 -0.013389541 0.15045638 0.10384486 -0.011201372 0.12721588
0.009038297 -0.07706372 0.16645779 0.06646555 0.120633766 0.10195101 0.24640796 0.0033788143
0.122338235 0.05700002 -0.035533063 0.01042569 0.059047155 -0.12661934 -0.1759738 -0.2615686
0.059284993 -0.016882256 0.09044606 -0.0033399924 0.10011199 -0.18971662 0.12150959 0.057872094
0.04569208 -0.24961005 -0.19351143 0.008677774 0.23128696 -0.14509441 0.011807554 0.19724913
0.1297868 -0.17545263 0.20238101 0.32914057 -0.039826788 0.13657022 -0.08465879 0.07005112
0.13152157 0.026199302 0.036944084 -0.074374326 0.015465447 -0.08235161 0.08609238 -0.00863506
0.13534145 -0.144208 0.047666132 0.051290996 0.20648934 0.017032545 -0.034280542 0.13898341
-0.25165296 0.11648891 -0.18391125 -0.041874133 0.18951246 0.16785829 -0.06334657 0.087651275
0.1371389 0.02522867 -0.22260141 -0.018531438 0.009101752 0.02132281 -0.016288886 -0.010524818
00000000: 03a9 3d3d 1b93 783d 7ebc 613e fbe7 ed3d
00000010: 77ed 8c3e adb6 dcbe c2d4 efbd 0c36 ecbd
00000020: 237c 8e3d eade f6be 8d76 8b3e 2bb3 b03b
00000030: b0bf 913d 2cfe d9be 1fac 6b3d f48b e83a
00000040: 04d8 7abe ec96 69be 5bf0 81be 0e05 e2be
00000050: 4b5f a13e 23a7 263e 7049 a8be 9ceb 553e
00000060: 821d 523e e285 efbe 0286 9f3d 8538 4d3e
00000070: 656d 3d3e 489a 2e3e 3780 ef3d 916e 8d3d
00000080: 44aa 453e 87a5 83bd 0059 f23d f97e 963e
00000090: 608b ae3e d443 a0be 9907 263e ac78 44be
000000a0: 6682 483d 0bcd 58be 73d7 dfbc c8c3 d1bc
000000b0: cd33 133e f279 18bd 9d72 c6be ad88 23be
000000c0: ce4f c8bc e860 0fbe 186d c73c 7478 2abd
000000d0: b117 3c3e dccc cb3e 3519 34bb e355 a5bd
000000e0: 3466 f93d 5307 443c 35fb 5f3e a1b6 1f3d
000000f0: 742c cf3e e751 843d 46ab 173e c17b b43e
00000100: 4ffc 6a3e c91d 653e 2482 733c f045 563e
00000110: f9b3 873e d6c4 50be cca7 fb3c 5498 aebd
00000120: 016d c83d 9713 a3bd d15b 0dbe bc3a 0d3e
00000130: 4102 ebbc bf95 b63d 62de ca3c 7e21 143e
00000140: 3d37 29be 0593 613d 6d64 febd 9826 273b
00000150: 5c78 a5bd 193a e13d 4aa9 69be 36e4 1e3d
00000160: 49f5 7e3e 4623 64be 609f 613e dc62 893d
00000170: c174 83bb 380c d1bc 1671 593e c5b7 e8bc
00000180: adf1 df3d 8f4c 65bd fc66 033e a8c6 a6bd
00000190: 1eda 6ebd f8f6 053d 1cb9 f3bd 04c3 27be
000001a0: 4918 0bbe 9017 02be 9250 06bd 99d5 153e
000001b0: d4a0 47bd 81ef bfbd f84a 21bd b7a7 143e
000001c0: cc4a 0cbe 8cde 37be b42d 8b3d f7bf 83be
000001d0: fbc2 46bd eb38 f7bd 4f83 843b 353c 2d3e
000001e0: 00ad 3a3e 9251 e8bc 1526 4d3e c9fa c6bc
000001f0: 2054 c63d a7ad 53bb 6664 76bd e6e1 07be
00000200: 69b9 6b3d 6e99 ec3d d451 493e 4c15 11bd
00000210: 7fde 95bd 0771 b83d 433e 4ebe 37d0 cf3d
00000220: 2aa1 a0bc 658e 32bc 524a 61bd b6f0 9cbd
00000230: 69c7 143e e9a4 60be aed2 8c3d 8068 453e
00000240: 3515 1dbe be3b 33be 9a39 e9bd b280 1bbd
00000250: 68c6 35bd 96a5 2abe 8181 bd3d 8ffa 17bd
00000260: 8b7f 373d 5d47 843c d162 2e3d ea49 97bd
00000270: 214b 46be 4efa a63d 9d01 3cbe ba08 dbbd
00000280: ab3d 633e 5ad0 24be b4bb b4bd d76b 703d
00000290: 83b9 393e 1853 28be 1f95 173e 4361 0dbe
000002a0: 8c3e 253d 8a3b 093e f35a e43d 9073 14bd
000002b0: ea04 71bd 8b58 45be bcf0 92bc f3ee a73d
000002c0: 8b6c 43bc 9568 983d 5ba6 133e ce5f 5bbc
000002d0: 3d11 1a3e 9dac d43d f685 37bc e144 023e
000002e0: 5e15 143c 95d3 9dbd e973 2a3e 171f 883d
000002f0: d60e f73d b1cb d03d 5e52 7c3e 196f 5d3b
00000300: 788c fa3d da78 693d 1e8b 11bd 83d0 2a3c
00000310: 6edb 713d 80a8 01be 7a32 34be 52ec 85be
00000320: d2d4 723d a84c 8abc c93b b93d c6e3 5abb
00000330: 8407 cd3d 1345 42be 05da f83d 4a0b 6d3d
00000340: 9e27 3b3d c799 7fbe dc27 46be 392d 0e3c
00000350: 7dd6 6c3e a193 14be 7974 413c adfb 493e
00000360: d5e6 043e dba9 33be f83c 4f3e 1d85 a83e
00000370: 6a21 23bd 10d9 0b3e 9661 adbd f676 8f3d
00000380: 97ad 063e eb9f d63c ae52 173d 9151 98bd
00000390: c962 7d3c f6a7 a8bd 3451 b03d 117a 0dbc
000003a0: f396 0a3e 43ab 13be 903d 433d 8216 523d
000003b0: f171 533e d687 8b3c c169 0cbd ab51 0e3e
000003c0: a8d8 80be bd91 ee3d 3b53 3cbe 3684 2bbd
000003d0: 8e0f 423e 0be3 2b3e d9bb 81bd 8382 b33d
000003e0: 246e 0c3e 5bac ce3c a0f1 63be 3ecf 97bc
000003f0: 841f 153c 2cad ae3c 4570 85bc 4970 2cbc
