trained_models/mESC_left_out_model.pth (torch, 256955 bytes, 26 tensors)

lstm.weight_ih_l0 f4 [128, 9]
000000 28 d7 b2 3e f7 59 ce 3e f3 b8 b1 3d 0a 0d 69 3e
       0.34929776 0.40303013 0.086778544 0.2275888
000010 2b 79 ac be 2d 03 95 3e 65 6c 05 be 71 71 7a 3d
       -0.33686194 0.29103985 -0.1302963 0.061143342
000020 5e b9 8a 3e 7b 42 ef be ec 87 ec 3d 03 34 66 be
       0.2709455 -0.46730408 0.115493625 -0.22480778
000030 3d e9 06 bd 3b 98 8f be 9f 19 ea 3b af 90 40 be
       -0.032937277 -0.2804583 0.0071441676 -0.18805192
000040 27 ff 07 bd e0 72 d3 bd c7 b7 97 3d a8 1d 8e 3d
       -0.033202317 -0.10324645 0.074080996 0.0693925
000050 cd 75 81 bd 03 a3 d1 bd 62 b0 dc bd 5e 5f 77 bd
       -0.06321297 -0.1023617 -0.1077583 -0.060393684
000060 2e fb 28 3e ca c5 76 bd 13 2f 84 3d 53 e0 14 be
       0.16502067 -0.06024722 0.06454291 -0.14538698
000070 3a ae ec bd f9 b6 3b 3d 2e cf 86 3e d5 e5 96 3e
       -0.115566686 0.045828793 0.2632994 0.29472223
000080 bc 86 a5 bd 05 35 af bd ee 34 26 be 6a 76 c5 be
       -0.08082339 -0.085550345 -0.16231129 -0.38566905
000090 bb b2 19 3f 4b 8f e0 3d 38 a1 b0 bd 01 c6 9f 3e
       0.60038346 0.10964831 -0.086245 0.31205752
0000a0 95 46 bd 3e c3 2c bc bd 45 49 92 3e 22 10 c1 bc
       0.36967912 -0.09188225 0.28571525 -0.023567263
0000b0 8e c4 f9 bd 97 0a 8d 3e 33 51 4a 3e 33 f1 0e 3e
       -0.12195693 0.27547142 0.19757538 0.13959198
0000c0 fd bd f4 3d 35 c2 8c 3e a4 a7 a3 bb 43 96 23 3d
       0.119503 0.27491918 -0.0049943496 0.039938223
0000d0 d9 38 fd 3d 8f 1a 51 be 2e de 5e be 2b e6 45 3e
       0.123643585 -0.20420288 -0.21764442 0.19326083
0000e0 5f 9f a7 bd f7 e5 8a be 8b bd 91 3d 90 ef 6c 3e
       -0.081846945 -0.27128574 0.071162306 0.23138261
0000f0 76 40 3b be 9f 12 51 3e 6e 9f c1 bc 2e 9b 5e 3e
       -0.18286309 0.2041726 -0.023635592 0.21738884
000100 b3 5b 22 3e d9 2e cf bb 39 1f 5d 3e 40 50 b3 be
       0.15855293 -0.0063227233 0.21593942 -0.35022163
000110 5c 69 05 be 1f 8c 2b bd 72 c3 34 3e 01 83 47 bd
       -0.13028473 -0.041881677 0.17652681 -0.04870892
000120 8e b3 9f 3e 94 20 39 3e 87 d4 c7 3e 04 60 2c 3e
       0.31191677 0.18078834 0.39029333 0.16833502
000130 bc f0 b5 3e be 01 cb 3e 60 e8 e0 bd f8 68 6a be
       0.35535228 0.39649767 -0.10981822 -0.22891605
000140 2c 32 58 be d7 e2 c7 3d 99 02 37 be aa 8a 28 3e
       -0.21112889 0.09760063 -0.17872085 0.16459146
000150 b2 e7 5b 3e 4b a1 db bd 10 cc 90 3c 3c d8 b2 3e
       0.21475103 -0.107241236 0.01767543 0.349306
000160 91 ff be 3d 5b 1f 80 3e 36 ab 06 be c1 df a4 bd
       0.09326089 0.25023922 -0.1315125 -0.0805049
000170 7f 9b bf bd 6e 2f 05 bd b2 cd 7a 3d 72 de f8 bd
       -0.093558304 -0.032515936 0.061231323 -0.12151803
000180 7b e0 03 be 5a 77 00 3d 72 50 08 3e b8 98 a2 be
       -0.12878601 0.031363823 0.13311937 -0.3175714
000190 2d 17 31 3e 5a 78 7e bd 4c 39 8a 3d ac fb 1f 3e
       0.17293997 -0.062126495 0.0674921 0.15623349
0001a0 1f 6a 16 be 68 d0 d1 be 51 91 8d 3e f4 75 77 bc
       -0.1468892 -0.40979314 0.2764993 -0.015103806
0001b0 3c eb fd 3e cf 69 10 bd 5c 3d 85 bd 6a c1 a6 3e
       0.49593532 -0.035257157 -0.06505844 0.32569438
0001c0 5a a1 6f bd bf 6b 11 be ec b3 48 3e bf bf 0c bd
       -0.058503486 -0.14201258 0.19599885 -0.03436255
0001d0 40 21 57 3e 73 e1 14 bd de 37 2e be 64 32 1c bf
       0.21008778 -0.036347818 -0.17013499 -0.6101439
0001e0 b2 4d 1c be af ff ad bd e9 9d 4d 3e 79 ce 0c bd
       -0.15264013 -0.084960334 0.20079769 -0.034376595
0001f0 3b 3b 17 3d 74 81 3d 3d 63 80 a9 be e1 32 91 3d
       0.03692172 0.046266034 -0.33105764 0.070897825
000200 99 09 ee 3d 20 dd 64 3e 06 cd 5a be 17 eb 65 3e
       0.11622924 0.22349977 -0.21367273 0.22452961
000210 01 b3 65 3c 87 e9 44 be b0 a0 1b bd 17 42 10 3e
       0.014019729 -0.19229709 -0.03799504 0.14087711
000220 c7 53 58 3e 9c 07 b9 be 94 ff e1 bc 69 a5 a1 be
       0.21125709 -0.36138618 -0.02758769 -0.3157151
000230 9e c5 d5 bc b2 0b 13 bc 4d 4a 45 be 20 39 81 bc
       -0.026095208 -0.008974956 -0.19266625 -0.01577431
000240 12 4d 18 be 8a de 2f bf 18 09 0a 3d a4 ad f4 3d
       -0.1487315 -0.6869894 0.03370008 0.11947182
000250 69 a3 d8 3d b6 8e 9f bd 36 8b 7f be eb 74 12 3e
       0.10578043 -0.07790892 -0.24955449 0.14302413
000260 23 a3 8e bd 91 89 5f bd d7 47 81 bf 7d b8 a2 be
       -0.069647096 -0.054574553 -1.0100049 -0.31781378
000270 b8 79 a5 be 25 40 d0 be 3e 45 d8 3d d2 6f 9d be
       -0.32319427 -0.40673938 0.10560082 -0.30749375
000280 ae 70 3f be 77 5a 21 be 4c b7 1e be 64 66 61 3e
       -0.18695328 -0.15757166 -0.1549961 0.22011715
000290 a6 40 8f be da 1a 3e be 52 16 5f bd 47 ab ca bd
       -0.2797901 -0.1856493 -0.054464646 -0.0989595
0002a0 b6 97 09 3e 2b 86 08 3d 51 bb 6a 3d 2b b8 05 3f
       0.1343678 0.033331078 0.057307545 0.52234143
0002b0 eb 63 6f 3e b1 d2 01 3d fb c8 bb 3e e6 e6 a8 3e
       0.2337796 0.03169507 0.36676773 0.32988662
0002c0 ae 4c 01 3e e1 53 03 3e b6 23 c2 be 0a 63 08 3e
       0.12626907 0.12824966 -0.3791787 0.1331903
0002d0 29 f0 10 3d ca 92 22 3f e2 6b 6b be ee 8d 11 3d
       0.035385285 0.6350523 -0.22990373 0.035535745
0002e0 94 20 bf 3c a4 64 05 3f 17 72 f3 be 08 d3 a8 bd
       0.023330964 0.5210669 -0.4754798 -0.08243376
0002f0 4f 53 98 3d 83 a2 0b be 43 2a 6e be 38 e6 71 be
       0.07437765 -0.13636212 -0.23258309 -0.23622978
000300 8d 28 77 be 7b c0 73 bb 7c 77 fb bd 3b dd ea bd
       -0.24136563 -0.0037193585 -0.12278649 -0.114679776
000310 25 f1 e0 3e 54 ed 98 3e 4a c3 a8 bd 57 8e 08 bf
       0.4393398 0.29868567 -0.082403734 -0.53342193
000320 84 18 02 be 74 cb 93 be af 08 5c be 66 25 3a be
       -0.12704664 -0.2886616 -0.21487688 -0.18178329
000330 09 62 e6 3d f4 a8 1e 3e b6 08 c3 bd e9 9a 97 bd
       0.112491675 0.15494138 -0.09523146 -0.07402594
000340 9d 7b 16 3e 17 43 9f 3c 2c f6 86 3d 1f 72 0a 3d
       0.14695592 0.01944117 0.06589922 0.03380024
000350 d1 ad 15 be df 3f 27 3f dc a5 56 be 06 f5 21 be
       -0.14617087 0.65331835 -0.20961708 -0.15816125
000360 d2 fd 8f 3e 6c 2e 08 be cf 5c 5b be d3 08 8f 3e
       0.28123337 -0.13298959 -0.21422122 0.2793642
000370 58 46 2b 3e 57 8e a1 3d c5 ce 53 3e 14 12 82 be
       0.16726053 0.07888477 0.20684345 -0.25404418
000380 f8 4b 62 be 2c dd d2 be 9e f6 6f 3e 4d 37 ca 3d
       -0.22099292 -0.41184366 0.2343392 0.09873829
000390 fe c1 39 3e 6a cb 70 3d e7 bb 13 3e b3 d7 90 be
       0.18140408 0.05878774 0.14427148 -0.28289565
0003a0 aa f5 0e be e7 30 b5 3b 5c 8a 2a 3e f7 9c 70 bd
       -0.13960901 0.0055295113 0.16654342 -0.058743443
0003b0 b3 e0 65 be 49 a7 b5 3d 95 ff cf 3e be 8b a5 3c
       -0.22448997 0.08869798 0.4062468 0.020208236
0003c0 ae 06 9b be 8e 98 05 3d 40 6e 2e 3e 5b f2 80 3d
       -0.30278534 0.03261619 0.17034245 0.06296226
0003d0 d5 db 24 be cd 3f d4 3d c4 46 88 be c7 d0 09 be
       -0.16099484 0.103637315 -0.2661649 -0.13458548
0003e0 a7 06 0c be d5 e0 88 3e f7 f8 12 3e 16 94 c0 3d
       -0.13674413 0.26734033 0.14352785 0.09403245
0003f0 63 58 5e be 94 ae 9f 3c 67 47 8e bd 6f 8e 7b be
       -0.21713404 0.019492425 -0.06947213 -0.24566053

lstm.weight_hh_l0 f4 [128, 32]
000000 09 5a 2c bd a4 f6 e8 3d b3 13 5c be b8 c5 b1 be
       -0.04207805 0.11375168 -0.2149189 -0.3472116
000010 26 f0 90 3e ac bf 27 3d c9 ed 61 3e 58 bc cc 3e
       0.2830822 0.040954277 0.22063364 0.39987445
000020 d5 c1 e4 3d 11 be 3a 3e 8f 84 64 bd 52 50 93 3e
       0.11169783 0.18236567 -0.05579048 0.28772217
000030 25 42 39 be 32 76 05 3f 01 7a 62 3e c6 05 0b 3f
       -0.18091638 0.52133477 0.22116853 0.54305685
000040 e1 af d6 be 35 eb 79 3e c0 3c a3 bd 44 1c 8f be
       -0.4193106 0.2440613 -0.079705715 -0.27951252
000050 f7 bc 33 bd f3 e1 0e 3c 61 40 3e 3a 8a 14 5e be
       -0.043881383 0.008720863 0.0007257518 -0.21687523
000060 df 13 3f be 51 75 c6 bd 70 42 9f 3d 68 62 1c bf
       -0.18659924 -0.09690345 0.07776344 -0.61087656
000070 af 19 f4 be d3 7f 08 3e f1 ce ad 3d 32 71 35 be
       -0.47675845 0.13330011 0.084867366 -0.17718962
000080 01 6c 0a bd b1 79 dd 3c 82 35 d8 3c fa 5b 55 3e
       -0.033794407 0.027035566 0.026392702 0.20835868
000090 86 49 2a 3e 22 c2 04 3e 06 93 81 3d d9 f3 13 be
       0.1662961 0.12964681 0.063268706 -0.14448489
0000a0 90 53 b0 3d 83 13 93 be d5 8e c1 bd 0a df 77 3e
       0.08609688 -0.28725824 -0.09451071 0.24206176
0000b0 d6 74 02 3e b1 57 5a 3e eb 7b e0 3c 97 15 df bd
       0.12739882 0.21322514 0.027402839 -0.1089279
0000c0 d7 06 13 be bf 54 6e 3e 97 83 35 3c 4f 7f 46 3d
       -0.14358078 0.23274516 0.011078737 0.048461255
0000d0 2c a3 37 3b 62 ea f9 be 60 cf 93 be 4b cb b9 3c
       0.0028020842 -0.48811632 -0.28869152 0.022679945
0000e0 f4 e7 5a 3d c2 27 94 be 13 65 13 3d d4 7c a3 bd
       0.053443864 -0.28936583 0.035985064 -0.079827935
0000f0 f7 95 81 be dc b7 d3 bc de e7 6b 3e 69 db 49 3d
       -0.25309727 -0.025844507 0.23037669 0.04928151
000100 8d 66 41 3e 61 5b 23 3d 75 6d 5f bd 88 c6 ba be
       0.18886776 0.039882068 -0.054547746 -0.36479592
000110 4d 02 d1 bd 2d 91 ad 3d 3f 1d f6 3b 59 57 ae 3e
       -0.10205517 0.08474956 0.0075108106 0.34051016
000120 fc 77 8b bd 6b 85 ac 3d 0f 89 bd be b0 97 d0 3c
       -0.068099946 0.08423885 -0.3701863 0.025462955
000130 b7 ef 47 bc 3e 3d 20 3c 39 6c c7 3e e2 99 9d 3e
       -0.012203149 0.009780226 0.38949755 0.30781466
000140 5f 1e 6c 3d dd cb 33 3e ed 17 a5 bd 5e 13 8e be
       0.05764615 0.17558236 -0.08061204 -0.2774915
000150 fb 45 02 be 5d d2 f6 3d fa e3 33 be 6f 4c 99 bd
       -0.12722008 0.12051842 -0.17567435 -0.07485282
000160 7d 04 1f 3e 48 0f 75 be 8f 71 61 3e 27 0f aa be
       0.15529056 -0.2393161 0.22015975 -0.33214685
000170 ed 97 bc bd 66 2d a1 39 d0 24 6b 3e b4 8d 80 bc
       -0.09208665 0.00030742137 0.22963262 -0.01569257
000180 9e bd 84 be bb 7a d3 bd 1c dd 81 3d 3e 58 47 be
       -0.25925916 -0.10326143 0.063410014 -0.19467255
000190 35 c7 51 3a 03 e3 eb bc 1f e3 30 3e 7e f0 6d 3e
       0.00080024014 -0.028794771 0.1727414 0.23236272
0001a0 f7 92 0f 3d 07 8a d8 3d ed e8 1f 3e 06 04 50 be
       0.035052266 0.105732016 0.15616198 -0.20314035
0001b0 38 43 40 3e fe eb eb 3d 4f 84 86 3b 0b 68 50 bd
       0.18775642 0.11519621 0.004105128 -0.050880473
0001c0 75 5c 95 3c 54 f1 ad 3e e3 9b 30 3d 83 7b 95 bc
       0.018232564 0.3397318 0.043117415 -0.018247372
0001d0 c4 4d 58 3d e4 5f 43 3e 1a 01 09 bd 4b 2a ef 3c
       0.052808538 0.19079548 -0.033448316 0.029194972
0001e0 29 d8 3c 3e 19 ee 0d be 95 cb 17 3d 0f 2b bc bd
       0.18441834 -0.13860358 0.037059385 -0.091879
0001f0 23 92 e5 3d 98 c0 7b 3e 3c ea 5f 3e 29 ce 57 be
       0.11209514 0.24585187 0.21866697 -0.21074738
000200 36 d6 0c be 05 c3 9a bd a0 9d 75 3d 29 db 8a 3d
       -0.1375359 -0.07556728 0.059964776 0.06780083
000210 0e 15 17 3e 46 47 0e 3d 2b dd 85 3d e7 10 f0 3d
       0.14754125 0.03473594 0.06536325 0.11721974
000220 da 8f 91 bd 71 7e ed 3c 2a 4c 33 3e 29 c0 25 3e
       -0.07107516 0.028990956 0.17509523 0.16186585
000230 fe f2 cf 3e 35 62 47 3d cf 22 2c bd 6e ed 1e 3e
       0.40615076 0.048677642 -0.042025384 0.1552026
000240 e0 4f fc be 7d e7 e0 3c fe 42 cc 3d bc 15 30 be
       -0.4927969 0.027454132 0.09973715 -0.17195791
000250 07 89 91 3d 89 7b 73 3d f5 70 25 3e d9 db ce bc
       0.07106214 0.059443984 0.16156371 -0.025251316
000260 cd 20 47 bd f2 4a e3 3c e4 c8 03 3e 07 24 c2 bd
       -0.048615266 0.027745698 0.12869602 -0.09479528
000270 4c b0 d5 3d 13 7c a6 3e 17 a7 b0 bc f4 b7 c8 bd
       0.104340166 0.32516536 -0.02156405 -0.09800711
000280 ad e4 3b 3e 41 4a e7 3e eb fe 44 be 0b 8f 76 be
       0.18348952 0.4517384 -0.19237868 -0.24078004
000290 0f 31 d9 3d 47 be 71 3e a1 d6 7d 3e 03 f6 5e bd
       0.1060506 0.23607741 0.24788906 -0.054433834
0002a0 30 e7 21 be 7f 59 56 3e 68 0c af be ad 1d 92 3e
       -0.15810847 0.20932578 -0.34189153 0.28538266
0002b0 0a 4d c9 be b4 7c 85 bd 84 17 21 3e 35 b7 ae bd
       -0.3931659 -0.06517926 0.15731627 -0.08531038
0002c0 69 db c4 be b7 88 92 3d 50 82 ec bd 84 fa c3 3e
       -0.38448647 0.071549825 -0.11548293 0.38277066
0002d0 7d 47 c3 be 42 26 44 3e 30 01 ff bd f4 38 ad 3c
       -0.3814048 0.19155219 -0.124513984 0.021145321
0002e0 5f 8e f2 bc 52 17 60 be 8f 6e db be f8 00 50 be
       -0.029608903 -0.21883896 -0.42857787 -0.2031287
0002f0 72 cb 7d be 4f 6a 9f 3e 91 cf e5 bc c9 38 13 bf
       -0.2478464 0.31135795 -0.028053077 -0.5750852
000300 d0 88 0a be 9a d6 10 bd 22 3a 95 bd 48 d1 85 be
       -0.13528752 -0.03536091 -0.072864786 -0.2613623
000310 ef 1a a9 bd 2d 5e 47 bd c3 55 bc 3c f6 a7 7f 3d
       -0.0825709 -0.048673797 0.022990113 0.06241604
000320 f4 0b 45 3d 7f d5 0a be 71 a6 2f 3d d2 1e 3c 3e
       0.048107103 -0.13558005 0.04288334 0.18371132
000330 93 03 4c 3c dc 98 77 3e 8f e4 b5 3e 82 3c 85 3e
       0.012452024 0.24179405 0.3552594 0.26022726
000340 91 db 5e be 32 80 a5 3e e5 b0 56 be f7 74 ff 3d
       -0.21763445 0.32324368 -0.20965917 0.12473481
000350 78 05 f8 3d 49 65 87 be b3 98 37 bd 85 12 99 3e
       0.12110418 -0.26444462 -0.04482336 0.29896942
000360 53 13 04 3e f3 8e 00 be 45 b3 99 bd dc b7 db bd
       0.12897997 -0.12554531 -0.07504896 -0.10728428
000370 b0 38 41 be ab 13 31 3c 0a f2 8e 3e f3 f2 ba 3c
       -0.18869281 0.010807912 0.27919036 0.022820925
000380 10 08 86 3e e2 e8 ca 3e 79 4d c7 bd 8e d4 c0 3d
       0.26178026 0.396308 -0.097315736 0.094155416
000390 96 7e 6b 3d cd 78 30 3e b9 c3 f2 3d a8 21 a9 3e
       0.05749377 0.17233582 0.118537374 0.3303349
0003a0 bf f5 f7 be d4 22 38 3e 42 ff 75 be b3 40 eb 3e
       -0.48429677 0.17982036 -0.24023154 0.459478
0003b0 e1 f3 78 3e 0a 0b a8 3d 2a d5 93 3e 74 5e 61 3d
       0.24311782 0.082052305 0.2887357 0.05502172
0003c0 eb a0 b6 be 5b 8b d0 3e 01 44 d3 be f0 78 2d 3d
       -0.35669646 0.4073132 -0.4126282 0.042351663
0003d0 ed f4 ea be 32 e5 c4 3d 21 7e 23 bd fd e8 4b be
       -0.4588999 0.09614028 -0.039915208 -0.19913097
0003e0 9e 99 d7 3d 03 6b 8a be 58 b6 fd 3c b4 c9 96 be
       0.10527347 -0.27034768 0.030970737 -0.29450762
0003f0 ee b6 65 bd b0 ab 18 be c8 bf 59 3e 33 bb ce be
       -0.05608266 -0.14909244 0.21264565 -0.40377197

lstm.bias_ih_l0 f4 [128]
000000 02 f6 75 3e 35 49 a0 3e b7 34 62 bb 43 2e 58 3e
       0.24019626 0.31305853 -0.0034516284 0.21111397
000010 ee e4 4b 3d c9 30 f5 3d 80 ff 11 3e dd 8b ba 3e
       0.04977887 0.11972196 0.14257622 0.36434832
000020 49 32 2c be c1 e7 d4 3d 10 19 3d 3e 9b 8c 33 3e
       -0.16816057 0.10395766 0.18466592 0.17534105
000030 0b f6 15 3f 37 3e d3 3d 51 23 71 3e 48 8d 7f 3c
       0.58578557 0.10314601 0.23548628 0.015597649
000040 ac d6 93 3e ec 58 a3 3c 2c e8 22 3e 13 03 73 3c
       0.2887472 0.019939862 0.15908879 0.014832276
000050 eb 35 63 3a 8d 26 ac 3d b8 65 1c 3e 59 ab 47 3d
       0.0008667397 0.084057905 0.15273178 0.048747394
000060 59 49 b0 3c 27 bd 1f 3e 68 7f 21 3c f7 8c 22 3d
       0.02151935 0.155995 0.009857036 0.039685216
000070 31 73 27 3e fa 86 12 3e 20 0a aa 3e e6 fb 0b 3e
       0.16352536 0.14309302 0.3321085 0.1367031
000080 96 df 23 be 73 ce 59 3d 03 51 27 3e ec 19 e6 3d
       -0.1600326 0.0531754 0.16339497 0.11235413
000090 ce fb f7 3d 59 e4 9d bd 45 ae 5f 3e 78 dd 42 3e
       0.12108575 -0.077095695 0.21843822 0.19029796
0000a0 43 96 61 bc d7 14 6a 3e 7a 43 81 3e 04 e4 3d 3d
       -0.013768735 0.22859512 0.25246793 0.04636003
0000b0 da b1 3b 3b 77 12 6c bd 60 79 0a 3e 6c 2b b4 bc
       0.0028639943 -0.057634797 0.13522863 -0.021993361
0000c0 6a 35 52 3c fd 1d 8f 3d 59 43 4a be 24 d3 d1 3d
       0.012830118 0.06988142 -0.19752254 0.1024535
0000d0 3e dc fc 3d 23 d4 40 be a3 ac e3 3d ba 4e e7 3d
       0.12346695 -0.18830924 0.11116912 0.11294313
0000e0 b1 cc 69 3e b2 e6 b7 bd bf e5 3c 3e 9d 96 ec 3d
       0.2283199 -0.089795485 0.18447016 0.11552165
0000f0 48 de 4a bd 00 b9 ff bd 2f 70 f9 3d c4 71 53 3e
       -0.04952839 -0.12486458 0.121796004 0.20648867
000100 75 3c 9e 3d 68 29 0d 3e 57 4d 49 be f0 f5 b3 bd
       0.07726375 0.13785326 -0.19658409 -0.08787143
000110 5f c4 14 3e ca 3b 78 3e b8 e5 63 bd a5 d1 a9 3d
       0.14528035 0.24241558 -0.055639 0.0829194
000120 6e ed 20 3e bc cc 55 3e c7 ee 1c be 54 8c f4 bd
       0.15715572 0.20878881 -0.15325461 -0.11940828
000130 9d aa 28 be 79 26 c9 bd 09 a9 ff 3d 8d 6f 80 bd
       -0.16471334 -0.09821791 0.12483413 -0.062712766
000140 0f 28 ff bd 96 ec 43 3e 5d 75 ba 3d 0a 37 27 bc
       -0.124588124 0.19133219 0.091044165 -0.010205993
000150 f8 04 9c bd 28 ba 4b 3d fb 49 04 be a9 9b eb bc
       -0.07618135 0.04973808 -0.12918846 -0.028760748
000160 4c 7a bd bc 3a f6 ae bd bd cf 42 be 94 5e 15 3e
       -0.023129605 -0.08543058 -0.19024558 0.1458686
000170 31 65 53 bd f5 35 7f bd fb 0b 7e bd 8c 86 12 be
       -0.051610176 -0.062307317 -0.062023144 -0.14309138
000180 36 45 17 3f 88 e8 aa 3e 89 f0 98 3e 81 7c a7 3e
       0.5908998 0.33380532 0.29871014 0.32712176
000190 cf 1d 5b 3d da 09 d0 3e 40 40 58 3c 86 01 37 3e
       0.053495225 0.40632516 0.013198912 0.17871675
0001a0 26 60 95 3d 29 39 f4 bb 18 f4 fe 3d 19 e6 bf 3d
       0.072937295 -0.007453103 0.12448901 0.093700595
0001b0 85 11 ec 3e 10 52 81 3e 1a a3 82 3d f4 26 5c 3d
       0.46107116 0.2525792 0.063787654 0.053748086
0001c0 dc ba 50 3d 28 37 81 3e 9b 4b c0 3e 63 89 80 bc
       0.050959453 0.25237393 0.37557682 -0.015690511
0001d0 e6 72 e8 bc a6 2f 1a 3e 56 fe 06 3e 64 3b 3a 3e
       -0.0283751 0.15057239 0.13182959 0.18186718
0001e0 22 f7 3b 3e 62 ef ef 3d 4e 70 e9 3d 3f 38 98 3d
       0.18355992 0.117155805 0.113983735 0.07432603
0001f0 b6 8a 57 3e e3 68 f7 3e 3e 59 36 3f 16 f9 49 3d
       0.21049008 0.4832221 0.7122992 0.049309812

lstm.bias_hh_l0 f4 [128]
000000 fc c4 bb 3e 99 6c 94 3e 38 46 ef 3d 41 7e 73 3e
       0.36673725 0.28989103 0.11683315 0.23778631
000010 95 cb 3d 3e b6 2e 90 3e ce a8 9c bc f9 1c c7 3e
       0.18534692 0.28160638 -0.019123461 0.38889292
000020 ae 98 99 3d 9b b1 98 3c d2 47 91 3e 67 21 5c 3e
       0.074998245 0.018639376 0.28375107 0.21497117
000030 8f 86 27 3f 89 cf 12 3d 0f 63 66 3c 4d e8 2a 3e
       0.65439695 0.035842452 0.014061703 0.16690178
000040 48 a2 d2 3e fb 9c 48 bc 0a e7 d0 3e ac c8 1d 3e
       0.41139436 -0.012244458 0.4080127 0.15408581
000050 c2 a4 5c 3e 88 53 67 3d 49 49 bd 3d 87 91 8e 3e
       0.21547225 0.056476146 0.09242494 0.27845404
000060 a7 cc 4a 3e 0f d5 0e 3e 79 59 b8 bc 13 57 dc 3d
       0.19804631 0.13948463 -0.022503601 0.107587956
000070 cb 0f 40 3e 95 7f 98 3e 61 fc 0f 3f 2d 18 82 3e
       0.18756025 0.29784837 0.56244475 0.2540907
000080 4e ca 35 be 9b 66 9c 3d ad 12 1d 3e 0c c7 d3 3c
       -0.17752954 0.07636758 0.15339155 0.025851749
000090 b8 5e cc 3d 32 0a 65 3e 53 82 25 3e 24 13 40 3e
       0.09979004 0.2236717 0.16162996 0.18757302
0000a0 96 05 11 3e e7 db 31 bd 5b 0c 07 3d 1a 2c 25 3e
       0.14162287 -0.043422606 0.032970767 0.16130105
0000b0 d6 f0 f4 bd fd fa e9 3b 27 b2 b4 3d 46 36 a8 bc
       -0.11959998 0.007140516 0.08823042 -0.020533692
0000c0 f3 64 93 3d 48 51 3b bc f8 df b9 bd f7 c9 32 3e
       0.07196989 -0.011432953 -0.09075922 0.17459856
0000d0 70 35 cc 3d ce 0f d1 bd 85 d5 c6 3d 41 c8 a8 bc
       0.0997113 -0.10208093 0.09708694 -0.020603301
0000e0 bd 77 42 3e f8 5b b5 3d 66 5a ad 3d f5 83 29 3e
       0.18990989 0.08855432 0.08464508 0.16554244
0000f0 7a ba 36 3c cf d9 b1 bc 24 07 27 3e 40 a0 28 3e
       0.011152858 -0.021710305 0.16311318 0.1646738
000100 10 ac de bb 5f 1f 43 3d ea 20 00 be f8 63 86 3d
       -0.006795414 0.04763734 -0.12512556 0.06562036
000110 e7 b3 05 be b8 e9 30 3e 08 f6 06 3e ef f5 94 bd
       -0.13056909 0.17276657 0.13179791 -0.072734706
000120 ca 72 02 be 36 4f 68 3e 01 46 24 be e0 b3 80 3d
       -0.12739101 0.22686467 -0.1604233 0.062843084
000130 e2 8d 4d 3d 0f 72 e5 bd f2 40 17 bd f2 35 09 be
       0.050184138 -0.112033956 -0.03692717 -0.13399485
000140 f4 75 28 3e b5 89 8e bd ca 78 28 3d e9 8d 0d be
       0.16451246 -0.06959859 0.04113082 -0.13823666
000150 ca 89 1f 3e bc e9 ff 3b 61 75 2b 3e e2 69 4a be
       0.15579906 0.0078098457 0.16743995 -0.19766954
000160 9b 3b 6d 3d e2 e6 2f be 0d 6b 97 3d c6 f8 80 3d
       0.057918172 -0.17177919 0.07393465 0.0629745
000170 b0 8d b9 3d cb cd bf 3d 7d a7 8b be 1a b0 8e 3d
       0.09060228 0.09365424 -0.2727622 0.069671825
000180 60 e4 b3 3e 43 6c 84 3e ac 88 e0 3d 3f 17 a2 3e
       0.35135174 0.25863847 0.10963568 0.3165836
000190 c3 b6 53 3e 68 73 19 3f b1 b2 18 3e 7a f0 6f 3e
       0.20675187 0.5994172 0.14911915 0.23431578
0001a0 b6 f4 51 3e 8a 48 d5 bd 23 a9 9c 3d ec 56 09 3d
       0.20503506 -0.10414226 0.07649448 0.03353016
0001b0 1d a8 12 3f 39 8c 4f 3e 73 b1 5c 3e bf e4 a8 3d
       0.5728777 0.20268334 0.21552067 0.08246755
0001c0 6a 7c 77 3b a6 4c 1d 3e 61 78 bb 3e 30 55 6f 3e
       0.0037763366 0.1536127 0.3661528 0.2337234
0001d0 4d 0a 89 3e 18 bb 72 bc 9b f4 8e 3e 87 4d 86 3e
       0.2676567 -0.014815114 0.27920994 0.26231024
0001e0 e6 fd 1f 3e ac 67 4b 3e de 12 80 3e af 4c 7f 3e
       0.15624198 0.19863766 0.25014395 0.24931596
0001f0 5a 8e 6d 3d 9b 65 cf 3e 62 c4 3b 3f 27 1d 15 3e
       0.057997085 0.40507206 0.7334653 0.14561902

lstm.weight_ih_l0_reverse f4 [128, 9]
000000 36 87 39 be e6 34 54 3f 0c 8f 53 be 66 51 24 bd
       -0.18117985 0.82893217 -0.20660037 -0.04011669
000010 35 a4 d0 3d 4d e6 0d 3e af 36 93 be 7b d8 13 bf
       0.1018757 0.13857384 -0.28752658 -0.577522
000020 d8 46 3c bc 68 c0 a9 3e 76 21 bc 3d 74 6e 3e bd
       -0.0114915 0.33154607 0.0918607 -0.046492055
000030 6d 64 e1 3e 6a 90 b5 3e ee f4 83 be 64 f6 d6 3e
       0.4402193 0.35461742 -0.25772804 0.41984856
000040 c7 4a 00 3e 03 48 c8 3e e7 10 38 3e d6 80 49 3d
       0.12528525 0.3911744 0.17975198 0.049195133
000050 bd a5 d2 be 7d 94 2c 3f e6 f5 03 bf 4f 47 9d 3e
       -0.41142073 0.67414075 -0.51547086 0.30718467
000060 be 40 5c be e5 22 35 be 0f 2a 8c 3c 43 dc 90 3e
       -0.21509072 -0.17689092 0.017109899 0.28293046
000070 0f d5 7e be 46 f5 d8 3d 0b b0 ed 3d 89 94 3c 3e
       -0.24885963 0.10593657 0.11605843 0.18416037
000080 61 d8 4b be fc 5e 9a bc 33 85 5b 3d 34 fd d0 be
       -0.19906761 -0.01884412 0.053593826 -0.4081818
000090 bf f9 97 3e b6 fe d6 3d c3 fc af 3e f3 b3 fa 3b
       0.2968273 0.10497801 0.3437253 0.007650846
0000a0 3d 65 16 bd 85 91 64 bd 9a fd 6a 3e 58 de cd 3e
       -0.036717642 -0.05580284 0.22948304 0.40208697
0000b0 e8 2f 7e 3d 1c 76 f1 3c b0 9d 1b bf 60 a9 7f be
       0.062057406 0.029475264 -0.6078749 -0.24966955
0000c0 91 56 fd 3d 40 70 ad 3c 19 5b a6 3d 8a 8d ce 3b
       0.12370027 0.021171689 0.08122844 0.006303494
0000d0 af b8 74 3e f9 6e a9 bc 0c 4f 9f be 1d c8 96 3d
       0.23898576 -0.020682799 -0.31114995 0.07362387
0000e0 22 6c e4 3d d9 32 a0 3d 1f 88 cf 3e 4f dd bf bd
       0.11153437 0.078221984 0.4053354 -0.09368383
0000f0 bf d6 21 3e e5 13 2f 3e 04 89 63 3d 85 2a aa be
       0.15804575 0.17097433 0.05555059 -0.33235565
000100 74 f5 ac bd 95 68 89 be 1d f2 89 be 7d 02 8e bb
       -0.08445254 -0.26837602 -0.2694253 -0.0043337927
000110 60 3f 23 3e 94 b7 9f be 9d 51 a1 3c be fb 0d 3d
       0.15942144 -0.31194746 0.019692237 0.03466391
000120 87 42 55 3e fe 5a 83 be 78 d9 66 3d 29 a1 19 be
       0.2082616 -0.2565536 0.056359738 -0.15002884
000130 dd 8e 90 3e 1e b5 1f 3e ca 9a 3f 3e 4d 6c 29 be
       0.28233996 0.15596434 0.18711391 -0.1654522
000140 af 06 0b 3f cf ff 65 be 71 60 7d be a9 de 4e bc
       0.54307073 -0.22460864 -0.2474382 -0.0126263285
000150 7f ad f8 bc b1 7c e9 3d 3b 3d e1 bb 3d 40 aa 3e
       -0.030356167 0.11400736 -0.0068737543 0.33252135
000160 11 f0 29 3e 82 75 ea bc e5 c7 9f 3e 35 55 f1 bd
       0.16595484 -0.028620485 0.31207195 -0.1178383
000170 09 47 02 3f d8 e7 ab 3e 45 b9 0d 3f 50 a0 df 3e
       0.5088964 0.3357532 0.55360824 0.43676996
000180 03 c0 11 3e 72 db c6 3d 3c a9 54 bd f5 25 a9 be
       0.14233403 0.097098246 -0.051919207 -0.3303677
000190 60 23 4b bf 7b 30 e1 bd 6b d1 dd be ba 4e bb be
       -0.7935085 -0.10995575 -0.43323836 -0.365835
0001a0 aa 7f 99 be 39 db ee 3c 74 e9 19 be fe 5e b3 3e
       -0.29980212 0.029157268 -0.15030462 0.3503341
0001b0 68 c8 9d be 05 60 5d 3e df 7b f2 bd 0a a7 82 be
       -0.3081696 0.2161866 -0.11840033 -0.25518066
0001c0 00 d7 7d bf 27 86 24 be 24 4b 17 be 9c 75 17 3e
       -0.9915619 -0.160668 -0.14774758 0.14790958
0001d0 33 a7 20 3b 80 e3 c8 bd 91 29 93 3e 73 8c 83 bd
       0.002451372 -0.09809017 0.2874265 -0.06423273
0001e0 fb c2 9c bd 2f f7 54 bd c0 3f 45 bd db 63 23 3f
       -0.07654377 -0.051993545 -0.0481565 0.6382424
0001f0 d5 c3 04 3e 01 c5 5f 3e 10 00 0a 3e e4 c1 2e 3e
       0.12965329 0.21852495 0.13476586 0.17066151
000200 db 50 c6 3e 8f 74 65 3d ec ef 0b bd 15 22 09 3e
       0.38733563 0.056019362 -0.034164354 0.13391908
000210 91 59 16 3e 1c cd e1 3e 53 b5 80 bc 87 7b 0f be
       0.14682604 0.441018 -0.015711462 -0.14011966
000220 ff ff 5b bf b9 0b 8f 3e 0f fd 8b bd 0d 58 82 be
       -0.85937494 0.2793863 -0.068353765 -0.25457802
000230 b7 c9 19 be 37 99 71 be b6 41 12 3e 7a 75 7d be
       -0.15018354 -0.23593603 0.14282879 -0.24751845
000240 71 20 72 3d e4 bc 5a 3e eb 5e 59 be 65 eb 72 3d
       0.05911297 0.21361119 -0.21227615 0.05930652
000250 7d 6d 94 be 8a 3c 92 3e 9f 0e 9b 3e 2c 24 02 3f
       -0.28989783 0.28561813 0.30284593 0.50836444
000260 ab 23 2c bd 85 4f 15 bd c4 ab 07 be 92 d1 51 3e
       -0.042026203 -0.03645279 -0.13249117 0.20490101
000270 d7 1f 25 3e ab 6c 92 3e 39 88 37 be 71 c6 03 3e
       0.16125427 0.28598532 -0.17923059 0.12868668
000280 c3 95 47 3d 68 8f e9 be 85 c3 a3 3e f8 db 87 3e
       0.04872681 -0.45617223 0.31985107 0.2653501
000290 29 d4 70 be b5 d2 de bc 1d ca 31 3e 9d 98 80 be
       -0.23518433 -0.027200082 0.17362256 -0.25116435
0002a0 6f 1d e0 3e 73 f3 3f be 61 d4 95 3e f9 6a 4e 3d
       0.43772456 -0.18745212 0.29263595 0.050394986
0002b0 2c ca 21 bd d1 9e 9d 3e 46 bc a0 3d e4 fa d6 3e
       -0.039499447 0.3078523 0.0784841 0.4198829
0002c0 94 54 f3 3d 4e bf fa 3d a6 61 cd be d0 f2 eb 3d
       0.11881366 0.1224352 -0.40113562 0.11520922
0002d0 c7 c6 ce bd 92 3f 7f 3e 87 18 6f 3e 64 69 e6 3d
       -0.100965075 0.24926594 0.233492 0.112505704
0002e0 74 e6 81 3c b9 15 8d 3e e4 0a ad be 83 29 5c 3d
       0.015856959 0.27555636 -0.3379737 0.053750526
0002f0 54 af 6d 3e 16 c5 8c be fc f6 a2 be b7 8b 7b be
       0.23211414 -0.27494115 -0.3182906 -0.24565016
000300 3d 1b 18 3e 5a 9c 6f bc c4 e2 b5 3e 97 11 64 bd
       0.1485414 -0.014624679 0.3552457 -0.055680837
000310 88 f1 52 be 2e 00 ca bd 9e 4e ae 3d 4a 25 0e bf
       -0.2059995 -0.098633155 0.08511089 -0.5552565
000320 44 d7 e0 bd b5 b1 19 3d 54 59 48 3e 16 cd fe bc
       -0.10978559 0.03752299 0.19565326 -0.031103652
000330 58 0c 58 be 6e 1d b7 be c4 29 76 be 0f 41 c9 bc
       -0.21098459 -0.3576464 -0.2403937 -0.024567155
000340 6a d9 64 3c b8 52 14 be 7b 2f c1 be 05 13 9d be
       0.013967851 -0.1448468 -0.37731537 -0.30678573
000350 f0 a0 34 3e ca b7 fa bd eb 74 c5 3d 91 59 8b be
       0.17639518 -0.12242086 0.09641441 -0.2721677
000360 14 63 62 be 0b 8a 44 be 56 a0 12 bd d0 44 48 be
       -0.22108108 -0.19193284 -0.03579744 -0.195575
000370 c5 8c 8b be d4 c6 e5 bd 73 ab 16 3c aa 82 9e be
       -0.27255836 -0.11219564 0.00919615 -0.30959064
000380 35 94 73 3e 9a 35 dd 3e f1 d1 3e 3f c9 66 bf 3e
       0.23787005 0.43204957 0.74539095 0.37383106
000390 6e b6 bb 3e b6 60 f6 3e 8c 54 e2 3e 8d 38 07 3f
       0.3666262 0.4812066 0.4420513 0.52820665
0003a0 28 9d b0 bd a8 89 11 3c cb a7 f2 be c6 2a 8c 3d
       -0.08623725 0.008882917 -0.4739364 0.06844096
0003b0 c0 29 af bd 6f 03 30 be e0 b7 71 bd d5 e9 c4 bd
       -0.08552885 -0.1718881 -0.059013247 -0.096149124
0003c0 44 87 86 3d de ad 13 be 87 35 0b 3f 9a 41 1c 3e
       0.065687686 -0.14421794 0.5437855 0.152594
0003d0 b8 89 d5 3e c1 d3 87 bd 17 b3 23 3d 9e 23 d1 be
       0.41706634 -0.06632186 0.039965715 -0.40847486
0003e0 78 57 4b 3e a6 8a 9f 3d c0 eb 95 3d 99 d7 9f be
       0.19857585 0.07790117 0.07320356 -0.31219175
0003f0 20 3f 3b be 8e bc b8 be 06 49 10 be 26 20 1d 3d
       -0.18285799 -0.36081356 -0.14090356 0.038360737

lstm.weight_hh_l0_reverse f4 [128, 32]
000000 bd 29 a1 3c 5d a0 a2 3e 42 51 83 3e b8 72 8a be
       0.019673223 0.31762972 0.25647932 -0.27040648
000010 7c aa 85 3c 3d 86 69 bc de 20 1f bf d4 a1 ab 3e
       0.016316645 -0.014253196 -0.62159526 0.33521903
000020 b8 02 e9 3e 9d bb bd be 48 f7 09 3f 9c 57 87 be
       0.45509887 -0.370572 0.53892946 -0.26434028
000030 64 65 72 be 73 e2 a7 bd 75 c1 31 be ec 67 83 be
       -0.2367149 -0.08197489 -0.17358954 -0.25665224
000040 d0 17 d6 3e 32 64 d1 bd d3 fc b4 bd ce 93 83 3e
       0.41815042 -0.10224189 -0.08837285 0.25698704
000050 34 77 ee be c4 c4 23 3d 31 28 2e bd 97 2d cf 3e
       -0.4657532 0.039982572 -0.0425188 0.4046447
000060 fa bf 3d be 03 c4 9d bd c6 2e 22 bd 43 32 d3 bd
       -0.18530264 -0.07703402 -0.039595388 -0.10312321
000070 29 81 ba 37 11 15 c5 be c9 99 e5 bd 2c ca 14 3f
       2.2233073e-05 -0.38492635 -0.11210973 0.5812099
000080 79 05 00 be af a8 f5 3d d4 28 5a 3e 9a c6 92 be
       -0.12502088 0.119950645 0.21304637 -0.28667146
000090 80 2b 80 be 4d 43 58 3d 0c 50 81 3e cc 98 18 3e
       -0.25033188 0.052798558 0.25256383 0.14902037
0000a0 97 a2 ff 3d ad bd e7 bd c9 60 70 3e bb f1 02 3e
       0.124821834 -0.11315475 0.2347442 0.12787525
0000b0 4e 70 33 3d 3d c0 0c 3e 3b 1c 46 3d 94 27 0a be
       0.043808274 0.13745208 0.048366766 -0.1349166
0000c0 96 28 8e 3e a5 ed 0f be 06 21 96 3c 09 60 f4 3d
       0.2776534 -0.14055498 0.018326294 0.1193238
0000d0 e8 8c 0e bb fb 40 b0 3d 53 cc 0e 3e f2 e6 bc 3d
       -0.0021751467 0.08606144 0.13945131 0.09223737
0000e0 d4 c0 90 3e bb 69 a1 3e 6e 93 8a 3e cc 54 22 be
       0.28272116 0.31525978 0.27065605 -0.1585266
0000f0 50 ed 84 bd 0f 8c 50 bd 72 84 81 3d ba 14 75 3e
       -0.06490576 -0.05091482 0.0632409 0.23933688
000100 86 7e 41 3d fd 17 c7 bd b6 b3 a1 be bd ff 8b bd
       0.047239803 -0.09721372 -0.3158242 -0.068358876
000110 e4 af 2e 3e d4 83 95 3c 88 95 50 3e d6 b3 ae 3e
       0.17059284 0.018251337 0.20369542 0.3412158
000120 b5 ce e3 3d a3 48 a0 3c c7 16 71 bd c8 7f 85 bd
       0.111234106 0.019565886 -0.058859613 -0.06518513
000130 3a 03 4d bd 3c 69 79 3d e9 be 94 be 30 f3 b7 3d
       -0.050051905 0.060891375 -0.29051903 0.08981931
000140 9b a7 24 bd 3d ae ef be 2f 7c a6 3e be f4 b4 bc
       -0.040198904 -0.4681262 0.3251662 -0.022089358
000150 37 d3 18 3e 35 fb 70 be 24 5a 0e 3e 65 21 54 be
       0.14924322 -0.23533328 0.13901573 -0.20715864
000160 61 8b 38 bd e8 c9 55 3e 3e 89 03 3e 14 4a 8a 3d
       -0.045054797 0.20877802 0.12845322 0.067524105
000170 aa ad e2 bc 55 42 b9 be de 06 11 3e 64 39 9e 3d
       -0.0276707 -0.3618342 0.14162776 0.0772579
000180 07 f3 80 be df ad dc 3e 7b fd 14 3f c9 20 b8 bc
       -0.25185415 0.43101403 0.5819928 -0.02247657
000190 5d 44 15 be 64 df 23 3e c6 e6 b0 be fb a1 d1 3e
       -0.1457686 0.16003186 -0.34551066 0.40943894
0001a0 1c c9 bc 3d 6c 3b dc 3e d1 3d af be 8b e6 1a 3d
       0.09218046 0.43014085 -0.3422685 0.03781752
0001b0 2d ce 8b 3c 17 2d 9c 3e eb 6a 29 bf b3 bd 52 be
       0.017066086 0.3050315 -0.6617877 -0.20580177
0001c0 ad db 9a 3e ef 1c ca bd 88 37 60 3b 12 9b 08 3d
       0.30245724 -0.098688 0.0034212787 0.03335101
0001d0 20 04 29 bf 1b f9 e9 bd 88 f9 ba bd 17 2d c1 3e
       -0.6602192 -0.11424466 -0.091296256 0.37729713
0001e0 f0 37 dc 3e a5 fc 4b bd 99 b0 9f be fa 16 c0 be
       0.43011427 -0.049801487 -0.3118942 -0.3751753
0001f0 3b f5 f0 3e bd 35 68 be 8e c3 9d be 71 48 c9 3e
       0.47062096 -0.2267675 -0.3081326 0.3931308
000200 58 3d dd be d9 52 85 3e 75 78 c3 bd e0 d6 86 bc
       -0.43210864 0.2603977 -0.0954446 -0.016459882
000210 27 39 83 3c 54 7e 1c bd fb 03 a3 bd d4 9d 0f 3e
       0.016018463 -0.038206413 -0.079597436 0.1402505
000220 15 b7 0b bb a1 cd 21 be 97 ac 61 be 55 fa a5 bd
       -0.0021318842 -0.15801097 -0.22038494 -0.08104388
000230 99 c2 4c be d1 f4 c1 3d 26 b2 16 bf 4f 3a 2d be
       -0.19996108 0.09470523 -0.5886558 -0.16916774
000240 8f 6b 0f 3e c6 4e b2 be 21 0c 98 3d da 70 c7 bd
       0.14005874 -0.34825724 0.074241884 -0.097383216
000250 3a dc a3 be da 2f 09 3d 48 8f 28 bf 61 56 18 3f
       -0.32003957 0.0334929 -0.6584363 0.59506804
000260 8b a2 1e 3e 49 71 90 3d 5b cc e8 be c3 6d b6 be
       0.15491693 0.070528574 -0.4546841 -0.35630617
000270 88 65 0d be 4b 42 16 3e 2c 36 1e be 39 d8 bd 3e
       -0.13808262 0.14673726 -0.15450352 0.37079027
000280 61 bc 8b be 7e 9b d7 3d e9 da fc 3d cc 83 95 bc
       -0.2729216 0.10527705 0.12346441 -0.018251322
000290 b9 41 38 be fc be 80 3d 2c 67 5f be ab e3 0f 3e
       -0.17993821 0.062864274 -0.218167 0.14051692
0002a0 34 55 1f bc 4a 21 dd 3c 2d b4 0f be 68 7e 36 3d
       -0.009724904 0.026993413 -0.14033575 0.044554144
0002b0 43 f0 ae bb 43 4e 11 3f 16 a2 9a be 96 6e aa 3d
       -0.0053387 0.5676004 -0.30201787 0.08321874
0002c0 e9 15 99 3e c6 3d c4 be af 96 be 3e 98 6d 41 3e
       0.2989953 -0.3832838 0.37224337 0.18889463
0002d0 23 dd 00 3d 78 2b 9d 3d c7 33 7e bd 1a 29 e7 3e
       0.031460892 0.07674307 -0.062061097 0.45148546
0002e0 72 c1 f8 3e 3a 9a 35 3c 4b b3 64 be e0 23 d1 be
       0.48585087 0.011084134 -0.2233402 -0.40847683
0002f0 7f 03 26 3f 02 a8 1e 3e 31 3c 23 be 9b dd cb 3e
       0.64849085 0.15493777 -0.1594093 0.3981751
000300 e5 16 96 be 2e 30 8b 3e 40 e8 fd 3e 48 ae 3e 3e
       -0.29314342 0.27185196 0.49591255 0.1862117
000310 64 46 c1 be db 58 0e 3f 5f ff 9b be 9c 8d fa 3e
       -0.37749016 0.5560433 -0.3046827 0.48936164
000320 4a 66 cd bd d8 4b c7 3d 1d 73 1d 3d a6 70 aa be
       -0.10029276 0.09731263 0.03843986 -0.3328907
000330 9b 23 34 bf b3 4e 58 3e 32 53 19 bf 6a c2 96 be
       -0.7036683 0.21123771 -0.5989257 -0.294452
000340 45 67 c7 3a f1 a7 af be 78 b9 73 be a5 3c c6 3d
       0.0015213272 -0.34307817 -0.2380122 0.09679536
000350 da 6b 0f be 20 26 37 be 73 ef 7f 3e 33 d2 da 3e
       -0.14005986 -0.17885637 0.24993686 0.42738494
000360 02 12 d6 3e 7a 37 e7 bd 93 7a 00 bf 4d 49 d0 be
       0.41810614 -0.11289878 -0.50187033 -0.40680924
000370 18 14 74 3e 48 8c 5d be 29 8f d2 be 1a bf 15 3f
       0.2383579 -0.21635544 -0.41124848 0.5849472
000380 5e 36 e2 bd e2 89 71 3e 68 8d be 3d e1 2d 4a bc
       -0.11045526 0.23587754 0.09304315 -0.01234004
000390 bf 56 68 be 98 11 cf be cf 5e 87 be b2 43 80 3e
       -0.22689341 -0.4044311 -0.2643952 0.25051647
0003a0 ba da 8e 3d c9 ae 7c 3d e1 76 3a 3e fa d9 4c bd
       0.069753125 0.061690126 0.18209411 -0.050012566
0003b0 1e f6 8d 3a 23 a9 93 bd 34 c4 67 be b7 11 f3 3d
       0.0010830795 -0.07209995 -0.2263344 0.11868613
0003c0 60 3d 48 3e 22 01 4d bd 4d 50 b6 3c c6 6f 81 bd
       0.19554663 -0.05004991 0.022255087 -0.06320147
0003d0 e0 b6 36 be 6e 0a 5e 3b 90 5b 1b 3d a6 3b 2d 3e
       -0.17843199 0.0033880728 0.037929118 0.16917285
0003e0 e1 a2 bf 3c 78 e7 e3 3d c2 b9 d3 bd fe 0a 87 be
       0.023393096 0.111281335 -0.10338165 -0.26375574
0003f0 7b c0 a1 be 41 ec 0c 3e a7 a0 78 3d 3d 42 e1 3d
       -0.31592163 0.13761999 0.060700085 0.10998962

lstm.bias_ih_l0_reverse f4 [128]
000000 c3 fa af 3e 20 c1 0c 3e 84 a7 90 3e 14 3d 39 3f
       0.34371004 0.13745546 0.28252804 0.7235882
000010 e8 85 28 3f c7 19 10 3f 40 d8 06 3f d0 fa f7 3e
       0.65829325 0.56289333 0.5267372 0.48433542
000020 d0 57 5f 3e 65 3e d3 3e 31 e0 a9 3e 4c 66 ac 3e
       0.21810842 0.4125854 0.33178857 0.33671796
000030 27 97 8b 3e 95 ca 9d 3e e5 2b d7 bd aa ae 67 3e
       0.27263758 0.3081862 -0.10506419 0.22625223
000040 49 51 95 3e 04 ea 83 3e 9f 29 cd 3e f9 c0 84 3e
       0.29163578 0.25764477 0.40070817 0.25928476
000050 ba dc e4 3d 21 10 08 3f fa 03 c1 3e b3 09 11 3f
       0.11174913 0.5314961 0.37698346 0.56655425
000060 ce af eb 3d 8d af ae 3e 6e df 19 3f 2a cc 1b 3f
       0.115081415 0.3411831 0.6010655 0.60858405
000070 4a 1b 16 bd 4f 91 1d 3f 5e 6d 25 3f 11 5a 34 3e
       -0.03664712 0.6154985 0.64620006 0.17612483
000080 51 23 ab 3d 19 dd b9 3d 6b c0 bd 3d f4 38 99 3d
       0.083563454 0.09075374 0.092652164 0.07481566
000090 fe f9 7e bd 23 24 ad 3d 24 14 cc 3d ef b3 a3 3d
       -0.06225013 0.08454158 0.09964779 0.07993304
0000a0 8e 04 52 bd 22 07 a4 3d 88 40 e2 3d 75 e4 a5 bd
       -0.051273875 0.08009173 0.110474646 -0.08100215
0000b0 5f 68 13 3e 26 e7 3c 3e 0e 2c 79 3e 09 1f 8d bd
       0.14395283 0.18447551 0.24333212 -0.06890685
0000c0 ca f1 53 3d 09 d1 74 3d b3 e3 21 3d c6 f1 86 3d
       0.05174426 0.059769664 0.03952379 0.065890834
0000d0 fe 24 77 3d 2f d0 41 3e b4 ef 15 bd d7 12 34 bd
       0.060338013 0.18927072 -0.03660555 -0.04396328
0000e0 dc a2 b9 3d 01 a0 17 3d 9f 7e 85 3e 86 66 7d 3e
       0.09064266 0.037017826 0.26073167 0.24746141
0000f0 89 85 49 be 70 3f 48 3d e9 33 3c 3e 7c dc d2 3d
       -0.19679846 0.048888624 0.18379177 0.1029596
000100 c8 0c 8d be e6 3a e6 bd e2 8c 1a 3e bc 08 c9 bd
       -0.27548814 -0.11241703 0.15092805 -0.09816119
000110 8e 1e 73 3e ff e1 e1 bc 96 81 9f 3d d2 38 9a 3e
       0.23742124 -0.027573584 0.077883884 0.30121475
000120 9d c2 62 bd 07 66 75 be 90 c9 09 3e af 8f 4f be
       -0.05536138 -0.23964702 0.13455796 -0.20269655
000130 84 9c 6c be 79 a9 22 bd 1c 63 55 be 2f ed 27 3e
       -0.23106581 -0.039712403 -0.20838588 0.16399072
000140 68 88 98 3d 9c 10 bb 3d d0 34 14 3d 3e 8c 79 3c
       0.074478924 0.09134027 0.03618318 0.01523119
000150 05 64 38 be a0 59 e0 bd 21 63 a7 3d e4 af 31 3e
       -0.18006904 -0.109545946 0.08173204 0.17352253
000160 79 d6 f2 bd 79 a3 07 3e c6 fa 20 be 89 1f 9a bc
       -0.11857314 0.13245954 -0.15720662 -0.018813865
000170 91 59 a7 3c 72 f3 00 be 14 22 c1 bc 75 df 54 3e
       0.02042845 -0.12592867 -0.02357582 0.20788367
000180 d9 34 90 3c 39 ee 89 3e 11 8f 18 3e 37 b8 57 3e
       0.017603325 0.26939562 0.14898326 0.21066366
000190 ab f7 29 3e dd 9d 3c 3e 07 b9 db 3e e2 e4 c7 3d
       0.16598384 0.18419595 0.42914602 0.09760453
0001a0 ea b3 9a 3d d9 92 26 3e 9f 09 82 3e c7 23 27 3e
       0.07553847 0.16266955 0.25397965 0.16322242
0001b0 ba 80 1c 3e b6 ca d1 3d 35 79 f6 3d cd 17 6b 3e
       0.1528348 0.10243742 0.12034837 0.22958298
0001c0 6f 25 ee 3d 56 50 4f 3e c6 88 30 3e c6 f5 08 be
       0.11628234 0.2024549 0.17239675 -0.13375005
0001d0 18 87 55 3e 3d 13 d1 3d 04 7c c2 3e ba 9a 4f 3e
       0.20852315 0.102087475 0.3798524 0.20273867
0001e0 23 23 8f 3d cf 03 76 bb d7 1d 07 be b7 c2 3d 3e
       0.06989124 -0.0037538891 -0.13194977 0.18531309
0001f0 c6 aa 06 3e dd 15 a8 3e df a9 19 3e e3 a1 c0 3e
       0.13151082 0.3282918 0.15006207 0.3762351

lstm.bias_hh_l0_reverse f4 [128]
000000 0f 5c b4 3e 9a bf 19 3e 88 8e d1 3e b8 52 23 3f
       0.35226485 0.15014496 0.40929055 0.63798094
000010 e6 dc 2a 3f 91 fa 44 3f 5a 5d 11 3f 63 11 3c 3e
       0.66743314 0.76944834 0.5678307 0.18366008
000020 30 e8 77 3e 9d 5e 9d 3e 22 90 66 3e 6c 5a fa 3d
       0.24209666 0.30736247 0.2251592 0.12224278
000030 33 c2 06 3e 57 b5 25 3f 5b a9 97 bd 7c b6 d9 3e
       0.13160019 0.6472983 -0.07405349 0.42522037
000040 8c 3b 54 3e 20 b3 ee 3e 4e c3 3b 3e 67 17 87 3e
       0.2072584 0.46621037 0.18336222 0.26385042
000050 73 ac 9e 3e 9f 5d 0a 3f 4a 7c ec 3e d5 15 91 3e
       0.30990943 0.54049104 0.46188575 0.2833697
000060 ee 20 ab 3d e7 23 c2 3d 3c da 1b 3f d9 d3 e3 3e
       0.0835589 0.09479504 0.60879874 0.44497564
000070 99 1d f5 3c 9b fc 5c 3f 18 2c 34 3f cd 17 60 3e
       0.02992134 0.86322945 0.7037978 0.2188408
000080 26 c4 7e bc 20 09 ea 3c 1c e1 49 bd 8d d3 ad 3b
       -0.015549695 0.028568804 -0.049286947 0.00530476
000090 1d a5 24 3e 6e 03 51 3d 66 a3 0a 3e 53 d0 c3 3e
       0.1607861 0.05102866 0.13538894 0.38244876
0000a0 75 df b8 bd 19 ce 3c 3c 96 61 e7 3d dc 45 25 3e
       -0.09026996 0.011523747 0.1129791 0.1613993
0000b0 7b 59 1e 3e b4 52 d6 3c 28 9f 2b 3e 99 4c 69 3e
       0.15463822 0.026162483 0.16759932 0.22783126
0000c0 ec 1f 5d 3e 85 76 42 3e 4e d3 ac bd 76 a4 36 3e
       0.21594208 0.18990524 -0.08438741 0.17836174
0000d0 6e 08 8c bd 6d 93 21 bd 4a 45 18 3e 11 a4 0b 3e
       -0.06837545 -0.039447237 0.14870182 0.13636805
0000e0 8f 97 56 3e 9c 09 9e 3e 18 9b 52 3e bb 06 39 3e
       0.20956253 0.30866706 0.20566976 0.18068974
0000f0 7c 0e 42 bb f6 d7 34 be 45 69 f9 3d b0 71 13 3e
       -0.0029610684 -0.17660508 0.12178282 0.14398837
000100 50 d8 38 be ca 80 99 bd 6b 2d b3 3d fa 4f ac 3d
       -0.18051267 -0.07495268 0.08748897 0.08413692
000110 9d ed 88 3c 30 13 af bc cc 0c db bd 2c 9e 0d bc
       0.016714865 -0.021371454 -0.106958 -0.008643668
000120 c8 3a 0a 3e b9 b8 2b 3d f0 21 12 bd ff e0 80 be
       0.13498986 0.041924212 -0.035676897 -0.25171658
000130 a5 d3 65 3d e7 aa 42 3d 02 17 31 be 24 df cb bd
       0.056110043 0.047526266 -0.17293933 -0.0995467
000140 84 fe 64 3d 71 7f 1f be 9a 81 93 3d 2a ed 2d 3e
       0.055906788 -0.15575959 0.07202454 0.16985002
000150 4f 15 98 bd 83 f7 32 be 61 be 41 bd 0c 79 86 3c
       -0.07425939 -0.1747723 -0.0473007 0.016415142
000160 88 8b 19 3e 1e 32 4d bd 10 0a 86 be 22 93 0d be
       0.14994633 -0.050096624 -0.26179552 -0.13825658
000170 8c 03 a3 bc 64 ec bc bd 70 fa ca bc 98 cf 9b 3d
       -0.019899152 -0.092247754 -0.024777621 0.07607955
000180 91 f0 6d 3e 0d 9d 9e 3d 36 d3 ac 3d e6 15 cf 3e
       0.232363 0.07744799 0.08438723 0.40446395
000190 51 65 67 3e 85 5d 2b 3e 55 77 1f 3f 12 e5 82 3e
       0.22597243 0.16734894 0.6229146 0.25565392
0001a0 78 b9 95 bd 95 30 52 3e b7 e1 27 3e 99 82 ce 3d
       -0.07310766 0.20526345 0.16394697 0.10083503
0001b0 5c c3 a0 3e 77 b2 bc 3c 81 32 27 3d 0f 16 0d 3f
       0.31399047 0.023034317 0.04081965 0.55111784
0001c0 5f 13 ec 3d 9c 6a 73 3e bc 86 01 3e 66 cd b5 bd
       0.11527132 0.23771137 0.12649053 -0.08877067
0001d0 9a 9d 25 3e 4d 92 8a 3e 90 bb e2 3d 2f 4b a0 3e
       0.16173401 0.27064744 0.11070931 0.3130736
0001e0 40 ec 4a be 31 28 4e 3e 67 4e 00 3e fd a6 7b 3e
       -0.19816685 0.2013252 0.12529908 0.2457542
0001f0 09 65 6a 3e c5 9c 74 3e b7 0e 31 3e ab 3b 88 3e
       0.22890104 0.23887928 0.1729077 0.26608023

lstm.weight_ih_l1 f4 [128, 64]
000000 c1 1b f6 3d 19 97 1d 3e b9 fb 20 be 99 b1 45 bd
       0.120170124 0.1538967 -0.15721025 -0.048265073
000010 6b 04 d8 3e 89 f1 a6 3e 33 6a 40 bd de cc ef 3e
       0.4219087 0.32606152 -0.04697628 0.4683599
000020 b4 f6 d7 3d 7d 93 78 3e 59 97 11 bf 3b 22 64 3d
       0.10545102 0.24275012 -0.56871563 0.055696707
000030 1a 0c 7f be 9e 3d c0 be 09 ca 94 3e f2 81 f7 bd
       -0.2490696 -0.3754701 0.2906039 -0.12085332
000040 b7 67 34 bd c1 91 e9 3d 93 b3 bf bd fe 0d 64 bd
       -0.044044223 0.114047535 -0.09360423 -0.055677406
000050 79 1e 93 3a c1 c5 9f bd 34 f3 1d be b9 54 bf bc
       0.0011224292 -0.078013904 -0.15424806 -0.023355829
000060 01 75 9e bd 56 2a cd bd 74 36 a9 3e ac 4b ca be
       -0.077371605 -0.100178406 0.33049357 -0.39510858
000070 19 99 04 3c 94 01 5a bd c6 cb 69 3d 5f bf 17 be
       0.008093142 -0.05322416 0.0570791 -0.14819096
000080 0b f3 a6 be 8c 73 84 3d 30 49 53 3e b6 59 9a 3e
       -0.32607302 0.06467351 0.20633388 0.3014657
000090 f1 39 08 be bc 21 a6 3c d8 18 6c bd a7 91 6b 3e
       -0.13303353 0.020279758 -0.05764088 0.2300478
0000a0 c9 a1 08 be d5 1f 6d bd 97 a3 83 3e 0b 75 53 bf
       -0.13342966 -0.057891686 0.25710747 -0.8260047
0000b0 73 bc db be ed 0f f2 3c 67 3f 3e be e7 55 8e be
       -0.42917213 0.02954861 -0.18578874 -0.27799913
0000c0 23 1c 2c bd 6e 3c 16 bf 40 50 6f 3e c3 90 dc bc
       -0.04201902 -0.5868596 0.23370457 -0.026924497
0000d0 0d a7 6b bd e5 05 69 3e a7 60 18 3f 91 2b b5 3c
       -0.05753236 0.22756155 0.5952248 0.0221155
0000e0 e1 ef 82 3e 9f 48 31 be a2 4f 38 bf 75 11 89 bd
       0.25573638 -0.17312859 -0.7199651 -0.06692783
0000f0 2d 4d 0e 3f 18 58 82 bc 98 38 2b be ae 78 89 3e
       0.5558651 -0.015911147 -0.16720808 0.26849884
000100 3c 44 dd 3d 86 91 9e 3d f4 07 10 bf 80 72 f5 be
       0.1080403 0.077426 -0.56262136 -0.4793892
000110 52 aa ac 3e ac 8d 85 3e 2b d5 b1 3e 68 91 0f 3f
       0.33723694 0.2608465 0.34732947 0.5608125
000120 d1 dd 7a 3e 11 12 df 3d 2e 10 bd 3d 96 d7 89 3d
       0.24498679 0.10892118 0.09231602 0.06730573
000130 3a 96 17 3d 7a 39 02 be 8c 9d c5 3d 57 31 e8 3d
       0.0370085 -0.12717238 0.0964919 0.11337536
000140 f9 f9 b3 be 68 12 19 3f 92 08 f4 3d 5c cc 07 bf
       -0.35151652 0.5979371 0.11915697 -0.530462
000150 a8 65 1e 3e 9f 97 6d 3e 00 f4 10 be 2d 62 ad 3e
       0.15468466 0.2320237 -0.14155579 0.33863965
000160 2b 18 21 bd 8e 39 12 bf a9 64 a4 3e 0a 75 09 bf
       -0.03932969 -0.5711907 0.32108048 -0.5369421
000170 50 0a cc 3d 1f 09 e6 3d 8b 74 9d 3d 8e 67 ce bd
       0.099629045 0.112322085 0.076882444 -0.10078345
000180 2f 9e 13 be bb 8d 1c 3a e2 24 5f be 1f 17 1a 3e
       -0.14415811 0.0005972047 -0.21791413 0.15047882
000190 8a ec 9e bc 97 e9 87 3e 4d 48 83 3d e3 0e 8a bd
       -0.0193999 0.26545402 0.06410275 -0.06741121
0001a0 7a 77 53 be c9 50 b7 3d 6c 99 93 38 14 b9 10 bf
       -0.20651045 0.089509554 7.038083e-05 -0.56532407
0001b0 8e d2 44 bd c1 fb 37 3d 8f a6 61 bd 14 a8 e9 bd
       -0.048052363 0.044917826 -0.055090483 -0.114090115
0001c0 e0 ec 7e 3e c4 aa a5 be 2b c6 a7 3d 29 84 1f 3e
       0.24895048 -0.32356846 0.081920944 0.15577759
0001d0 c8 50 b0 be 3f 1b 1a be 11 74 86 3d 86 87 05 3e
       -0.3443663 -0.15049456 0.06565107 0.1303998
0001e0 6c 01 f3 3d 57 db 05 be bd f5 b6 be 90 05 43 be
       0.118655056 -0.13071953 -0.35734358 -0.1904509
0001f0 3b fe b0 bd 8a cf 01 3e 37 df f2 be d4 bc aa 3d
       -0.086422406 0.12676826 -0.47435924 0.08336797
000200 1b 2c d7 3e 15 56 07 be 24 c4 90 bd 06 13 33 3d
       0.42025837 -0.13216431 -0.07068661 0.043719314
000210 96 7b be 3e d2 e3 02 3f 7c 92 33 3e 74 99 9b 3e
       0.37203664 0.51128876 0.17536348 0.30390513
000220 ec 2e 10 be 7a a7 84 3e 54 ea cb be c9 67 d9 3d
       -0.140804 0.25909024 -0.39827216 0.106154986
000230 31 23 cf bc fb a9 13 be 1c 86 54 3c 1b 09 13 be
       -0.025285335 -0.14420311 0.012971427 -0.14358942
000240 09 34 ab 3d e9 1e 41 3c 40 e5 09 3a ee 9f 00 be
       0.08359534 0.011787155 0.0005260296 -0.12561008
000250 93 33 11 be a0 4f d6 3e be e0 c6 be fd 84 db be
       -0.1417983 0.41857624 -0.3884334 -0.428749
000260 0c 04 84 3e de dc ab be 37 07 33 3e 0f c4 6a be
       0.25784338 -0.33566946 0.17483221 -0.22926353
000270 7a 89 3b bd 21 72 18 be d1 67 6d be 61 ae 93 bc
       -0.045785405 -0.14887287 -0.23184134 -0.018027486
000280 a3 1d a4 be 95 4a 1f 3e 88 56 21 3f cb 47 95 bd
       -0.3205386 0.15555795 0.6302266 -0.07289084
000290 0e 83 9c 3d 3f 88 1f bd 05 9d 17 be 17 de 0e 3f
       0.07642184 -0.038948294 -0.14805992 0.5580763
0002a0 53 e7 1c 3e 2b 36 c9 3e 27 e5 43 bd ef cb 0f bf
       0.15322618 0.3929914 -0.04782596 -0.5617055
0002b0 8c 4f c6 bd 4e f0 8e 3e dd f1 82 be a7 9b 88 be
       -0.09683141 0.27917713 -0.25575152 -0.26681253
0002c0 41 6f 3a be 61 65 77 3d c5 9c de 3e 58 69 e4 bd
       -0.18206502 0.060399417 0.4347898 -0.11152905
0002d0 35 e0 50 be ae f3 32 3e bf f1 1e 3e 19 4f e7 3d
       -0.20398028 0.17475769 0.15521906 0.112943836
0002e0 f4 e8 92 3e 06 2b b4 bd 61 25 ba be b8 5e d4 bc
       0.28693354 -0.087972686 -0.36356643 -0.025924072
0002f0 b5 29 94 3e f3 b6 b6 be 6f a1 a5 be e6 d1 62 3e
       0.2893807 -0.35686454 -0.32349727 0.22150382
000300 7d 94 d7 3e c0 b3 17 3f 23 70 3a be b1 13 a2 be
       0.42105475 0.5925865 -0.1820684 -0.31655648
000310 84 4b df bc 04 b0 ac bd 4e 52 cd 3e 82 ef c7 3d
       -0.027257688 -0.0843201 0.40101856 0.09762479
000320 59 a5 7d be e8 5c aa 3e 3d 3d b3 bd 03 32 81 3c
       -0.24770106 0.33274007 -0.08751915 0.015770918
000330 d2 df 84 bd 32 7b fe be 74 1c d3 3e f1 1f d9 3d
       -0.06488003 -0.49703366 0.41232646 0.106017955
000340 30 74 49 bd f1 03 22 be 47 94 80 3d fc 34 1c be
       -0.04918307 -0.15821816 0.06278282 -0.15254587
000350 3f 88 a0 be 80 b8 3e 3e cb a7 8f 3e b5 1e f1 bc
       -0.31353948 0.18625069 0.28057703 -0.029433588
000360 82 fd d6 3b 63 33 90 3d c0 8c c9 3c 71 47 02 bf
       0.006560982 0.07041051 0.024603248 -0.5089026
000370 bb 85 57 be 7f 7e fc 3b 6f 50 a1 3d 8d 86 32 be
       -0.21047108 0.007705509 0.078766696 -0.1743414
000380 06 7b a8 bd 3f 49 82 3d 01 e0 11 3d 2d 9a 61 3e
       -0.0822659 0.06361627 0.035614017 0.2203147
000390 24 6a d4 bd 97 3f 40 bd 40 cd 9d be 84 01 12 bd
       -0.10371807 -0.046935644 -0.30820656 -0.035645977
0003a0 53 66 0c 3d 9a eb a1 3e ec 41 03 3e 73 7f ec bd
       0.03427727 0.31625062 0.12818116 -0.115477465
0003b0 2d 0f 83 3e 89 55 d3 3d 74 c1 a3 bb 1d 9e ec bd
       0.25597516 0.10319049 -0.0049974266 -0.11553595
0003c0 07 39 22 3e 0e 4c be bd 63 45 be ba d9 57 83 be
       0.15842067 -0.0929185 -0.0014516528 -0.2565296
0003d0 98 a3 15 bd 24 d5 18 3e 48 58 12 3f 6f d3 1e 3e
       -0.03653297 0.14925057 0.57165956 0.15510343
0003e0 8f c6 86 be cf 38 15 3e 42 64 14 be 61 c3 b3 be
       -0.26323363 0.14572452 -0.1449137 -0.3511
0003f0 c7 81 00 3f c7 22 ca bc 6a 72 bc bc be 7c a6 3e
       0.50198025 -0.024674786 -0.023003776 0.32517046
