trained_models/mNPC_intra_cell_line_model.pth (torch, 103231 bytes, 34 tensors)

lstm.weight_ih_l0 f4 [64, 9]
00000000: 8e39 903e eb20 8abe 991a cb3d 7b0c af3d
00000010: 5226 4abe 82b0 bc3d e987 82bd 2e25 b13e
00000020: b585 ba3e 730c 15bd c255 393e 4d68 41be
00000030: 9b85 ab3d 4d06 053d 1479 ae3d f4b6 86bd
00000040: 5f70 3fbe 4bfa 9fbe aa01 a93e a685 ab3d
00000050: 3203 86be dd44 31be efe1 25be 57ad 023e
00000060: 3561 44bd d895 91be 6de0 cd3e cede c23d
00000070: dbdd d9be 965e 56be 92f0 f4bd 3b18 6a3d
00000080: 63b2 b63e f74b 0dbe 9069 8abd bb85 d0be
00000090: aeae 243e 86b3 c23d 9efa fabd cd63 5fbe
000000a0: f260 503e 3bbb f13d e554 8a3e bac6 f9bd
000000b0: f804 38be 5ac3 b33e ca88 0d3e 5a5c 603e
000000c0: 114d ac3d 0c60 8f3e 719b 4bbe 8702 243b
000000d0: 9136 bd3d 384b dd3c 49cd d33e 222d b7be
000000e0: 4078 7b3d 156b 19be 747f a2be 9396 43be
000000f0: 4986 51be 0243 443d 6aaa 7a3e 9756 433d
00000100: f230 d0bc a6b9 c43d 549d de3c 6dce 6fbe
00000110: 702c 68be a3d2 08bf 53dc 3f3e cbc2 e9be
00000120: 8879 513e 226a 5e3c 0ce8 7b3e 3096 823e
00000130: 6579 61bd f4c3 043f 7945 3ebe 0739 8f3d
00000140: 9be3 3a3d 32e9 66be 01ce 823e d653 293e
00000150: 3c49 ba3e 386f 1d3e a415 a53e d34f 37be
00000160: 4949 45be e504 f23d 39d2 5f3c c527 47be
00000170: 5d2c 04bd d12c 1e3e 9081 8bbe 4a91 43bd
00000180: d871 913e 31a6 06bf 1546 c3be 9785 a9bd
00000190: 5e39 6d3e d06d 25be acac 233e 9fee b9bb
000001a0: 0209 68bd 3c0d b0be d178 193e 3528 afbd
000001b0: 6ea7 d53e f74d a33d 9ba2 4d3e 6585 b03e
000001c0: d14c 4f3e 1b89 e4be 182d 9d3e 6933 1f3e
000001d0: 2cd5 de3e 4ce7 7e3e 1cd3 a1be c154 7bbe
000001e0: 69ac 5fbe c6ba 8d3d bfcd 023f 090a c6bd
000001f0: 276c 34be 33ce 533e 6188 a5be 2161 07bd
00000200: 5ab5 253e 7dc8 ad3e a7f1 80be 4a49 743e
00000210: e3e5 943e 2694 30bd 902b 82bb 5d82 c13e
00000220: 1380 9f3c 9d8b 133e 6b83 02be 9358 78be
00000230: ccf7 99be d7d3 553e a070 b3be ae17 e53e
00000240: 19d2 7b3e f1a2 8ebe fcd1 6a3e 475b 613d
00000250: 4514 a2bd ed5e f1bb c0d0 b33d d2a5 cb3e
00000260: a170 913e f09c 663e dd25 63bd 84ac 92be
00000270: 208d 23bd 785b 6d3d bccf 463e 1148 b5bd
00000280: e3f0 6fbe 55ce 1abe 5f07 88bc 3c4a d53d
00000290: 1393 c5bd 93b2 b93d 6bb3 aebe 35b4 183e
000002a0: c34d 8dbd 27f2 dcbe 7a20 db3e 08e3 163d
000002b0: eb8c b93d add0 d6bc 6274 a13e 097e 563d
000002c0: b238 953e e702 84be 4339 01be 2909 c6bd
000002d0: 851d 103e dc5c acbd 6a72 cbbe c452 19be
000002e0: 9870 aabe 84d5 f63d a1de e1bd 83ea 33bf
000002f0: 963d 50be d37c 893e 29f8 a23e 7a9e 873d
00000300: 781d 123e 5329 0d3e 0ef8 7a3e aab0 7cbd
00000310: 27e4 023d 2a24 2e3e 0af3 ca3e 4e29 b4be
00000320: 5101 af3e 3832 7a3d 3cdb 64be 6779 b4be
00000330: b02d 37bd b884 f23d 42e2 20bd 6410 92bd
00000340: f718 88bd a889 333e 4f5d 563d 15ef 033d
00000350: d729 debe 5e8c 883a b74c 0a3f 9846 4abe
00000360: a01e af3d 7e95 82be ad07 0bbd adbd 753e
00000370: a837 afbe 92a6 b83e 0470 013d 1e18 94be
00000380: cc1c c63e 128d cdbe 0e89 73be 8718 1b3e
00000390: 7580 1a3e c7a9 6cbe 09e6 86be 8e18 9fbe
000003a0: a1c3 083d 584e 9a3c 8e16 063d 9e77 ef3d
000003b0: 1d5e ae3d a824 ca3e 2aeb 2f3e a7c0 92be
000003c0: 23c6 3abe 3cf8 0abf 5b3b 90bd 18e5 423e
000003d0: 6429 e9bd 2829 193e 88b5 aabd 029d d4be
000003e0: 4c89 f9be 3839 27bd f624 fc3d 2cb9 47be
000003f0: 5944 c13d 29d8 853d f603 943d 2f3f c2bd
0.2816891 -0.2697824 0.099171825 0.08547302 -0.1974118 0.09213354 -0.06373579 0.34598678
0.36430135 -0.036388826 0.1809912 -0.18887444 0.083750926 0.032476712 0.085191876 -0.06577864
-0.1869521 -0.31245646 0.33009082 0.08375101 -0.26174313 -0.17311426 -0.16199468 0.12761436
-0.047944266 -0.28434634 0.40210286 0.09515153 -0.42552075 -0.20934519 -0.11959948 0.057152014
0.35682973 -0.1379851 -0.06758416 -0.40727028 0.1608226 0.09506898 -0.12254833 -0.21815415
0.20349482 0.118032895 0.27017894 -0.12196107 -0.17970645 0.3510998 0.13821712 0.2191023
0.08413137 0.28002965 -0.19883515 0.002502592 0.09238923 0.027013406 0.41367558 -0.3577662
0.061393976 -0.14982255 -0.31737864 -0.19100408 -0.20461382 0.047915466 0.2447907 0.04769
-0.025413964 0.09605722 0.02717463 -0.23418589 -0.22673202 -0.53446406 0.18736391 -0.45656428
0.20456517 0.013575109 0.24600238 0.2550521 -0.05504741 0.518615 -0.18581189 0.06993299
0.045627218 -0.22549894 0.25547794 0.16535887 0.36383998 0.15374458 0.32243073 -0.17901544
-0.19266237 0.1181734 0.013660961 -0.19448765 -0.03226887 0.15446784 -0.27247286 -0.04774598
0.28407168 -0.5259734 -0.38139406 -0.08277433 0.23166415 -0.16155171 0.15983838 -0.005674198
-0.056649216 -0.34385097 0.14987494 -0.08552591 0.417293 0.07973855 0.2008156 0.34476772
0.20244147 -0.44635853 0.30698466 0.15546955 0.43522012 0.2489292 -0.31606376 -0.2454405
-0.21843113 0.0692039 0.51095194 -0.09669883 -0.17619382 0.20684128 -0.3233061 -0.033051614
0.16182461 0.33942023 -0.25184366 0.23856083 0.2908164 -0.043110035 -0.003972478 0.37794772
0.01947025 0.14408727 -0.12745444 -0.24252538 -0.30071867 0.20881592 -0.35046864 0.4474463
0.24591865 -0.2785869 0.22931665 0.05501869 -0.07914022 -0.0073660524 0.0878005 0.39774948
0.28406242 0.22520804 -0.05545603 -0.28647244 -0.03992951 0.05794856 0.19415182 -0.08851636
-0.23431735 -0.15117772 -0.016605077 0.1041455 -0.09647193 0.090672635 -0.3412126 0.14912494
-0.068995975 -0.43153498 0.42798215 0.036837608 0.09060081 -0.026222551 0.31534106 0.05236629
0.29144818 -0.25783464 -0.126195 -0.09669716 0.14073761 -0.08416149 -0.39735729 -0.14972979
-0.33289027 0.120524436 -0.11028791 -0.7027971 -0.20335993 0.26853046 0.31829956 0.06622024
0.14269054 0.13785295 0.24508688 -0.061691917 0.031955864 0.17005983 0.3963855 -0.35187763
0.34180692 0.06108305 -0.22349256 -0.35248873 -0.044721305 0.1184172 -0.039278276 -0.071320325
-0.06645387 0.1753298 0.05233508 0.03221043 -0.43391296 0.0010417809 0.5402331 -0.19753492
0.08550763 -0.25504678 -0.033942867 0.23998137 -0.3422215 0.36064583 0.031600967 -0.2892465
0.38693845 -0.4014669 -0.23782751 0.15146075 0.15088065 -0.2311164 -0.26347378 -0.3107342
0.03338969 0.018836185 0.032736354 0.11692737 0.085140444 0.39481091 0.17179552 -0.28662607
-0.18239646 -0.54285026 -0.07042571 0.19032705 -0.11384848 0.14957106 -0.083354056 -0.41526037
-0.48737562 -0.040826052 0.12311737 -0.19504231 0.094368644 0.0653537 0.07227318 -0.094847076

lstm.weight_hh_l0 f4 [64, 16]
00000000: 2295 2ebe 4378 9eba 9130 b13d 02c2 0b3e
00000010: 661f 623d 3ef7 bd3e d293 fe3d 433b dcbd
00000020: 7d7c 193e 16f5 11be 5e3f 14be 9ff9 1a3e
00000030: 2a69 13be d148 1c3e 68eb b13d 8c62 f3bd
00000040: e7b8 573d 8d48 623e 9e40 14be a7c9 a33e
00000050: 760d 483e 811f 9bbd 7ff7 9abe a26c 2f3f
00000060: 3deb d6bd 1821 bdbc a4d7 2d3f e799 af3d
00000070: e792 26be 1672 a6be 8655 cfbc 49eb 433e
00000080: 08a8 e5be 0d19 243d 171f 27be e8f1 633d
00000090: 03c8 ec3d e44d ee3d a24f a6bd a09a fdbd
000000a0: b05c 2cbe be7f 8e3d 14d9 103e 4a8e 19bd
000000b0: ca4b 52bd ade9 6fbe 191f 693e 3352 1a3d
000000c0: b961 45bc 2cfb a23e 763e 7dbe 4695 013e
000000d0: b226 343d 0af8 853d 8db8 4c3e 0809 243d
000000e0: 1677 9fbe 5351 7dbe dda6 92be 64b6 45bd
000000f0: 3ced d33d bc71 bebd cf76 bcbd e6e3 c4be
00000100: 602e 6cbe 16a7 87be 8201 6c3e b1ba 483e
00000110: 0f5d 823d fe6a 7a3e 67c5 a43c 5054 a13e
00000120: d27c debe 2124 80be 745e 51bd f02e 253e
00000130: 4f7d e7be 61f8 06be 2c5d 4ebe f64e 0cbf
00000140: d097 cebe 766c 483e 3561 2c3d 0f75 3abe
00000150: f78c 0b3e 3ad3 3ebc b0a6 19be 016d 65be
00000160: 8686 57be 814b 173d e17f b13e df62 88be
00000170: d765 bbbe 7508 0cbf 0663 6c3e 0703 c1bd
00000180: c3a9 f2be 2bdd 3ebd 0ac9 d9be 9ff4 563e
00000190: aa09 c1be ba29 ccbe b1b8 cebd f98e a2bd
000001a0: 2956 90bc a179 273e d90a 40be 2779 aabe
000001b0: c274 1a3d 2f65 823e 1075 2cbe 4bae 753e
000001c0: cfc3 73be 2553 a33d 5daf 903d 125a 67bd
000001d0: 9fa2 83be 4b05 36be 3493 9a3d a3e5 84be
000001e0: 66c7 9f3e 3edc b6be 61ce bdbd 2b80 3e3e
000001f0: 4101 f9be 02d1 96be fcfd 6abb e6d0 283d
00000200: eaa7 83be f6d6 c2be 41f3 bc3c a4ed d23e
00000210: c4ee 953e efd3 6ebd 8477 a0be 0261 3f3c
00000220: 0de1 413e fd80 b7be 90fa ddbd e19b 0c3e
00000230: ee98 04bc 5149 74bd 1188 75be 3977 723c
00000240: f02b 553f c3bf f6bd 0554 753e 9ec3 e53e
00000250: 1d4d 05bf f204 c4bd a720 d33e 29f6 8b3e
00000260: 53fd 8d3d 8e2d 20bc 6b10 a83e ae97 403f
00000270: 5efd 5e3e d7f5 44be 1da1 08be 3fa2 173f
00000280: 1b78 123f e88c d1be 2aca d43d edd6 a23e
00000290: c717 dcbe 7b37 c3be a379 a63e 5799 b63d
000002a0: af80 72bd b0bc ddbd d6de 513e 3d12 413e
000002b0: 4e1d ec3e 1a0c a0be 9d05 8bbe fbde cd3e
000002c0: 1cd5 fc3d 6e53 69be c245 d9be 76eb 813e
000002d0: a115 e33d cd3c df3e 9a00 293e aaeb 2a3d
000002e0: 802f f5be 0c15 e0bc 5f46 d03e 138c 92be
000002f0: 16bd b9bd 2822 1c3d d945 96be 651c 413e
00000300: a449 75be 569e fa3d 6ee7 3c3c 85cd 57bd
00000310: c4f6 22bd 8bbd f03d 17e1 77be 0688 b8be
00000320: ba3e e33d b5bf 6bbd 1e41 b5bd 53a4 bfbe
00000330: 5dd4 febd 2d31 6ebe b785 12bd b103 c53c
00000340: adff d9be 439e 5abd c556 08bf a8e4 30be
00000350: 509d 023f 24ce c93e 49cb 9dbe 3b9b b6bd
00000360: d0af 91be 57ce f53e ca0b c33e 38f1 81bd
00000370: cbbb 0a3d 698c 39bd b0ac 573e 2209 81be
00000380: 9a16 12bd c24b 833d e08a aebd a849 653e
00000390: 2fee 0abf 2d72 cbbd 4721 60bc 9dcb d23e
000003a0: 466b b3be 0c4c d2bd e73b 803e 5392 79bd
000003b0: dc16 7ebe d8e1 18be dad1 8cbe abbd 86bd
000003c0: 864a dcbe 49a9 d43e aa84 dfbd ec25 9d3d
000003d0: f9ae 7d3e 63fe b33e 139e 50bf 213e 2c3e
000003e0: 2213 77be dfa9 e93d c3f6 cc3d a568 11be
000003f0: 74f2 1abf 6220 2fbd 49d1 3a3e 0fa3 3d3e
-0.17049077 -0.0012090284 0.086518414 0.13648227 0.055205725 0.37102693 0.12430538 -0.10753491
0.14988895 -0.14253649 -0.14477298 0.15134285 -0.14395586 0.15262152 0.08687478 -0.11884031
0.05266657 0.22097988 -0.14477775 0.31989786 0.19536385 -0.07574368 -0.3026695 0.68525136
-0.10494087 -0.02308707 0.67907166 0.085742764 -0.16266976 -0.32508916 -0.025309335 0.19132723
-0.4485476 0.040062953 -0.16320454 0.05565062 0.11561587 0.1163595 -0.081206575 -0.12383008
-0.16832232 0.06957959 0.14145309 -0.037489213 -0.05134181 -0.23428984 0.22765769 0.037676048
-0.012047225 0.31832254 -0.24730858 0.126546 0.043982215 0.0654145 0.19992276 0.040047675
-0.31145543 -0.24738054 -0.28642932 -0.048269644 0.10347983 -0.09299037 -0.092023484 -0.38455123
-0.23064566 -0.26494664 0.2304745 0.19602467 0.06365406 0.24454877 0.02011366 0.31509638
-0.43454605 -0.25027564 -0.05111547 0.16131186 -0.4521279 -0.13180687 -0.2015273 -0.54807985
-0.403502 0.19572625 0.04208489 -0.18208717 0.13627993 -0.01164704 -0.15004992 -0.22404863
-0.2104741 0.03693724 0.34667876 -0.26637933 -0.36601135 -0.54700404 0.2308465 -0.094244055
-0.47395143 -0.04659764 -0.42536193 0.20991753 -0.37702686 -0.39875585 -0.10093821 -0.07937426
-0.01761921 0.16354991 -0.18754138 -0.33295557 0.037709005 0.25467822 -0.16841531 0.23992269
-0.23805164 0.07974843 0.07064698 -0.056482382 -0.25710008 -0.17775457 0.07547608 -0.2595645
0.31206816 -0.35714906 -0.09267879 0.1860358 -0.4863377 -0.29456335 -0.0035856953 0.041214846
-0.25714046 -0.38054627 0.023065211 0.4119693 0.29283726 -0.058307584 -0.31341183 0.011680843
0.18933506 -0.35840598 -0.10838807 0.13731338 -0.008093102 -0.059640232 -0.23977686 0.014798933
0.8327017 -0.120482944 0.23957832 0.44875807 -0.5207079 -0.09571256 0.4123585 0.27336243
0.069330834 -0.009776486 0.32825026 0.75231445 0.2177634 -0.19234405 -0.1334271 0.5923194
0.57214516 -0.40927815 0.10390122 0.318046 -0.4298689 -0.38128266 0.32514676 0.08915966
-0.059204753 -0.10827005 0.20495161 0.18854614 0.46116108 -0.31259233 -0.2715272 0.40209183
0.12345335 -0.22785732 -0.42436033 0.25374955 0.1108811 0.43601075 0.16504136 0.041728653
-0.47887802 -0.027353786 0.4067869 -0.28622493 -0.090692684 0.03811851 -0.29350165 0.18858488
-0.23953873 0.122372314 0.0115297865 -0.052686233 -0.039786115 0.117549025 -0.24206959 -0.36041278
0.110959485 -0.057555873 -0.08850311 -0.37430057 -0.12442849 -0.23260947 -0.03577205 0.024049612
-0.42577878 -0.053373586 -0.532574 -0.17274725 0.5102129 0.39415085 -0.30819157 -0.089163266
-0.28454447 0.48008987 0.38094932 -0.06344837 0.0338705 -0.04529992 0.21061969 -0.2520228
-0.035666086 0.06410934 -0.08522582 0.22391379 -0.5426969 -0.09933887 -0.013679809 0.4117097
-0.3504278 -0.10268411 0.25045702 -0.06093056 -0.24813408 -0.14929903 -0.27503854 -0.06579145
-0.43025607 0.41535404 -0.109139755 0.07673249 0.24773778 0.3515502 -0.814912 0.16820575
-0.24128392 0.114093535 0.100080036 -0.14200075 -0.60526204 -0.042755492 0.18243898 0.18519233

lstm.bias_ih_l0 f4 [64]
00000000: 3177 95bd d85b a43e c163 55be dea9 7c3d
00000010: 5735 e73e e3ab 97ba 5c41 db3e a536 0d3e
00000020: 3113 bebd f62b 243e 546d 593e f9e3 1b3e
00000030: e86f 923d 62a2 16be 05d9 303f 538e bc3e
00000040: 2ab0 8f3c 46a6 903e 96a7 d33c b4d7 8bbe
00000050: 0ef7 63bc de4e 2abe b4a2 963d 3ece 5a3d
00000060: b297 1abc 3c9e 3ebe f8a5 893e 3ff5 9a3e
00000070: 0507 bb3d 8ddc 373d 0437 833e 7ace 67be
00000080: 698f ff3d 7592 433e cc57 24be 4558 b03d
00000090: 481b 1cbc 3dc8 bc3e 4320 37be 3665 883e
000000a0: 8a42 a2bd c7f3 323e 18af 863e df2b 03bd
000000b0: 53f4 8fbd b941 94bd c537 4bbe 88dc 323e
000000c0: c263 5f3e 7e27 a13e d07e 05be 6a5c a63d
000000d0: bd20 123f 6482 a8bc 0abd a43e 828a d83c
000000e0: 7be8 9c3e ab26 f93d d86e 51be aff0 813e
000000f0: d4ae 3c3d 7a7b 293e 9689 373f 4293 bd3e
-0.072981246 0.3210132 -0.20838834 0.061685435 0.45157883 -0.0011571612 0.42823303 0.13790376
-0.09281004 0.16032395 0.21233112 0.15223683 0.07150251 -0.14710382 0.69081146 0.36827335
0.017540056 0.28251857 0.025836747 -0.27313006 -0.013913883 -0.16631648 0.07355252 0.053419344
-0.009435581 -0.18615049 0.26884437 0.30265233 0.09132198 0.044888068 0.2562791 -0.22637358
0.12478525 0.19098838 -0.16049117 0.08610586 -0.009527989 0.3687152 -0.178834 0.26639718
-0.079228476 0.17475806 0.2630546 -0.03202426 -0.07029023 -0.07239098 -0.19845493 0.17466938
0.21815398 0.31475443 -0.13036656 0.08123095 0.57081205 -0.020569988 0.32175475 0.026433233
0.3064612 0.121655785 -0.2045244 0.2537894 0.046065167 0.16551009 0.71694314 0.3702641

lstm.bias_hh_l0 f4 [64]
00000000: 12d0 0ebd 15f2 b53e 6b59 39be 0319 0fbe
00000010: e9fc af3e df4b a83e bed8 1e3c bec1 c2bd
00000020: 2123 18be caa1 163e 339d 1bbd a613 563e
00000030: 8110 853e 0738 413e c5b4 d63e ecc2 963e
00000040: 0e20 23be d28a e83d 35cc 143e 6f6c 4a3e
00000050: 9724 80be 73a9 44bd e66b 26be 426d 85be
00000060: 53ee 993e 3091 26be 0401 b9bc fba7 993e
00000070: 1a26 80bc d271 93be 80e9 733c ee9e 1cbe
00000080: f676 b03d 430c c73b 3b9f 23be 8658 2e3e
00000090: 808f 5dbe a3e1 183e c388 873e bc7d 5cbd
000000a0: ec59 f8bd a089 c43d 7a76 973e 42b3 eabc
000000b0: 17b3 253d 2216 a93d 4728 79bc 0ce4 433e
000000c0: afab 7a3e 8b31 c03e b0a6 28be e0a3 18be
000000d0: 3d6e 033f efa8 bb3d 10de 803e 0217 8e3e
000000e0: 81f7 b73e a19f c93e 2834 743e a59a 3a3d
000000f0: 0394 943e bda5 103e 7904 e43e 044f 9b3e
-0.0348664 0.35536256 -0.18100516 -0.13974385 0.34372643 0.32870385 0.00969523 -0.0950961
-0.1485715 0.14710155 -0.037991714 0.20905933 0.25989154 0.18869029 0.4193479 0.2944559
-0.15930197 0.11354603 0.14531024 0.19767927 -0.25027916 -0.048013162 -0.16252097 -0.2605992
0.3006464 -0.16266322 -0.022583492 0.3001097 -0.015643168 -0.28797776 0.014887214 -0.15295002
0.0861644 0.0060744598 -0.1597871 0.17025957 -0.21636772 0.14929824 0.26471528 -0.053830847
-0.12126526 0.095965624 0.29582578 -0.02864993 0.040453997 0.082561746 -0.015207357 0.19129962
0.24479555 0.37537798 -0.16469836 -0.14906263 0.51340085 0.09163081 0.2516942 0.2775193
0.35931018 0.393796 0.23848021 0.045557637 0.29019174 0.14125724 0.44534662 0.30333722

lstm.weight_ih_l0_reverse f4 [64, 9]
00000000: d8ec b53e 40d8 f1bd 550a b8bd ee7a 993e
00000010: 2262 4bbe 03e6 91be a40b 073f 8b9f 75be
00000020: d40a bf3e 91ac c4be f3f7 9c3d ad17 bdbe
00000030: fdf4 1dbd c0d1 ffbe 1bf0 e6bd 4992 c93e
00000040: f7d3 2fbe 1952 e53d c9ae 4a3e 632c 483d
00000050: 4e00 553d 738a 633e 694c b3be 4557 cfbd
00000060: 7a14 b73d 10b6 08be 7eae c03e b07b c6bd
00000070: 24e3 48bc 8d78 013e 974e a1bc 3b2c 7a3e
00000080: c75d f83e 4e16 d2be 64c0 4bbd c827 7a3d
00000090: 6f3e 243e f174 febd 470b 8fbe 42c6 373e
000000a0: fad7 23be 3522 b83e 027d 0c3e 751d d03e
000000b0: 8d4d 333a 3a20 a0bc 38a0 02bf 8ca4 95be
000000c0: 5004 a7bc 78c8 0abe 10f9 b93e 08a1 b93e
000000d0: a935 b83d 0500 973e 21f0 023d 786c 5e3e
000000e0: 43bb 443d 850c 7fbd b427 dbbe 796b 7a3e
000000f0: 526a e63b 5c2b 6bbd 3ce4 d8bc 0a2f abbd
00000100: ff9c 9f3e cbf0 03be 243a 58be 1400 773e
00000110: c0ad 9b3e 59a2 d7be 3307 663e 2781 b0be
00000120: fd63 9d3e 95af 783e b072 b9bc 9454 823e
00000130: a718 0cbe 29b9 f93d 5d12 0cbf 513d 07bd
00000140: 4c49 4bbe 8626 513e 3d77 38be a3d8 da3d
00000150: 5078 c33d 31d5 17be b7df 0abd 36eb 6bbe
00000160: 9706 e13c 0c3a 30bd 2de7 6a3d 40b0 2d3e
00000170: 60ac f6be aa7e 62bd cd39 5bbe fcb7 9a3e
00000180: ae64 65be 2d68 1dbe e8f6 a1be 8dd7 b03e
00000190: 6dab 7ebd c8cf 1c3e e9ea 5c3e 421b f13c
000001a0: ba0e fbbd f579 8d3e 3863 84be 920f 293f
000001b0: 91c8 ce3d c671 30be 5120 2d3d 0ba7 c2be
000001c0: 6288 41bc adf5 bdbe 09ec 223f 739d cf3e
000001d0: 9156 533e 6dab c7bd 9644 83be a210 4abe
000001e0: 3e4c d7be a29d c0be 8d31 093e 67e1 ebbe
000001f0: 987c 9d3e 1f17 823e 617f b9bd d0db 1e3d
00000200: bf7c a13e 7532 103c de67 d93d 00b1 c2bc
00000210: 34aa 28be dfe6 083f 5073 37be 93cb 36be
00000220: 92d0 a9bd de2a 003d 2a73 9f3d 1e2b 33bd
00000230: 1ea0 a53e 7700 c7be 77c3 bf3d 1ef1 61be
00000240: 20e7 373d bf19 8e3e 6880 b63d c893 b43e
00000250: a44f 5f3e 52b7 a83d 6b04 e13e 586d 60be
00000260: d5a4 733e fdd1 e03d 39c6 dbbd e201 9fbd
00000270: 79c1 7dbe 2f7a 65be 9cbb fcbe 81bf 113d
00000280: 6738 43be 9bbc ad3e 065d 473e 60b6 67be
00000290: cf8a 4b3d 25a2 8f3e 63d7 82be b2eb cbbd
000002a0: 0f01 77be 8ac2 c4bd 034a 863e dbbf a73d
000002b0: 1d9a 4f3c a9da a53e 2a33 2c3e c320 c53e
000002c0: b5cb 313c 6eac 03be 2f8b eabe 4b18 133e
000002d0: 1c7c debd 70cc b63e 7575 5dbd 3818 583e
000002e0: a659 2a3e 2544 143f 2771 03bf 9a70 90be
000002f0: 4cb6 bfbe ba35 b9be a06c 933d 04b1 be3d
00000300: 54a1 c9bd 6537 43be 894b ac3e 4ba0 80bc
00000310: 4c28 86bd cb75 a53e 068f b4be ed62 803e
00000320: e15d 10bd e6a9 febd f3d2 cabe ae35 dd3d
00000330: 7765 d6be 159a f13e 8697 46be 80b6 b4bd
00000340: 605c bf3e 8fa5 73be c3ad a0be f111 3b3d
00000350: 2e42 c73d 38ff 2bbe 9f08 6cbd e65d b93e
00000360: cc30 5fbe 187d 92bd e417 9f3d e9ce 75be
00000370: 40e0 a63e 1173 1bbb 8a8c a7be 2a13 0c3f
00000380: e556 64bd ecb1 683d bb45 41be d873 0b3d
00000390: cf86 03be 499a 783e 27d6 113e 12d0 e83d
000003a0: 438f c0bd 2229 e33d 3cec b1be 4525 39bc
000003b0: 73c7 6d3d ac3c ad3c d3c5 133e dd64 093f
000003c0: 2dd4 51be 7a76 d6bd 888d b3be 4c0c 5e3e
000003d0: 7783 80bc dd53 043f 0b99 0d3e a833 a1bc
000003e0: 23a4 fe3d c549 2e3e a927 b13e 350a c63e
000003f0: c01b 9fbe c2a6 83bd f4ca 583e ac03 2bbe
0.3553226 -0.118088245 -0.08986346 0.299766 -0.19861653 -0.28495798 0.5275214 -0.23986642
0.3731295 -0.38412908 0.0766448 -0.36932126 -0.038563717 -0.49964714 -0.11276265 0.3936942
-0.17170702 0.111972995 0.19793238 0.048870455 0.052002244 0.22220783 -0.35019234 -0.10124067
0.089394525 -0.13350701 0.37633127 -0.0969156 -0.012261186 0.12643643 -0.019690795 0.24430935
0.48509046 -0.41032642 -0.049744025 0.061073095 0.16039442 -0.124246486 -0.2793829 0.17946723
-0.16000357 0.35963598 0.13719562 0.40647474 0.0006839864 -0.019546617 -0.51025724 -0.29227102
-0.020387799 -0.13553035 0.36322832 0.3625567 0.0899461 0.29492202 0.031967286 0.21721065
0.04803015 -0.0622678 -0.4280373 0.2445506 0.0070317173 -0.057414398 -0.026476018 -0.08358581
0.31174466 -0.12884824 -0.21115929 0.24121124 0.30405998 -0.4211605 0.22463684 -0.34473535
0.30740348 0.24285729 -0.022637695 0.25455153 -0.13681279 0.121935196 -0.5471552 -0.03301746
-0.1985218 0.20424852 -0.18014236 0.106858514 0.09544432 -0.1482742 -0.033904757 -0.23038945
0.027468963 -0.043024108 0.057349373 0.16961765 -0.48178387 -0.055296578 -0.21408768 0.30218494
-0.22401688 -0.15371771 -0.31633687 0.34539452 -0.062175203 0.15313637 0.21573986 0.029431943
-0.12258668 0.27632108 -0.25856948 0.66039383 0.10096849 -0.17230901 0.042267147 -0.3801807
-0.011812301 -0.37101498 0.6364141 0.40549812 0.20638491 -0.09749494 -0.25638264 -0.19732907
-0.42050356 -0.37620264 0.13397808 -0.46070406 0.3075912 0.25408265 -0.09057499 0.03878385
0.31540486 0.008801092 0.10615514 -0.02376604 -0.16471177 0.5347728 -0.17915082 -0.17851095
-0.08291735 0.03129088 0.07785638 -0.04374229 0.32348722 -0.38867542 0.09363454 -0.22064635
0.044898152 0.27754018 0.0891121 0.35268998 0.21807724 0.082380906 0.43948683 -0.21916711
0.23793347 0.10977552 -0.10731167 -0.07764031 -0.24780835 -0.2240989 -0.49361885 0.035583023
-0.19064485 0.33932957 0.1946908 -0.22628164 0.049692925 0.28053394 -0.25554952 -0.09957065
-0.24121498 -0.09607418 0.2622834 0.081908904 0.012671021 0.32393387 0.16816393 0.38501558
0.01085179 -0.12858745 -0.45809314 0.14364736 -0.10863516 0.35702848 -0.054067094 0.21102989
0.1663576 0.5791648 -0.5134453 -0.28210908 -0.3744377 -0.36173803 0.07198453 0.09311107
-0.09845224 -0.190641 0.3365138 -0.015701434 -0.06550655 0.3231643 -0.35265368 0.25075474
-0.03524578 -0.12434749 -0.39614066 0.10801254 -0.41874287 0.47187868 -0.19393739 -0.088238716
0.37375164 -0.23793624 -0.3138257 0.045671407 0.0972942 -0.16796577 -0.05762541 0.3620445
-0.21795958 -0.07152766 0.07768229 -0.24004711 0.32592964 -0.0023719708 -0.3272441 0.5471674
-0.05574693 0.056810305 -0.18874256 0.034046024 -0.12844394 0.24277605 0.14241849 0.11367811
-0.09402325 0.1109183 -0.34750545 -0.01130039 0.058051538 0.021147095 0.14430933 0.5366953
-0.20491095 -0.10471816 -0.35068917 0.21684378 -0.015687687 0.51690465 0.13827913 -0.019677952
0.1243365 0.17020328 0.3460057 0.38679662 -0.3107586 -0.06428291 0.2117117 -0.1670062

lstm.weight_hh_l0_reverse f4 [64, 16]
00000000: 7609 51be e640 88be c1a9 343d da98 003e
00000010: 25bc 7bbe 6b04 4fbe 8511 203d 2702 313e
00000020: 0e3a c6bd d976 c5bd 4b67 903e 6c00 993d
00000030: f5c9 86be dfb1 9ebe 5639 8dbd 0461 303e
00000040: b071 b23e c19b e53d dd81 a7bd e1d9 233d
00000050: 282c 0e3e 409b 98be 7861 e43c 69db 093e
00000060: 8002 ccbe af4c aa3e f1c3 03bf b2ed ce3e
00000070: a859 063f cddd 003c 2738 d83e 1932 1a3f
00000080: a3d0 56be aad8 14bf 8b14 9b3c d2e3 83be
00000090: 9415 903e e311 3ebe fd68 afbc b6ee dcbd
000000a0: fd42 82be dbb7 063e 7771 b3be 73e1 f83e
000000b0: dccc 0f3e ae30 2e3d 884f 8c3e 2441 82be
000000c0: 9e0c df3d 618d d8be 8887 a1be 6ef9 2abd
000000d0: 5de3 fe3e 6240 e1be d325 a63d b84c 733b
000000e0: 9bdd c9be 0210 6f3e d746 90be b980 953e
000000f0: a741 8b3e d3a0 83bd 5121 e93e 1ed3 503e
00000100: 9360 e53e e517 18bf 860a e7be 4306 523d
00000110: 7b6e b7ba ecb8 f3be e2b2 773e 691d f5bd
00000120: a843 0dbc bc9d 4dbd 074b 583e 45eb 523e
00000130: 0d4b a53e 9c25 d3be 90bf 8b3d 5cbc 49be
00000140: 3686 8b3e f983 d4be 91f0 243d c954 9cbe
00000150: 1a32 713e e1c4 89bd 8a43 5c3e d054 f53b
00000160: c7d2 f7be 95fc e73e db40 7cbe 82d2 f43d
00000170: 3fd0 313e 92fe 64bd cf84 433e a418 053e
00000180: 8ae4 dfbd ef61 a8bd 9a62 0cbd ffb5 063e
00000190: 5f3b d03d f34e cabe 11d0 89be 41e8 f4bd
000001a0: 747a 3dbd 7882 463d b9e2 96bb 93c6 9f3e
000001b0: ea9e 7bbe dc42 5f3d 5c1d 283f 20c8 fa3d
000001c0: 5ce4 14be 175d 243e 1629 2b3e 68b3 b7bd
000001d0: e210 a13e 75aa ad3d 3810 c8be c59a cabd
000001e0: fdc3 63be f4ee af3d 95b3 4abe ea6a 92be
000001f0: 728e aa3e e1e6 dc3e d83c 183e 21f6 9ebd
00000200: 0d1c ff3e f8c9 e9be 9011 62be 628e 0a3c
00000210: 1cc3 88be fec8 10bf 321a 533d eac6 19bf
00000220: 2029 47be 783a 3dbc 3846 21be c3a2 c63e
00000230: c9b1 083f e9c9 66bd f0a4 f73d 83e9 a1be
00000240: b093 ec3e dd42 9bbe 7e59 4abe 87a1 16bd
00000250: 995a dabe dd43 65be b381 243e c2c6 c33d
00000260: 1900 ac3e fabb c7be d7e9 a23d 34e1 963e
00000270: 1e5e 173e e4c3 28bf c218 9cbc e053 1ebe
00000280: f74e af3e 477f a3be df21 46be 5470 3bbd
00000290: 85dd 183d 3c83 263d 9fc9 c0be ebd1 b5be
000002a0: 90c6 803d 665c 0abb 8e69 0cbe 2d0e a33e
000002b0: 24a2 013e 80eb 51be d537 973d 5433 a9be
000002c0: e2e4 24be 9b32 d6bd 9a37 16be d7d9 273e
000002d0: b746 e5bd fce6 f9bd 8cac 87be b82a dabe
000002e0: 9b63 193e 3783 443f acf3 d4be e82f 7f3e
000002f0: 1af3 343e 64fd 4dbd 12df 3b3e d5c6 973e
00000300: ffb8 1d3e 9e38 fb3e 47a6 07be 0187 073e
00000310: 99b4 0d3f b85a aabd 31cc a73c 0a78 ebbd
00000320: 1a92 f4bb 914a 283e c41e eebd c3ea 95be
00000330: 1725 0abf 01d3 b6be 941a afbe 97ca 743e
00000340: 4f43 8abe 336c 2c3e 9221 69bd 3a10 bdbd
00000350: 8d18 173f 70f3 a9be 5304 37be 8824 67be
00000360: ae0a 99be 773d d33e 5199 c4be 03b1 eabb
00000370: ecc6 c8bd ffc5 503e 17f5 0cbd 3252 81be
00000380: 5603 d43d b00a 80be cf43 9ebe d1ea 593d
00000390: 816d 5bbe 11d8 0cbf b54e 9e3e e174 1abf
000003a0: 1f10 b0bd a632 93be 5ef1 a73c 1368 4b3e
000003b0: 87fb 073f 6e54 7fbe bf52 473d 6d34 a1be
000003c0: 91da b33e 45f2 38bf d385 42be bca5 9f3e
000003d0: 4fb7 473e 6dca 2bbf 0aae ea3d 3a4e d8be
000003e0: 2fa1 95bd c36e c03d 1e55 f9bd 2e2a c13e
000003f0: 0f9e fe3e 249b dfbd aade 03be 496a 453e
-0.20413765 -0.26612014 0.044107202 0.12558308 -0.2458349 -0.20216529 0.039079208 0.17285977
-0.09679042 -0.09641809 0.28203806 0.074707836 -0.26325956 -0.3099508 -0.068957016 0.17224509
0.34852362 0.11211348 -0.08179066 0.040002707 0.13884032 -0.29805946 0.027878508 0.13462605
-0.39845657 0.3326163 -0.5147086 0.40415722 0.52480555 0.007865381 0.4223034 0.6023269
-0.20978026 -0.58143103 0.018930694 -0.2575975 0.28141463 -0.1856151 -0.021412367 -0.10787718
-0.25441733 0.13156073 -0.35047504 0.48609504 0.14042991 0.042526893 0.27404428 -0.25440323
0.108910784 -0.42295364 -0.31548715 -0.04174178 0.4978284 -0.43994433 0.08112683 0.0037124585
-0.39426884 0.2334595 -0.28179047 0.2919977 0.27198526 -0.06427159 0.4553323 0.20393035
0.44800243 -0.5941146 -0.45125216 0.051275503 -0.0013994718 -0.47602022 0.24189332 -0.119685
-0.008622088 -0.050199255 0.2112237 0.2059756 0.32283822 -0.4123963 0.06823647 -0.1970076
0.27250832 -0.41506937 0.040268485 -0.30533436 0.23554268 -0.06727005 0.21510139 0.007486917
-0.48402998 0.45309892 -0.24634115 0.11954214 0.17364596 -0.05590684 0.19093631 0.12997681
-0.10932262 -0.08221804 -0.03427372 0.13155364 0.10167574 -0.39513358 -0.26916555 -0.119583614
-0.04625936 0.04846427 -0.004604664 0.31206188 -0.2457234 0.05450712 0.656698 0.12245202
-0.14540237 0.16051136 0.16714892 -0.08969766 0.31458193 0.08479778 -0.39074874 -0.09892801
-0.22242732 0.085904986 -0.19795068 -0.28597194 0.33311802 0.43144897 0.1486696 -0.07761789
0.4982609 -0.45661902 -0.22077012 0.008456798 -0.26711357 -0.5655669 0.051538654 -0.60069144
-0.19449282 -0.011549585 -0.15749443 0.38796052 0.5339628 -0.0563449 0.12092006 -0.31623468
0.46206427 -0.3032445 -0.19760701 -0.03677514 -0.42647246 -0.22389169 0.16065101 0.095593944
0.33593825 -0.39010602 0.07954758 0.2946869 0.14781997 -0.65923905 -0.019054774 -0.15461683
0.34239933 -0.31933042 -0.19348858 -0.04576142 0.037320632 0.0406525 -0.37653825 -0.35511717
0.06287873 -0.0021112203 -0.13712141 0.31846753 0.12659508 -0.20499992 0.07383696 -0.33046973
-0.16102937 -0.10458871 -0.14669648 0.16391693 -0.111951284 -0.1220226 -0.2649883 -0.42610717
0.14979403 0.7676272 -0.41592157 0.24920619 0.17670861 -0.05029048 0.18346813 0.29643884
0.15402602 0.49066633 -0.13247024 0.13235094 0.55353695 -0.083180845 0.020483108 -0.11497505
-0.0074637057 0.16434695 -0.11626962 -0.2928067 -0.53962845 -0.35707858 -0.34199965 0.23905407
-0.27004477 0.1683815 -0.05691678 -0.092316106 0.59021837 -0.3319354 -0.17872743 -0.2257253
-0.2989096 0.4125783 -0.3839822 -0.0071622147 -0.09803566 0.2038803 -0.034413423 -0.25258023
0.10352199 -0.25008154 -0.3091111 0.053202454 -0.21428491 -0.5501719 0.30919424 -0.60334593
-0.08596825 -0.2874958 0.020500835 0.1986392 0.53118175 -0.24934551 0.048662897 -0.3148531
0.3512769 -0.72244674 -0.18996362 0.31181133 0.1950352 -0.6710575 0.114589766 -0.42247182
-0.07306134 0.09396126 -0.12174438 0.37727493 0.49729964 -0.109182626 -0.12877908 0.19278826

lstm.bias_ih_l0_reverse f4 [64]
00000000: 00b4 4fbd 9371 ea3d 094a 443e 6e1b 813e
00000010: 4172 a73e d14f 973e 4d67 b13e f823 56bc
00000020: 51e8 36bb bcd2 823b fdb8 243d 7384 fa3e
00000030: 34fd 243d 0cc6 013e b547 073a 383b a83e
00000040: 1c1e f93d 5dc1 85bd 0fee 5a3e 94ff 393d
00000050: 9172 293e 0867 aabd 5a7e 13be 02e5 293d
00000060: ea6f 123e 008b 5ebe 4928 f9bb 04d6 343c
00000070: 3c55 16be 7319 253e 8bd6 ab3d b0c3 04be
00000080: 91c5 d5be 39c4 74be 2e55 8ebe 5220 b63e
00000090: b9ae 7d3e 95aa 32be fd3c 0dbe 7582 b7ba
000000a0: 1e21 273e 259b 583e 2634 cdbd d541 74be
000000b0: 2a47 bebe 2c09 06be 4362 d53d 29e6 1a3d
000000c0: 7dc4 b0bd f8d9 28bc b368 0fbd d125 f13d
000000d0: 8fe5 ac3e 2a95 913d cfb4 b43e 37c4 1cbe
000000e0: 83cf 31be 13de cabe f23f 7d3e 0efc bc3d
000000f0: a20e 503e 662d 83bb 9c5c 803e 7af1 0e3f
-0.05070877 0.11447444 0.19168867 0.2521624 0.32704356 0.29553083 0.34649125 -0.013070099
-0.0027909467 0.0039924067 0.04021548 0.48929176 0.040280536 0.12673205 0.00051605265 0.3285768
0.12163946 -0.06531022 0.21379875 0.045409754 0.1654761 -0.08320433 -0.14403668 0.041478164
0.14300504 -0.21732712 -0.0076036793 0.011037353 -0.14680952 0.1612299 0.0839053 -0.12965274
-0.41752294 -0.23902978 -0.27799362 0.35571533 0.24773683 -0.17447884 -0.13792796 -0.0014000671
0.16321227 0.21152933 -0.10019712 -0.23853238 -0.3716367 -0.13089436 0.104191326 0.037817154
-0.08631227 -0.010305874 -0.03501196 0.11774791 0.3376889 0.07108529 0.35294196 -0.15309225
-0.17364316 -0.39622554 0.24731424 0.09227763 0.20318082 -0.0040032146 0.25070655 0.55837214

lstm.bias_hh_l0_reverse f4 [64]
00000000: 1904 8a3d 6c90 983e 44cf 713e 731c c33e
00000010: ade2 993d 0cbc f0bc 2a6b 673e 6653 7e3d
00000020: 8ce0 4abd 3038 623d 3349 2a3c d215 f83e
00000030: 568e 3c3e 6889 9ebc d7a4 f5bd 1a53 cf3e
00000040: 195c 8d3d e604 013e 62be 403e c719 b93d
00000050: fa20 ab3d 747e 71bd 5b42 0ebe 6e6c 243e
00000060: 6e1f 00be 182e 94bd 8e1f 8a3d c5d9 8a3d
00000070: d0d2 4d3e b6e3 1e3e 1033 17bd 3270 7dbd
00000080: 1dc1 0ebe 9230 c6bd 527d 593c 7380 4ebd
00000090: 568c 90bd 2afb bd3c 3362 4c3e 127d 99be
000000a0: 43ab 913e 8ae0 693b 5de3 a6bd 796d 19bd
000000b0: b559 383d 56ac 173e aa60 f0bd 8679 863d
000000c0: 3f2d 033e d50a 0abb 5e9b f9bc 0a24 d93d
000000d0: a33c 753e 56d4 c83d 1daa 4e3d c819 2e3e
000000e0: bc12 4abe 15e6 6ebe 42cc 8f3e 152c bd3c
000000f0: 8b8d f23d fd36 c53e dc57 863e 7154 a93e
0.06739063 0.29797685 0.23614222 0.38107643 0.07513938 -0.029386543 0.22599474 0.062091254
-0.04953055 0.055229366 0.010393429 0.48454148 0.18413672 -0.01935263 -0.11994331 0.4049309
0.06902332 0.12599525 0.18822625 0.0903812 0.08355899 -0.058958486 -0.138925 0.16056988
-0.1251199 -0.07235354 0.067443 0.067798175 0.2009995 0.15516552 -0.03691393 -0.061874576
-0.13940854 -0.09677233 0.013274508 -0.050415467 -0.07058017 0.023191053 0.19959335 -0.29978234
0.28450975 0.0035686814 -0.08148835 -0.037457917 0.045007426 0.14811835 -0.11737187 0.065661475
0.12810229 -0.0021063585 -0.030469593 0.10602577 0.23948912 0.09806125 0.0504552 0.17002022
-0.19733709 -0.23329957 0.28085524 0.023092309 0.118434034 0.38518515 0.26238906 0.33072236

lstm.weight_ih_l1 f4 [64, 32]
00000000: ad77 9ebd 0029 08be d7b9 cabe fe21 713e
00000010: 0f63 623e df2f 483e e2a3 343e 9429 0ebe
00000020: aca3 70be c2e7 36be 381b 92be 2a77 a8be
00000030: e348 debd 7f3f d93d fafc 723e af05 35bf
00000040: dac0 a2bc 3659 a5bd 3182 ccbe fab0 d93e
00000050: bd96 a0be 7f7f 87be 4b62 7cbd 6b5a 8d3c
00000060: 1550 f33b 3c0e fbbe 1c00 02be 48a4 0a3f
00000070: b0e3 eabd 8cd0 23bc 66cd 6ebe f7d0 c8be
00000080: 61c6 063f 6a40 04be e4c6 98bd 925c 423e
00000090: d16a a2be a731 b13d d3ed 2c3f 74e5 b5bc
000000a0: 2c76 693e f0d2 233d 5337 873e 22c6 703e
000000b0: 1021 073f 9dd9 b4be 732d 10bf 1d07 1f3e
000000c0: 584f 31bd 01ef 1f3f f40f 433e 73e3 7cbe
000000d0: c6e6 2c3f 0c33 bb3e 7a01 90be 379d f13d
000000e0: 136b e9bc 0413 a53e b502 053e 6eba 5a3c
000000f0: 28a7 16bc 3aa6 b83e ff08 783d 1399 943e
00000100: fbf8 323e 117a debd dac0 f73d 337c 3e3e
00000110: 780d f2be c8f1 35be c4d4 8a3e fbf4 8cbc
00000120: 7383 7fbe ff8b 813e 9c19 e53d 24af 13be
00000130: 6769 883e fd3e b0be eefe d0be 4c9f f93e
00000140: 20dc d4be dd75 30bd fbc9 163d 5cbe 16be
00000150: de4f e03e 6828 7f3e 9f69 813c a276 bd3d
00000160: cc4b 6bbe 7eb8 263e 9423 9fbe 27b3 193c
00000170: c7e0 aebe 032d bc3e 74e0 133f 7e24 f23d
00000180: c34b fe3d 4cec c8bd a1d5 a23d e227 283e
00000190: 8982 99bd ff61 833e 3978 803e 3f51 e73c
000001a0: a0d1 f13d fb8d 1abd de34 32be 8e87 773e
000001b0: 2284 3ebe 2dd3 c93e 430b 9b3e d57d f4be
000001c0: 3f5c 2e3e c9f4 84be a36b ddbe 72aa 99bc
000001d0: b0cc 063e 5e8a a6bd acc1 90bc c45d f73d
000001e0: 0ff9 97be 4585 f03c 84ae 8dbe 9045 413e
000001f0: 04da 383d 995d 583e 03b9 a03d 3a18 4abe
00000200: 3eb3 abbe e6d4 bebd b769 c3bd 74ee 33bd
00000210: 4598 053e e417 593e de77 e23d e2aa c53e
00000220: 18d5 6fbd a42c aa3d 0ead 923e f033 993e
00000230: 87aa 8bbe ddae 04be 7590 843d 1852 b5bd
00000240: bf98 0e3e 8146 bebe 35d4 21be 774c 7ebe
00000250: 96f1 9ebc c007 89be f77a cabe c2e5 d93d
00000260: e79e 69bc 9a5a bf3e 7c81 26be ccca 8c3c
00000270: dc8e d93e 6363 083d 8fd8 b3bd 39ec 793d
00000280: 1c01 78bd 5a78 2fbe 61f4 5a3e 1196 ad3e
00000290: 5036 ac3c e1c1 9abd 93ac cdbc 0c33 ba3e
000002a0: 43b0 34bd c903 0e3e 887a bfbd 6881 353e
000002b0: d2a9 f83d 490f 7e3e 7f29 68bb dade 03be
000002c0: 2450 9e3e 19f8 1fbd 842a 9d3c acf2 bcbe
000002d0: 975b 4b3c a0ca 653e d33a 17bd df59 503e
000002e0: f08d 97be e6f4 273d e8cb 653d 6b5b 6c3c
000002f0: e837 1c3e 553d 4d3d 1e75 f83e c46d f33d
00000300: fc62 2abc 3a17 0f3f da55 c8bd 4184 16be
00000310: 4fd1 f3bc bf76 013e b25e 873e 90bc a43c
00000320: 9876 92be 90b6 f73e 4cc7 8a3e 2995 89be
00000330: 4c9e 46be 7490 8d3e 9c2e efbc 8ab8 3bbe
00000340: 7921 0cbe 0810 2b3e e745 0cbf 4cd2 943e
00000350: 1eb2 40be 863a a3be 23db e2bd 50bb 943e
00000360: 62e9 ae3e e2f4 e8bd c465 9d3e f4a5 da3d
00000370: 3169 1ebe dfdc e8be b009 82be 38a4 88bc
00000380: f51d 0ebf 823f 5e3e 88b5 afbd 3635 2bbe
00000390: ccd4 23be 6c97 a73c 0dd4 9bbd bd8e f13d
000003a0: fdcc 4b3e 4f71 89be b42a 25bd 74f6 353e
000003b0: ff04 8abe 2034 8a3e 5693 973e 1419 a9bc
000003c0: c179 b73e c4ef afbe b7f1 22be 9ed6 773d
000003d0: 1a44 a2bc caf3 a3bd 98da f4bc 7500 da3e
000003e0: cb27 5ebe 7603 45bd 19bf 2ebd af08 0e3f
000003f0: 9a7c 023f 4649 08bd 4a1d 9f3e 85a8 913e
-0.0773767 -0.1329689 -0.3959491 0.23548123 0.221081 0.19549511 0.17640641 -0.13883048
-0.23499936 -0.17861846 -0.2853639 -0.32903415 -0.10853746 0.10607814 0.23729315 -0.707118
-0.01986735 -0.08073656 -0.39943078 0.42517835 -0.31365004 -0.2646446 -0.061617177 0.017255029
0.007425318 -0.49034297 -0.12695354 0.54156923 -0.11469209 -0.009998452 -0.23320541 -0.39221928
0.5264645 -0.12915197 -0.074598104 0.18980625 -0.3172212 0.086520486 0.6755039 -0.022204138
0.22798985 0.039996088 0.26409397 0.23513082 0.52784824 -0.35322276 -0.5631935 0.15530057
-0.04328856 0.62474066 0.19049054 -0.2469614 0.6753963 0.36562383 -0.28126127 0.117975645
-0.02849344 0.3224107 0.12989314 0.013350112 -0.009195127 0.3606432 0.060555454 0.29023036
0.17477791 -0.10863126 0.120973304 0.18602066 -0.472759 -0.17768013 0.27115452 -0.01720666
-0.24952488 0.2530212 0.11186525 -0.1442228 0.26642916 -0.34423056 -0.40819496 0.48754346
-0.41574192 -0.043081153 0.036813717 -0.14721054 0.43810934 0.24917758 0.015797434 0.09251143
-0.22978133 0.16281316 -0.3108183 0.009381092 -0.34155867 0.3675309 0.57764363 0.118233666
0.12416794 -0.09810695 0.07950903 0.16421464 -0.07495601 0.25660703 0.25091723 0.028236983
0.11807561 -0.03773306 -0.1740298 0.24172804 -0.18605092 0.39418927 0.3028203 -0.47752252
0.17027377 -0.25968006 -0.43246183 -0.018758032 0.1316402 -0.0813186 -0.017670475 0.12078431
-0.29682204 0.029360423 -0.27672207 0.18874192 0.04512979 0.21129455 0.07847788 -0.19735804
-0.33535188 -0.09317951 -0.09541648 -0.04392858 0.13046367 0.2120052 0.11058019 0.38606936
-0.05855283 0.08309296 0.28647655 0.29922438 -0.2727854 -0.1295733 0.064728655 -0.08853549
0.13925456 -0.37163165 -0.15803607 -0.24833857 -0.019402307 -0.26763725 -0.3954694 0.10639526
-0.014259077 0.3737381 -0.16260332 0.017186545 0.42491806 0.033297908 -0.0878154 0.061016295
-0.060547933 -0.17135754 0.21382286 0.33903554 0.021021992 -0.07556511 -0.025106704 0.3636707
-0.04411341 0.13868631 -0.09349543 0.17725146 0.12141766 0.24810518 -0.0035425124 -0.1287798
0.30920517 -0.039054964 0.019185312 -0.36903894 0.012411973 0.22440577 -0.036921334 0.20346783
-0.29600477 0.041005038 0.056102663 0.014426093 0.15255702 0.05010732 0.48526853 0.118861705
-0.010399576 0.55894816 -0.09782 -0.14698888 -0.029762892 0.12642954 0.26439434 0.020109445
-0.28606105 0.48381472 0.27105176 -0.26871613 -0.19396323 0.2764927 -0.02919703 -0.18332115
-0.13684644 0.16705334 -0.5479416 0.29066694 -0.18817946 -0.31880587 -0.11076953 0.29049158
0.34162432 -0.11374833 0.30741704 0.10676184 -0.15469815 -0.4548101 -0.25398016 -0.016679868
-0.5551446 0.21703914 -0.08579546 -0.16719517 -0.15999144 0.020457946 -0.07608805 0.11794803
0.19902416 -0.2684426 -0.040323928 0.17769796 -0.26956937 0.26992893 0.29604596 -0.020641841
0.35835078 -0.34362614 -0.1591252 0.06050741 -0.019807864 -0.080054834 -0.02988939 0.42578474
-0.21694867 -0.048099004 -0.042662714 0.55482 0.50971377 -0.033273004 0.31077033 0.28448883

lstm.weight_hh_l1 f4 [64, 16]
00000000: b913 b3bd cc5b a73e 01a1 84be 7f4d d1be
00000010: e7d6 913d 58ed 0f3e b71b 7a3c 72d7 b3be
00000020: 4164 a3bc c3ac 323e acc9 f5bd 9b09 92bd
00000030: 244d 683d b957 89be 46cc cfbe 7646 643e
00000040: 146d 273b 3f55 8e3e 843a 91bc bb4d 01bf
00000050: 0e4d d03d 5764 c93e 0a91 ebbc 21cf fabd
00000060: 0f9d 9bbd a2ca 2cbe 2a08 a63e 5f95 df3e
00000070: 478d 24be ca9c 153e 83d7 d13d a240 683e
00000080: e893 15be 8727 1e3d 833b 42be d974 8fbd
00000090: 8c4b bf3c 6ab3 003e 77c1 013e edcc 2ebe
000000a0: 41c3 1bbd 37a6 ccbd 5d00 863d 77a9 f7bc
000000b0: d33c 6abe 093e f7bd 2aba dcbc b9fe 17be
000000c0: 94f4 4e3d b6fc aabe d6ad d7bd 3660 403d
000000d0: a1e7 92bc 56b2 a73d dbe5 65be 1462 24be
000000e0: f5c0 983d 6abf c4bc 456b db3e 03a1 ad3e
000000f0: c888 db3d 422b 1a3e 93a9 713e 4c9a b8bd
00000100: be5b 1f3e abe1 8dbe ee60 c73d dd5c 993e
00000110: 8805 513c a2b0 ebbe 4dbf d5bd 515e 113e
00000120: 9876 833d 75e2 18be ce4b a53e 369a 2abe
00000130: 494f 523e 697d 323e 5681 85bd 7a0d 16be
00000140: 6f13 6a3d 1676 d5bd 08a2 683d d726 c0be
00000150: 3232 aa3e 55cd a33e 511c 8d3e 3ea0 4a3e
00000160: 9ce7 993e 875c abbe 0617 9c3e d570 153f
00000170: 936f 2abc 50bb b4bd 5b03 733d 6716 a33e
00000180: ac8f a6be 7772 c5bc d9ec 9fbd 9b55 d9be
00000190: 2a6c 7abc 1be8 273e 2345 c3bd e903 73be
000001a0: 6e07 003e 3e91 24ba 5b7b d7bd f39e de3e
000001b0: 4413 143e ff74 343e af42 af3c 699d 413c
000001c0: 19b3 11be 9354 dd3e 6fdb 97be 4f14 b5be
000001d0: 7d4c 353e 418b 7b3d 3c82 8d3e 6471 6cbe
000001e0: ebc2 893d 2c7f dbbd a850 1e3e 294c f93b
000001f0: e16e 51bd c275 e13d f54f 4fbd d2ab adbd
00000200: 196d 2d3e a37c 3bbd 1ed1 0f3e 3885 02be
00000210: 03e1 c43c 7cc7 ac3e 65a9 3fbe e01f f53d
00000220: c07b 22be b4e1 fb3d abbe ee3e 5a5f 05be
00000230: b32b 63be 5d55 0e3d 673a 9d3d 6591 0dbe
00000240: f504 c63e e583 16be f238 b43e bcee e33d
00000250: 91f0 c5bd 0ee1 69be 0357 afbe 2de6 c33e
00000260: 2a45 773e 567b a8bd 4d51 193e 34bb c8bc
00000270: a8cb 5c3d 2585 4b3e 0559 bf3e dc60 9c3e
00000280: 0514 9a3e 20f6 d63b 9852 9e3e ec0f e53d
00000290: 466e 003e 7e69 2fbe aba9 d8bc 5eaa 27be
000002a0: b030 36bd 0e5f 97be c025 5f3e 3200 f6bd
000002b0: 5d59 28be 5a85 b83e 43dd cdbe 97a0 733e
000002c0: e178 043f 062d ddbd 3d58 953c abed 513e
000002d0: b34d f0bc ad2d 0cbe d68c 93be 4fbb 383f
000002e0: c478 6f3e fa01 a7bd d1c0 8fbe 582a 073e
000002f0: 3e40 b43e 2215 4dbe ce45 cf3e 1e41 c93d
00000300: 3642 dc3e 9afc 70be 9e8f 903d 6703 8fbd
00000310: a7bf 2ebe e344 87bd 5e56 0a3c 728d 473e
00000320: 9629 6a3d 5225 833e 3e75 eb3b b21c 02be
00000330: 8f6b d03e 7322 073e 590c 9cbd 7e7a 863d
00000340: f7c9 e03d b151 973c 43bc f2bd 1e25 67be
00000350: dc4f 50bd 16d8 0d3e 42b0 acbe edc7 b13e
00000360: f408 e43e fdac 133c bb64 5b3e 03e1 023e
00000370: 7e64 723d ed09 9b3d 319d a4be 28bf 77be
00000380: 0b4d 4abe 2faa d53e 267d 293e 176b e0be
00000390: 4e9e 043e 57d4 8f3e 59dd 7ebc 05d0 88be
000003a0: f232 903e 3ef9 583e c6ba 96be 99ab 0f3e
000003b0: a2c4 cebc d531 b7be e083 90be d40d d83d
000003c0: dd1d fc3e 7c9c 0bbf dfb9 893d 23e8 0e3f
000003d0: 1e84 1e3d 25af 9cbe 7db1 d7be 02a4 883e
000003e0: a42b 85bd 2273 2a3d 09b8 b4bc 3ce0 a9be
000003f0: 0040 363c e950 8fbe d335 6e3e dc9e abbd
-0.08743996 0.32687223 -0.25904086 -0.40879437 0.071210675 0.14055383 0.015265397 -0.3512531
-0.019945266 0.17448716 -0.120013565 -0.07130738 0.056714192 -0.2682474 -0.40585536 0.22292504
0.0025547193 0.27799413 -0.017728098 -0.5050923 0.10170947 0.39334366 -0.028755683 -0.12246538
-0.07598316 -0.16874173 0.32428104 0.4366865 -0.16069518 0.14610592 0.10246184 0.22680905
-0.14607203 0.038611915 -0.18968014 -0.07004709 0.023351453 0.12568441 0.12671457 -0.1707036
-0.038028006 -0.099926405 0.06543038 -0.030232174 -0.22874765 -0.12072379 -0.026944239 -0.14843263
0.050526217 -0.33395928 -0.105312034 0.046966754 -0.017932715 0.08188312 -0.22450964 -0.16053039
0.07458679 -0.024017055 0.42855278 0.33911905 0.10719448 0.15055564 0.23599844 -0.09013805
0.1556234 -0.27711233 0.09735285 0.29953662 0.012757666 -0.46033198 -0.10436878 0.14196135
0.06419104 -0.14930137 0.32284397 -0.1666039 0.20538057 0.17430653 -0.065188095 -0.14653578
0.05714744 -0.10422914 0.05679515 -0.37529632 0.3324142 0.31992593 0.27560666 0.1978769
0.30059516 -0.3346903 0.30486315 0.58375293 -0.010402578 -0.088247895 0.059329372 0.3185303
-0.32531488 -0.024102433 -0.07808847 -0.42448124 -0.015284577 0.16397135 -0.09534671 -0.2373196
0.12502834 -0.0006277746 -0.10521575 0.43480644 0.14460474 0.17622755 0.021394102 0.011817315
-0.14228477 0.43228588 -0.29659602 -0.35367057 0.17704959 0.0614121 0.27638423 -0.2309013
0.06726631 -0.107176155 0.15460455 0.007607956 -0.051131133 0.11008789 -0.050613362 -0.08480038
0.16936149 -0.04577316 0.14044616 -0.12746131 0.024033075 0.33745944 -0.18716963 0.1196897
-0.1586752 0.12298909 0.46629843 -0.13024655 -0.22184639 0.034749378 0.07677155 -0.13824995
0.38675657 -0.14698751 0.35199696 0.11129519 -0.09665025 -0.22839758 -0.34246072 0.38261548
0.24147478 -0.082266495 0.1497242 -0.024503328 0.05390516 0.1987501 0.37372604 0.30542648
0.300934 0.006560102 0.3092239 0.111846775 0.12542066 -0.17130086 -0.026448091 -0.16373584
-0.044480026 -0.29564708 0.21791744 -0.12011756 -0.1644034 0.3603924 -0.40207872 0.23791729
0.51746947 -0.10799603 0.018230552 0.2050082 -0.029333925 -0.13689299 -0.28818387 0.7216081
0.23385912 -0.08154674 -0.28076795 0.13199747 0.35205263 -0.20027593 0.40482944 0.09826873
0.43019265 -0.2353386 0.07058643 -0.06983071 -0.17065297 -0.06604936 0.008443443 0.19487551
0.057168566 0.2561441 0.007185607 -0.12706259 0.4070706 0.13196735 -0.07619543 0.06566332
0.10976022 0.01847157 -0.11852314 -0.22572753 -0.05085741 0.13851961 -0.33728224 0.34722844
0.4453808 0.009013412 0.21425144 0.12781148 0.059177868 0.075702526 -0.32151178 -0.24194014
-0.19755952 0.41731402 0.16551647 -0.43831703 0.12951013 0.2809169 -0.015555703 -0.26721206
0.28163868 0.21188828 -0.29439372 0.14030303 -0.025240246 -0.35780206 -0.28225613 0.105495125
0.49241534 -0.5453565 0.06724905 0.5582296 0.038700216 -0.30602375 -0.421276 0.26687628
-0.065024644 0.041613705 -0.022060411 -0.3317889 0.011123657 -0.27991417 0.2326272 -0.083799094

lstm.bias_ih_l1 f4 [64]
00000000: 8e32 14be e287 fb3d 6c6a 273e 7634 723e
00000010: 17d2 933e 0696 6abd a861 753e 36d5 ee3c
00000020: 3fb7 3d3e a70d cb3e e7e4 2f3d 47cf c23e
00000030: 5b21 a03d d190 8abd f22a 783d b167 1e3d
00000040: f0d6 22be 0cbe 86bc 5793 513e dc87 90bd
00000050: 722f 95be 8086 3bbe bbe0 083c 6a28 953d
00000060: 9662 a2bc 3ad3 063f 2b4f b23d 9744 233c
00000070: cd84 17be f8e7 863c 4ada 8a3d e21f e4bc
00000080: abdd 193e e74d 6abd 541c d83e 3863 673d
00000090: 5f69 6dbc 5c54 033d eb9f 5dbe 6471 87bd
000000a0: 75bb 1f3e fd66 38be b4e5 d43d 5c6c 4d3e
000000b0: 8024 17be b457 e7bc 04f2 173e 846d 2e3d
000000c0: e342 83be a5ac 883e d12c 163d 5285 4d3e
000000d0: 21e1 7e3e 05ec 5d3e b43a a43d 1b32 29be
000000e0: 418f ae3e a933 aabd 7dfc 5a3e f231 d93e
000000f0: d661 6b3e e9ec c03e a48a bdbd 8b19 de3e
-0.1447241 0.12281777 0.1634919 0.23652825 0.28871223 -0.05727198 0.23963034 0.029154401
0.18526934 0.39658853 0.042942908 0.38048765 0.07818862 -0.06765903 0.06058783 0.038673107
-0.15902305 -0.016448043 0.20466362 -0.07057163 -0.2913776 -0.18313026 0.008354361 0.07283099
-0.0198224 0.52666056 0.08706506 0.009965084 -0.14796753 0.016468033 0.067799166 -0.027847234
0.15025966 -0.0572032 0.42209113 0.056491107 -0.014490454 0.032062873 -0.21643035 -0.066134244
0.15598853 -0.18008037 0.10395375 0.20060867 -0.14760017 -0.028240062 0.14838415 0.04258491
-0.25636968 0.26694217 0.036663834 0.20070389 0.24890567 0.21672066 0.08019009 -0.1652302
0.3409367 -0.08310635 0.21385379 0.42420918 0.2298654 0.37680748 -0.09254959 0.43378863

lstm.bias_hh_l1 f4 [64]
00000000: fd15 453d d463 58bd 50ca 8d3e 354a 08bd
00000010: 97be 42bd d455 673e 8065 a13e 68f3 a3bd
00000020: fe8a 2bbe 1930 e83e a407 9d3e e1f8 8f3e
00000030: fd75 77be a4cd c43e 8f12 dbbc 8aab 863d
00000040: 0349 abbe 77b8 863d c641 463e 84fe 563c
00000050: 8119 253c 2ac6 35bd 780d 25be eb8e 92be
00000060: ba22 0c3e e0f9 c63e 80a3 99be 69d5 9bbd
00000070: 7843 fa3d 58dd d2bc 61e3 66bd dc4d c6bd
00000080: 9194 a93c 7dc8 6abe 04fc b13e c98f 4cbe
00000090: 58a1 8b3e 62fc 2bbe 00f9 b0be 2b0c 073e
000000a0: f43e 2f3d 6495 fdbd 634c cbbd 3789 8a3e
000000b0: fd23 25be 8c9b f13d 72ba 933e 7c50 463e
000000c0: a7d0 ea3d c4b9 8cbd b4c2 2ebe 0714 523d
000000d0: b979 4f3d 66f3 063d 1cfd 2d3e 1f51 6fbe
000000e0: 97eb 813e 39d1 a53e 6b3b aa3e 9a99 2c3f
000000f0: 006d 713e 8e29 3c3e c5a4 7bbd f84c db3c
0.048116673 -0.05282958 0.27693415 -0.033273894 -0.047545042 0.22591335 0.3152275 -0.080054104
-0.1675224 0.45349196 0.30669892 0.28119567 -0.24166103 0.3843814 -0.026742248 0.06575687
-0.3345414 0.065781526 0.19361028 0.013122205 0.010076881 -0.044378437 -0.16118419 -0.28624663
0.13685122 0.38862514 -0.30007553 -0.07609064 0.122199 -0.02574031 -0.05636919 -0.09682819
0.020700725 -0.22928043 0.34762585 -0.19976725 0.27271533 -0.16795495 -0.34564972 0.13188235
0.042784646 -0.123820096 -0.09926679 0.27057812 -0.1612701 0.11797246 0.28853184 0.1936664
0.114655785 -0.068713695 -0.17066461 0.05128863 0.050653193 0.032946967 0.16991085 -0.23370789
0.25375053 0.32386187 0.33248457 0.6742188 0.23576736 0.18375227 -0.061436433 0.0267701
