trained_models/mNPC_left_out_model.pth (torch, 964687 bytes, 26 tensors)

lstm.weight_ih_l0 f4 [256, 9]
0.16463041 -0.058862973 -0.03245491 0.091999084 -0.11674957 0.12324932 0.001991273 0.09927227
0.09953952 -0.1484451 0.10387112 -0.17260467 0.037716795 0.021758111 -0.07887519 -0.010589699
-0.027466195 0.0724208 0.07375211 0.10960921 0.0038311793 -0.10158881 0.03024071 -0.058398213
0.0039377436 0.1426643 0.19119513 0.070710965 -0.426492 0.028113702 -0.033134542 0.062323403
0.07835938 -0.14809349 -0.1200711 -0.13463417 -0.01040497 -0.18039876 -0.0017259143 -0.08348148
0.16300285 0.041094754 0.0061910357 -0.0062247314 -0.14190382 0.05575094 -0.034591015 0.069113754
-0.07333612 -0.0641301 -0.022587039 -0.07477302 0.092110515 -0.1331829 -0.013228208 0.13955367
0.08575526 -0.016190391 0.13483831 0.06110953 -0.023019945 0.13513926 -0.024962408 0.0840308
-0.051779386 -0.17199232 0.0905372 -0.19889289 0.004281711 -0.24312827 -0.0019439075 -0.0742246
0.098262936 -0.2283006 -0.010754109 0.03079326 0.06478521 0.03571311 -0.16943488 0.10058029
-0.14138047 -0.08573166 -0.09371334 -0.017391313 0.08292215 -0.044788964 -0.04499256 0.12472888
-0.040955253 0.028687205 0.038498126 -0.10538293 0.015306091 0.04379453 -0.17255922 -0.07441532
0.08798897 0.09934071 -0.19429748 -0.19971128 0.54711634 -0.07395123 0.1028846 0.15394594
-0.07230335 -0.034825023 0.06761943 -0.14265995 0.07078781 0.031395085 0.03799689 0.110683985
0.13746282 -0.14702979 0.13941802 0.029073453 0.10671819 0.059066292 -0.049733486 -0.027865136
-0.17082375 -0.061583575 0.21433093 -0.06298863 0.106615655 -0.15027443 -0.099893495 0.15825926
0.07580935 0.05914936 -0.029334709 0.2444466 0.06715235 0.06256561 0.059648648 0.13422257
0.16498005 -0.06605988 0.010037 -0.24598789 -0.039324716 0.021374913 -0.013021537 0.102086335
-0.050143246 0.12736621 0.0061657415 -0.017032154 -0.01488478 0.04512126 0.031728115 0.103306375
0.041782588 0.03754111 -0.23604289 -0.14780311 -0.081855565 -0.06974471 0.18369944 -0.028060386
-0.0888096 -0.038614962 -0.00056821463 -0.18360463 -0.09200511 0.028032849 0.04881801 -0.14386609
-0.08910012 -0.085384086 -0.08432086 -0.13435344 0.107286744 -0.1374451 0.094011374 0.09596002
0.040329266 0.045627177 -0.08603503 0.19070217 -0.11519204 -0.013722767 -0.2094492 -0.055236425
-0.03844357 0.14825027 -0.036383223 0.026523404 -0.024599344 -0.19100785 0.06148481 -0.09749651
-0.14988197 -0.1682127 0.09231578 -0.22828232 0.09563388 0.050115168 0.35217804 -0.17702541
0.12420698 0.040698104 -0.08662829 0.14041325 0.06975966 -0.031827524 0.036068797 0.19255127
0.09901275 0.13967131 0.2018971 0.038405355 -0.17041913 0.065893024 0.06987225 0.043652277
0.086463004 -0.35480425 0.047583718 0.18455115 -0.0829773 0.21560451 -0.14295325 -0.112114325
0.00847385 -0.048564672 0.00436103 0.3372948 0.33951855 0.49072933 -0.1003913 -0.0768234
0.114433825 0.033625852 -0.027444346 0.01515025 0.058432974 0.0017529079 0.14063758 -0.09107971
-0.08657993 0.06882786 0.05349267 -0.08602734 -0.077837676 -0.0013328315 -0.08777528 -0.092522666
0.011911364 0.13138686 0.07144156 -0.057806388 0.05241947 0.0040030163 0.16773006 -0.06494758
00000000: e094 283e 4d1a 71bd 71ef 04bd 046a bc3d
00000010: 661a efbd 246a fc3d 0480 023b 434f cb3d
00000020: 60db cb3d fe01 18be 62ba d43d 47bf 30be
00000030: ed7c 1a3d 113e b23c 5189 a1bd 6b80 2dbc
00000040: c900 e1bc 5b51 943d 590b 973d cb7a e03d
00000050: 8614 7b3b cb0d d0bd 5ebb f73c f732 6fbd
00000060: 3008 813b 9716 123e a8c8 433e e9d0 903d
00000070: 295d dabe b54e e63c 16b8 07bd d346 7f3d
00000080: e27a a03d d2a5 17be d6e7 f5bd 8add 09be
00000090: 9b79 2abc 74ba 38be 1338 e2ba 57f8 aabd
000000a0: 38ea 263e f952 283d 2cde ca3b d5f8 cbbb
000000b0: 3c4f 11be 195b 643d 4faf 0dbd 838b 8d3d
000000c0: 3f31 96bd a456 83bd 7408 b9bc 9922 99bd
000000d0: 70a4 bc3d 1961 08be 20bb 58bc 28e7 0e3e
000000e0: 74a0 af3d b6a1 84bc 0e13 0a3e fd4d 7a3d
000000f0: 5394 bcbc f261 0a3e f77d ccbc 5718 ac3d
00000100: 9f16 54bd c11e 30be 916b b93d 94aa 4bbe
00000110: 984d 8c3b 9ef6 78be b6ca feba 1103 98bd
00000120: 143e c93d a2c7 69be 0132 30bc 2642 fc3c
00000130: 1cae 843d e947 123d 5680 2dbe 0afd cd3d
00000140: 0bc6 10be 1594 afbd c8ec bfbd 3a78 8ebc
00000150: 17d3 a93d a274 37bd 1e4a 38bd db71 ff3d
00000160: b2c0 27bd 6e01 eb3c 36b0 1d3d 01d3 d7bd
00000170: 66c6 7a3c e561 333d 5db3 30be 0f67 98bd
00000180: 9033 b43d 2473 cb3d ebf5 46be 1d81 4cbe
00000190: d10f 0c3f be73 97bd 29b5 d23d 01a4 1d3e
000001a0: c713 94bd afa4 0ebd 0e7c 8a3d 7315 12be
000001b0: 33f9 903d 2298 003d a0a2 1b3d 49ae e23d
000001c0: 0ec3 0c3e fa8e 16be 99c3 0e3e 732b ee3c
000001d0: 118f da3d 7fef 713d 57b5 4bbd 6d45 e4bc
000001e0: 6cec 2ebe 0f3f 7cbd 9179 5b3e 2f00 81bd
000001f0: 4f59 da3d 8ae1 19be f694 ccbd b70e 223e
00000200: ef41 9b3d 9946 723d 584f f0bc 3650 7a3e
00000210: 2c87 893d 6622 803d 2452 743d a471 093e
00000220: 88f0 283e 674a 87bd 3b72 243c 40e4 7bbe
00000230: f412 21bd 711a af3c 4958 55bc a412 d13d
00000240: 0163 4dbd 4a6c 023e fd09 ca3b 0487 8bbc
00000250: 4bdf 73bc 12d1 383d 57f5 013d 4b92 d33d
00000260: 3824 2b3d b5c4 193d 3ab5 71be b359 17be
00000270: e4a3 a7bd 51d6 8ebd b51b 3c3e e5de e5bc
00000280: cfe1 b5bd b92a 1ebd 3df4 14ba da02 3cbe
00000290: 2d6d bcbd 25a5 e53c 65f5 473d a251 13be
000002a0: 207a b6bd dadd aebd 6ab0 acbd f393 09be
000002b0: 27b9 db3d 69be 0cbe 0989 c03d b086 c43d
000002c0: 4d30 253d 90e3 3a3d 2233 b0bd 6e47 433e
000002d0: cee9 ebbd 75d5 60bc da79 56be 973f 62bd
000002e0: 0177 1dbd ebce 173e 9306 15bd 9c47 d93c
000002f0: 9084 c9bc 9097 43be 7fd7 7b3d 40ac c7bd
00000300: a97a 19be f33f 2cbe 0e10 bd3d d7c2 69be
00000310: b2db c33d 9045 4d3d ae50 b43e 2646 35be
00000320: 3b60 fe3d 0eb3 263d 2c6a b1bd 7ec8 0f3e
00000330: 27de 8e3d 945d 02bd e0bc 133d 292c 453e
00000340: 32c7 ca3d ff05 0f3e 1dbe 4e3e ef4e 1d3d
00000350: 5a82 2ebe ecf2 863d 2f19 8f3d bbcc 323d
00000360: 8413 b13d e7a8 b5be 25e7 423d fafa 3c3e
00000370: 01f0 a9bd 6ec7 5c3e 5662 12be 329c e5bd
00000380: e7d5 0a3c c0eb 46bd f9e6 8e3b e7b1 ac3e
00000390: 60d5 ad3e e040 fb3e f499 cdbd 9655 9dbd
000003a0: 485c ea3d 43bb 093d f7d2 e0bc c138 783c
000003b0: 6a57 6f3d d4c1 e53a 4c03 103e 0088 babd
000003c0: d150 b1bd 9ff5 8c3d 211b 5b3d 1a2f b0bd
000003d0: 5c69 9fbd 67b2 aeba 87c3 b3bd 867c bdbd
000003e0: e227 433c 478a 063e f44f 923d 64c6 6cbd
000003f0: ccb5 563d bc2b 833b 6ec1 2b3e 3d03 85bd

lstm.weight_hh_l0 f4 [256, 64]
-0.06923029 -0.25764307 -0.19102004 -0.23113267 0.12311949 0.099445 0.046397865 0.114521995
-0.06190561 0.056499887 -0.34869757 -0.28298968 -0.3312316 0.07383571 0.14436908 0.065064296
0.016214285 -0.4100196 0.0500661 -0.23901702 0.046960514 0.072141215 -0.031261075 -0.1622414
-0.07327597 0.26596075 -0.27047798 -0.30456287 -0.24922884 -0.08777048 -0.41659912 -0.1581146
0.37806138 -0.3905999 -0.15728568 -0.05505705 0.037187524 -0.35017774 -0.31756642 -0.24544188
0.18245463 -0.18562296 0.19614352 -0.2714794 -0.087194346 0.21542808 0.06130939 0.29469952
-0.21658146 -0.3114588 0.25236258 0.29186532 0.13474707 -0.28564367 0.05751216 -0.20751187
-0.3825962 0.26032835 -0.121536836 -0.24412835 -0.08072958 0.09650099 -0.3371757 0.19424574
0.20465185 -0.11960239 -0.105191655 -0.084042795 0.08965924 0.033037562 0.1198249 -0.07463122
-0.069226176 0.13945183 -0.002842612 -0.19171995 -0.19183107 0.00379896 -0.033777855 -0.0006705594
0.06749259 -0.24137157 0.06107232 -0.13497047 0.08924361 -0.01806475 -0.020253237 -0.2100514
-0.1541344 -0.077494524 -0.090260535 -0.01552925 0.028759135 -0.016005294 -0.21990725 -0.0067844936
0.0005127179 -0.02826591 0.080496415 0.16671658 0.2270622 -0.15879588 -0.1312082 0.009639917
-0.05633558 -0.13340443 0.054140724 -0.029692385 -0.16678317 0.172437 0.11707136 0.12508649
-0.11713646 -0.09864067 -0.07424227 0.17572388 -0.00033951266 -0.07931818 -0.040301688 0.01539867
-0.19068913 0.023923839 -0.066400535 -0.11034375 0.07330229 0.09457818 -0.07177069 -0.017963048
0.14116707 0.027198208 0.014035028 0.14712912 -0.06177126 0.07735086 -0.13176563 0.059588667
0.04192171 -0.103466794 -0.038408533 0.05327211 0.013787286 -0.03766909 0.016379047 -0.08439412
0.05859568 0.09275346 0.08652424 0.029876908 -0.0903127 0.09009115 0.06088168 0.1749843
0.011751709 0.010766831 0.0033621925 -0.09957108 0.022746243 -0.12966381 0.00459657 -0.063626185
0.18524803 -0.026992247 -0.008821798 -0.14957654 -0.08989185 0.03887504 -0.12581041 -0.17161708
0.048980482 0.029425919 0.024841614 -0.082167 -0.12383192 -0.20956995 0.026639959 -0.25514716
-0.09284513 0.10355586 -0.07145209 -0.00051878486 -0.019018753 0.041888118 -0.004964844 -0.17164935
-0.024442798 0.15275393 0.12440565 0.2026043 0.07322183 -0.07839719 0.051109686 0.10769715
0.3467882 -0.06771925 -0.24012943 0.007468428 0.13121872 0.026937868 0.104916364 -0.056974776
-0.13950592 -0.01577249 -0.16628689 -0.070052065 -0.17144048 0.058560036 0.11594903 0.069426194
-0.04747077 -0.06372619 -0.095594615 -0.27702942 0.03138268 0.020320777 0.106505014 -0.012943973
-0.1247576 0.12757212 -0.15884878 -0.108354546 -0.12942912 0.027439205 -0.19138683 -0.24100971
-0.068014614 -0.06375386 -0.11913754 -0.18842629 -0.15331583 -0.18636444 -0.05907966 -0.298629
-0.04291511 0.028123936 0.17817858 -0.24304046 -0.009635154 -0.036468558 0.13258985 0.052896086
-0.00799433 -0.18917125 0.09971126 0.2705078 0.107162036 -0.17454317 0.056461643 -0.18094075
-0.116337955 0.124606706 -0.026580522 -0.081250794 -0.06863602 0.0036581745 -0.14996572 0.029628469
00000000: 9cc8 8dbd cbe9 83be c29a 43be 0bae 6cbe
00000010: 1226 fc3d d2a9 cb3d b00b 3e3d 828a ea3d
00000020: bd90 7dbd 6d6c 673d 7d88 b2be 06e4 90be
00000030: 3097 a9be 2d37 973d 7dd5 133e 6e40 853d
00000040: d2d3 843c 17ee d1be 1c12 4d3d e1c0 74be
00000050: ab59 403d c6be 933d 9d0b 00bd 9c22 26be
00000060: b611 96bd 022c 883e 177c 8abe aaef 9bbe
00000070: d835 7fbe 02c1 b3bd 7b4c d5be cbe8 21be
00000080: 4391 c13e b6fc c7be 7f0f 21be 8083 61bd
00000090: f251 183d 7f4a b3be 1198 a2be 1e55 7bbe
000000a0: 63d5 3a3e f213 3ebe d9d9 483e 59ff 8abe
000000b0: f392 b2bd 2e99 5c3e 8e1f 7b3d dbe2 963e
000000c0: 88c7 5dbe 8777 9fbe ab35 813e 5f6f 953e
000000d0: 23fb 093e e33f 92be df91 6b3d fe7d 54be
000000e0: a6e3 c3be c249 853e 4ee8 f8bd c8fc 79be
000000f0: 8d55 a5bd 50a2 c53d 4ba2 acbe 5be8 463e
00000100: 4190 513e 19f2 f4bd b96e d7bd a11e acbd
00000110: 439f b73d 6552 073d c266 f53d 41d8 98bd
00000120: 74c6 8dbd 76cc 0e3e 1e4b 3abb 3c52 44be
00000130: 5d6f 44be f9f7 783b a65a 0abd 7bc8 2fba
00000140: 8e39 8a3d 1c2a 77be f826 7a3d b335 0abe
00000150: 5bc5 b63d 87fc 93bc 1eea a5bc b717 57be
00000160: 68d5 1dbe 73b5 9ebd 84da b8bd 656e 7ebc
00000170: 4798 eb3c 891d 83bc 5e2f 61be 7550 debb
00000180: ea67 063a e98d e7bc 4edb a43d c0b7 2a3e
00000190: fe82 683e 639b 22be 715b 06be bef0 1d3c
000001a0: 23c0 66bd 2c9b 08be aac2 5d3d 723d f3bc
000001b0: 35c9 2abe 5393 303e 1cc3 ef3d ac16 003e
000001c0: 3ee5 efbd 1f04 cabd 550c 98bd f6f0 333e
000001d0: 9e00 b2b9 9271 a2bd 6213 25bd b44a 7c3c
000001e0: 0344 43be edfb c33c 01fd 87bd e7fb e1bd
000001f0: 831f 963d 34b2 c13d 83fc 92bd 3e27 93bc
00000200: 1a8e 103e c7ce de3c 2df3 653c 04a9 163e
00000210: dc03 7dbd 216a 9e3d 92ed 06be 3f13 743d
00000220: 19b6 2b3d 66e6 d3bd 4452 1dbd db33 5a3d
00000230: 12e4 613c e74a 1abd 5a2d 863c d3d6 acbd
00000240: 0602 703d 87f5 bd3d 9f33 b13d 6bc0 f43c
00000250: ddf5 b8bd b581 b83d 125f 793d 162f 333e
00000260: 3d8a 403c 5d67 303c 3b58 5c3b eceb cbbd
00000270: 5456 ba3c 97c6 04be d39e 963b 724e 82bd
00000280: a9b1 3d3e d81e ddbc 4d89 10bc 982a 19be
00000290: 3819 b8bd 6f3b 1f3d 72d4 00be 63bc 2fbe
000002a0: c29f 483d a00e f13c a480 cb3c 2c47 a8bd
000002b0: 979b fdbd 8199 56be 0b3c da3c a6a2 82be
000002c0: 9625 bebd 1815 d43d 7955 92bd 10ff 07ba
000002d0: 37cd 9bbc e092 2b3d 21b0 a2bb d9c4 2fbe
000002e0: 433c c8bc 876b 1c3e 64c8 fe3d 8077 4f3e
000002f0: 54f5 953d b58e a0bd 6458 513d 5390 dc3d
00000300: 398e b13e 64b0 8abd 7de4 75be b7b9 f43b
00000310: 335e 063e ceac dc3c 64de d63d 625e 69bd
00000320: a4da 0ebe 4f35 81bc 1c47 2abe 7577 8fbd
00000330: 188e 2fbe a6dc 6f3d af76 ed3d 522f 8e3d
00000340: b670 42bd e082 82bd 1cc7 c3bd cdd6 8dbe
00000350: 208b 003d c277 a63c 4d1f da3d f512 54bc
00000360: ea80 ffbd 44a2 023e 41a9 22be fde8 ddbd
00000370: 1189 04be 2fc8 e03c e9fa 43be 40cb 76be
00000380: 3f4b 8bbd 6291 82bd 62fe f3bd d2f2 40be
00000390: d3fe 1cbe 52d6 3ebe 83fd 71bd e6e5 98be
000003a0: c1c7 2fbd 2b64 e63c 7274 363e 99df 78be
000003b0: c4dc 1dbc 0e60 15bd a2c5 073e 91a9 583d
000003c0: a6fa 02bc 1cb6 41be 6b35 cc3d 0080 8a3e
000003d0: c577 db3d 72bb 32be 5344 673d 8848 39be
000003e0: 9842 eebd cd31 ff3d 65bf d9bc d166 a6bd
000003f0: 0b91 8cbd fcbd 6f3b 9d90 19be 67b7 f23c

lstm.bias_ih_l0 f4 [256]
0.4964581 0.15162054 0.090946265 0.19192545 0.14595798 0.05038571 0.19900726 0.0837284
0.0033975164 0.079267435 0.02177539 0.08366684 0.12372921 0.004176147 0.0121076545 0.23968531
0.27825424 0.11897834 0.12156592 0.08166223 0.053728595 0.08161718 0.22557846 0.07915883
0.030370893 0.09754071 0.24327584 0.061151784 0.06953742 0.06601968 0.14528097 0.04303088
0.081348896 0.051007625 -0.014447225 0.1253729 0.25583836 0.1572615 0.16385351 0.011437854
0.11925891 0.14581962 -0.004722481 0.17537259 0.26583385 0.1250518 0.060559377 0.08977171
0.01800559 0.1369119 0.15694863 0.038304064 0.053082548 0.05474242 -0.011715249 0.20559978
0.21732497 0.026524877 0.22665071 0.13363643 0.17567326 0.19007309 -0.028425556 0.14794666
-0.085207134 0.02864336 -0.00993162 -0.061919868 0.059496727 -0.07340733 0.16019775 -0.08270293
0.14083548 -0.038807567 -0.037268005 0.16147414 0.08753248 -0.048394132 0.117762506 0.14727779
0.08751218 0.02967727 -0.08416409 0.101068 -0.02565346 0.04236482 -0.004861562 0.01725746
0.05103684 0.10689395 0.11468069 -0.028516237 -0.112502575 -0.10131832 0.10901659 -0.04753174
0.12203336 0.17454791 0.10922225 0.07543332 0.00048666564 -0.04748105 0.07864196 0.10404092
0.10085976 -0.031711854 -0.06362445 0.053860277 0.063559346 0.024837958 -0.03694992 -0.0052143754
0.040063817 -0.0121994205 0.12905465 0.1526478 0.013870496 0.04740104 -0.025043461 0.036729302
0.17599571 0.10643917 0.14210889 -0.017861161 0.04460719 0.068103045 0.023165643 -0.023522256
0.06403898 -0.010288227 -0.09642023 -0.097562104 0.14558752 -0.066665985 0.08173936 0.037314434
0.08483157 -0.054313336 -0.08518829 -0.10085747 -0.13313735 0.035615783 0.056675427 -0.027463518
0.09991039 -0.11123375 -0.0791449 -0.112600535 -0.039684705 -0.025250603 0.03550237 0.023253826
-0.09512118 -0.030381339 -0.08756523 -0.1413784 0.09940218 -0.033989444 -0.10085644 0.088948905
0.08996854 0.09120508 -0.055388168 0.04781487 0.09858233 -0.1291356 0.020320093 -0.1687709
0.012876879 0.06098365 0.10864311 -0.09930173 -0.02573559 -0.049364824 -0.023327425 -0.020560006
-0.051437084 -0.12609819 -0.01248657 0.12818563 -0.07823705 -0.094922654 0.063849114 -0.05586272
-0.064968795 0.06363999 0.020659832 -0.031764247 -0.05651382 -0.019180294 -0.06101171 0.090747476
0.37081113 0.18749927 0.0054133036 0.09333711 0.12010033 0.013275686 0.1881721 0.18470518
0.1237408 0.22930764 0.14279851 -0.014117645 -0.038215764 0.09393943 0.08079232 0.35178092
0.17392962 0.050907 -0.054964397 0.13283542 -0.0031223597 -0.033784162 0.17423739 0.0403556
0.08458317 0.21635294 -0.014926931 0.19266552 0.1749028 0.09722099 0.08120275 -0.0059958054
0.16210161 -0.019436302 -0.013257069 0.3177601 0.1493222 -0.013074151 0.16459262 0.156513
0.06884496 0.108586356 0.066243924 0.017439699 0.2671677 0.043941807 0.081801675 0.2153692
0.025718115 0.0064127585 0.15615469 0.12087958 0.12728786 0.22150508 0.19662787 0.028706137
0.034786224 0.07304357 0.030332016 0.038774844 0.03597815 0.18818973 -0.07222525 0.049755864
00000000: c22f fe3e 6a42 1b3e 0942 ba3d 1b88 443e
00000010: 0276 153e 3f61 4e3d 8fc8 4b3e cc79 ab3d
00000020: dea8 5e3b f756 a23d 4d62 b23c 8559 ab3d
00000030: bd65 fd3d 0fd8 883b 2f5f 463c 1170 753e
00000040: 5777 8e3e eaaa f33d 8ef7 f83d 873e a73d
00000050: 8412 5c3d e826 a73d 0afe 663e 061e a23d
00000060: 61cc f83c 6cc3 c73d 4d1d 793e 4b7a 7a3d
00000070: a369 8e3d 5335 873d 89c4 143e 2641 303d
00000080: 409a a63d 5fed 503d 0eb4 6cbc c161 003e
00000090: 3ffd 823e 2909 213e 37c9 273e d665 3b3c
000000a0: 043e f43d bd51 153e 0bbf 9abb df94 333e
000000b0: 601b 883e 940d 003e 1c0d 783d 3bda b73d
000000c0: 7680 933c a232 0c3e 24b7 203e b9e4 1c3d
000000d0: 166d 593d 9639 603d 51f1 3fbc c088 523e
000000e0: 708a 5e3e b34a d93c 2017 683e fdd7 083e
000000f0: b1e3 333e 85a2 423e b6dc e8bc 547f 173e
00000100: 1481 aebd 7ba5 ea3c 3cb8 22bc b09f 7dbd
00000110: d7b2 733d 9556 96bd e10a 243e 2760 a9bd
00000120: 2d37 103e aff4 1ebd 56a6 18bd 7a59 253e
00000130: 3b44 b33d ed38 46bd 782d f13d fdcf 163e
00000140: 9639 b33d bf1d f33c 395e acbd bdfc ce3d
00000150: 3427 d2bc bc86 2d3d bd4d 9fbb 845f 8d3c
00000160: 010c 513d 37eb da3d b6dd ea3d e29a e9bc
00000170: c067 e6bd fb7f cfbd 1744 df3d a4b0 42bd
00000180: a0ec f93d b0bc 323e eaaf df3d c97c 9a3d
00000190: 2827 ff39 7d7b 42bd 090f a13d 6813 d53d
000001a0: 908f ce3d 4ae4 01bd 894d 82bd 989c 5c3d
000001b0: 672b 823d f978 cb3c cd58 17bd 5add aabb
000001c0: f519 243d 14e0 47bc e726 043e b44f 1c3e
000001d0: 1441 633c 9827 423d f227 cdbc 7771 163d
000001e0: 3838 343e c8fc d93d fe84 113e 9251 92bc
000001f0: 07b6 363d 9c79 8b3d e0c5 bd3c bfb1 c0bc
00000200: de26 833d f48f 28bc f877 c5bd a4ce c7bd
00000210: e514 153e 2d88 88bd f766 a73d 05d7 183d
00000220: 2dbc ad3d a977 5ebd 3377 aebd 5c8e cebd
00000230: 2855 08be dbe1 113d 7e24 683d 2cfb e0bc
00000240: d29d cc3d 85ce e3bd b916 a2bd 1c9b e6bd
00000250: 6e8c 22bd 5ada cebc ef6a 113d cf7e be3c
00000260: e5ce c2bd 49e2 f8bc 6655 b3bd 80c5 10be
00000270: 5f93 cb3d 8438 0bbd d28d cebd d82a b63d
00000280: 6d41 b83d bbc9 ba3d b4de 62bd 86d9 433d
00000290: 88e5 c93d 1f3c 04be 5376 a63c 47d2 2cbe
000002a0: 8cf9 523c fec9 793d 4780 de3d b55e cbbd
000002b0: 72d3 d2bc c532 4abd 2819 bfbc 756d a8bc
000002c0: b1af 52bd e21f 01be 7894 4cbc 1843 033e
000002d0: bf3a a0bd cf66 c2bd 53c3 823d 4fd0 64bd
000002e0: 5c0e 85bd af55 823d cf3e a93c 3a1b 02bd
000002f0: 097b 67bd fe1f 9dbc 6ae7 79bd d0d9 b93d
00000300: f5da bd3e cfff 3f3e 1562 b13b 8727 bf3d
00000310: 29f7 f53d 4382 593c 30b0 403e 5b23 3d3e
00000320: d16b fd3d 9fcf 6a3e c639 123e b24d 67bc
00000330: 2288 1cbd 5163 c03d 7276 a53d a11c b43e
00000340: 9b1a 323e dc83 503d 5922 61bd 0206 083e
00000350: 81a0 4cbb 4361 0abd 496b 323e ea4b 253d
00000360: f139 ad3d a08b 5d3e 1690 74bc 1c4a 453e
00000370: b819 333e cc1b c73d a14d a63d 7678 c4bb
00000380: f7fd 253e e138 9fbc 2d34 59bc 74b1 a23e
00000390: ebe7 183e f734 56bc f88a 283e f244 203e
000003a0: 96fe 8c3d 8662 de3d e5aa 873d b3dd 8e3c
000003b0: 34ca 883e 53fc 333d a387 a73d be89 5c3e
000003c0: ccae d23c 1e22 d23b 04e7 1f3e b78f f73d
000003d0: c057 023e 3ad2 623e d158 493e 2229 eb3c
000003e0: 007c 0e3d de97 953d d97a f83c 5fd2 1e3d
000003f0: d35d 133d cfb4 403e d5ea 93bd cecc 4b3d

lstm.bias_hh_l0 f4 [256]
0.35430616 -0.07821039 0.084216215 0.10620279 0.0519891 0.22500694 0.14907001 0.05499776
-0.040507674 0.14868407 0.01877194 0.022753956 0.05165735 -0.0011019643 0.17594968 0.20864151
0.1954773 -0.07952461 -0.011200984 0.03961716 0.12820575 0.08208597 0.25000626 -0.076221675
0.092457704 0.051051185 0.20745362 0.17600006 0.023962215 0.16409373 0.013726573 0.04244139
0.12924683 0.24233034 0.06644727 0.21834207 0.15873699 0.037803117 0.26152202 0.09905619
0.12297684 0.16857244 0.10973694 0.039814062 0.06712285 0.15399627 0.12297525 0.06809319
-0.08608393 0.026162464 0.038406048 0.12366255 0.04908347 0.018765207 -0.0055766455 -0.016511068
0.078704074 -0.0009884777 0.20033231 -0.022376174 0.07366825 0.21657284 0.16746683 0.043272916
-0.12344057 0.102743305 0.08070433 -0.060776796 -0.07344508 -0.037355572 0.0010970997 0.10852482
0.07367878 -0.027712326 -0.07052169 0.040089216 0.074780844 -0.06765492 0.13503 -0.03639153
-0.052615725 -0.06839611 -0.04514182 0.19258723 -0.10954315 0.06435933 -0.04067564 0.01675896
-0.117141224 0.18951055 0.0965213 -0.08070324 -0.120047286 -0.124632515 0.021454873 0.12918727
-0.104096085 0.018363846 0.12888737 0.03415437 0.17640473 0.09378185 -0.022678321 0.022766845
0.0594264 0.13403529 0.06653741 0.045976438 0.079642124 0.036864925 0.14339405 0.039652523
-0.0077361027 0.18544511 0.006020857 0.07127917 -0.08748802 0.056986287 0.012499239 0.06988772
0.038280297 -0.008292478 0.15767047 -0.08578822 -0.04174802 0.12245711 0.12174121 0.019808443
0.005892696 -0.11695914 -0.047343917 0.008029753 0.16619827 0.11011826 -0.11644729 -0.044143144
0.018561207 -0.027818874 0.014633262 -0.084536314 -0.0851877 0.029404828 0.12367153 0.09832994
-0.0810855 0.03581873 0.13727097 -0.018154867 0.005019003 -0.010105158 0.018894702 0.11339198
-0.095990784 0.08069222 0.06965187 -0.044655204 -0.11272306 -0.049193688 -0.07272893 -0.13338356
0.117858045 -0.09380729 -0.1324819 -0.08292315 -0.09948109 -0.03431203 -0.10432145 -0.17927407
0.046971805 -0.04906129 0.0026506393 -0.1096847 -0.099983975 0.1064193 0.08496437 0.07118876
-0.07336256 -0.12522808 0.045388542 -0.11735774 0.08408762 -0.12518471 -0.09519184 0.04556733
-0.07119903 0.1531135 -0.1583599 -0.07888877 -0.017034778 0.071886204 -0.07767347 -0.09716621
0.44375727 0.0016778558 0.12383796 0.17260346 0.015624495 0.11377783 0.097023144 0.19488655
0.12818992 0.036832184 0.09059544 -0.028619174 0.021144655 0.00051229354 0.2635168 0.3412362
0.18933736 0.045183003 0.07255651 0.08574336 0.18337287 0.075160764 0.1271979 -0.024458822
0.051233288 0.0072537605 0.13204718 0.22940892 0.12845472 0.035869494 0.03671207 -0.026011497
0.22001646 0.13349234 -0.025227906 0.13950033 0.16556825 0.03936969 0.06860218 -0.004773711
0.1234864 0.12835844 0.2294173 0.018433588 0.21588896 0.21323529 0.10562087 0.08563227
-0.024829231 0.03520239 0.22283116 -0.027735453 0.19075432 0.037059207 0.16432498 0.037179396
-0.015144303 -0.00079722 0.13215747 0.1281849 0.039627116 0.2649702 -0.07284836 0.16225521
00000000: 9e67 b53e c52c a0bd 8d79 ac3d d980 d93d
00000010: 86f2 543d 3868 663e cfa5 183e 5545 613d
00000020: 60eb 25bd a340 183e 9dc7 993c 8166 ba3c
00000030: a896 533d c96f 90ba 272c 343e 1fa6 553e
00000040: 342b 483e ccdd a2bd 5584 37bc 9a45 223d
00000050: 5e48 033e b01c a83d d200 803e 1c1a 9cbd
00000060: 775a bd3d 0c1b 513d b96e 543e 5c39 343e
00000070: 684c c43c 3008 283e 6ce5 603c 06d7 2d3d
00000080: 4859 043e 7225 783e 8215 883d 1095 5f3e
00000090: f38b 223e 71d7 1a3d 37e6 853e f9dd ca3d
000000a0: 48db fb3d 419e 2c3e c3bd e03d 1214 233d
000000b0: b477 893d 33b1 1d3e 73da fb3d 7174 8b3d
000000c0: c64c b0bd aa52 d63c a94f 1d3d ca42 fd3d
000000d0: c00b 493d 7eb9 993c 4bbc b6bb 3842 87bc
000000e0: 9a2f a13d cf8f 81ba ea23 4d3e 3d4e b7bc
000000f0: 61df 963d 45c5 5d3e 6d7c 2b3e f13e 313d
00000100: 69ce fcbd 156b d23d 5048 a53d 17f1 78bd
00000110: 606a 96bd 2802 19bd 8fcc 8f3a 4342 de3d
00000120: e6e4 963d f604 e3bc ad6d 90bd 9734 243d
00000130: b326 993d aa8e 8abd 4e45 0a3e 490f 15bd
00000140: 9683 57bd 4213 8cbd a1e6 38bd 9635 453e
00000150: 2958 e0bd d3ce 833d 809b 26bd 164a 893c
00000160: bde7 efbd 0e0f 423e f6ac c53d be47 a5bd
00000170: 5adb f5bd 553f ffbd 21c2 af3c ab49 043e
00000180: 5430 d5bd c76f 963c 0dfb 033e 74e5 0b3d
00000190: 71a3 343e b310 c03d e3c7 b9bc 8981 ba3c
000001a0: 1969 733d 8c40 093e c444 883d ca51 3c3d
000001b0: 691b a33d adff 163d e4d5 123e af6a 223d
000001c0: 227f fdbb 53e5 3d3e 9c4a c53b d0fa 913d
000001d0: eb2c b3bd 746a 693d 9cc9 4c3c 4b21 8f3d
000001e0: cdcb 1c3d 2cdd 07bc 5e74 213e bcb1 afbd
000001f0: f9ff 2abd cbca fa3d 7553 f93d 5145 a23c
00000200: 8417 c13b 4688 efbd b2eb 41bd 3a8f 033c
00000210: e12f 2a3e af85 e13d eb7b eebd 71cf 34bd
00000220: ac0d 983c 68e4 e3bc 59c0 6f3c 6021 adbd
00000230: e476 aebd 65e2 f03c 8047 fd3d 3561 c93d
00000240: 2810 a6bd a9b6 123d c390 0c3e 84b9 94bc
00000250: 7376 a43b 1b90 25bc 10c9 9a3c 0e3a e83d
00000260: d196 c4bd f641 a53d a4a5 8e3d 60e8 36bd
00000270: 59db e6bd 527f 49bd e8f2 94bd b395 08be
00000280: 8f5f f13d 091e c0bd 56a9 07be 9dd3 a9bd
00000290: bebc cbbd c58a 0cbd 7ca6 d5bd 9f93 37be
000002a0: 8265 403d 7ef4 48bd 59b6 2d3b 5fa2 e0bd
000002b0: 66c4 ccbd 5df2 d93d cd01 ae3d 6acb 913d
000002c0: 1c3f 96bd ca3b 00be 56e9 393d 4159 f0bd
000002d0: 2136 ac3d 6c30 00be f0f3 c2bd cfa4 3a3d
000002e0: ccd0 91bd c9c9 1c3e 1929 22be 6f90 a1bd
000002f0: 858c 8bbc 1339 933d 4513 9fbd 14ff c6bd
00000300: 2734 e33e 80eb db3a c29e fd3d f6be 303e
00000310: e2fd 7f3c 5a04 e93d 12b4 c63d 5790 473e
00000320: 3844 033e 58dd 163d 1a8a b93d c272 eabc
00000330: 8e37 ad3c 704b 063a adeb 863e 83b6 ae3e
00000340: a7e1 413e d011 393d 8298 943d 379a af3d
00000350: 19c6 3b3e e3ed 993d 2b40 023e de5d c8bc
00000360: ffd9 513d f4b0 ed3b 6037 073e 2cea 6a3e
00000370: a289 033e e4eb 123d 655f 163d 1016 d5bc
00000380: ff4b 613e 37b2 083e c1aa cebc 2dd9 0e3e
00000390: b98a 293e 1d42 213d 4d7f 8c3d ca6c 9cbb
000003a0: 70e6 fc3d 6570 033e 5eec 6a3e 0902 973c
000003b0: ff11 5d3e 5a5a 5a3e c14f d83d f95f af3d
000003c0: ac66 cbbc 6230 103d da2d 643e 7635 e3bc
000003d0: 1a55 433e 65cb 173d cf44 283e 6c49 183d
000003e0: d01f 78bc 87fc 50ba 4a54 073e e742 033e
000003f0: 0b50 223d 2daa 873e 8531 95bd 3b26 263e

lstm.weight_ih_l0_reverse f4 [256, 9]
0.09790724 0.15390497 -0.09197859 0.14867304 0.06251072 -0.15425478 0.15455677 0.007503951
-0.06689805 -0.21424419 0.079580285 -0.33846503 0.048907276 0.048922967 -0.21739402 0.06697921
-0.07861538 0.1471482 -0.22265978 -0.23951478 -0.04579888 0.049750775 -0.027480688 -0.0669842
0.11904169 0.09042391 -0.010330329 -0.013822576 -0.2232175 -0.20482795 0.13478437 0.109128304
-0.091966726 -0.13869487 -0.024833085 0.023501247 5.926106e-05 -0.40293485 -0.064106815 0.013021167
-0.045324203 -0.11221385 0.053406756 -0.042276446 0.031044917 0.008551168 -0.1965133 -0.17117842
0.23354125 0.077579685 -0.026410159 0.18090686 0.2876112 0.005339333 0.059490185 -0.102574825
-0.08610789 -0.07792913 -0.1107082 0.23589058 -0.0037096823 -0.10657029 -0.2061916 0.1357496
-0.09233308 0.02055594 -0.034350194 0.1097354 -0.115305215 -0.028114889 0.0527728 0.11297663
0.1496605 0.008973473 -0.15693742 0.17077847 -0.13166395 0.1907683 0.026362125 0.07967228
-0.068387106 -0.056479946 -0.027476413 -0.0932451 -0.20191453 -0.011503835 -0.04535722 0.0006129825
0.064890236 -0.24480097 0.024327047 -0.15560696 -0.25253123 -0.012492598 0.040520463 -0.112486504
0.05573857 -0.09037401 -0.148618 0.026951978 -0.14087404 0.0897742 -0.007999555 0.063278385
-0.4524065 0.08629286 -0.012647969 0.058628116 0.055855356 0.13917553 -0.056659024 0.27624056
0.0950497 -0.31799346 0.19907363 -0.026137806 -0.042074326 -0.0950411 -0.16008395 0.15742218
0.09941975 -0.022714637 0.19914964 -0.12082224 0.0830113 -0.104815505 -0.21819381 -0.16365294
-0.14078669 -0.02838191 -0.06709219 -0.022307053 -0.23318702 -0.08581966 -0.24095838 0.024116399
-0.3021494 -0.17471908 -0.033629626 -0.3369688 0.24446404 -0.23850709 -0.054032438 0.041328568
-0.35583317 -0.34300497 -0.07288603 -0.17204629 -0.2649089 -0.11798289 0.075555645 -0.2175677
-0.027227366 -0.047827497 0.03439656 -0.23159719 -0.21631342 -0.07997169 -0.12505856 -0.16809188
0.005832946 0.03721521 -0.11884523 -0.27489138 0.19185722 -0.096034616 0.23857637 -0.015330683
0.17142825 0.2576012 0.10887659 -0.18801674 -0.22740933 -0.21114266 0.0291745 0.036376532
0.03593357 0.022654708 0.0981028 0.14915892 -0.0644722 0.056545176 -0.06480534 0.09215854
-0.114292204 0.019521052 -0.028879508 -0.014176666 0.074715674 -0.044696294 0.1971939 0.1484635
0.14359306 0.16251169 -0.03109795 0.12573992 -0.008863632 0.028252799 -0.3291492 -0.34598756
-0.10907104 0.044637434 0.019933596 0.042162605 -0.17665586 -0.1532598 0.072963454 -0.04755609
0.12684247 -0.28082478 -0.023595583 0.14885269 0.01040239 -0.11086657 0.19545566 0.10128128
0.12469845 -0.092486516 0.12890871 0.04037124 -0.1174129 0.14182614 -0.059673388 0.029125255
0.14505637 0.013104238 0.14345685 0.055569813 -0.030712506 -0.017330186 0.0793183 0.08197023
0.07588649 -0.21656515 -0.0075724423 0.039895102 0.2627829 0.122292474 0.19313928 0.2455351
-0.14309058 0.02672812 -0.09443305 -0.060345516 0.06722678 -0.05097704 -0.11797004 -0.2475465
0.007602159 -0.0046997974 -0.20902766 -0.22452867 -0.12466352 0.05140294 -0.14051798 -0.03643231
00000000: 9783 c83d 4499 1d3e 455f bcbd bf3d 183e
00000010: 9f05 803d f7f4 1dbe 2144 1e3e b4e3 f53b
00000020: d801 89bd d462 5bbe fdfa a23d 4a4b adbe
00000030: ff52 483d 7363 483d 8a9c 5ebe 652c 893d
00000040: 1a01 a1bd 05ae 163e ed00 64be 5d43 75be
00000050: 9b97 3bbd 78c7 4b3d 2e1f e1bc 032f 89bd
00000060: 21cc f33d 2c30 b93d 8a40 29bc 1678 62bc
00000070: 2193 64be 6bbe 51be ea04 0a3e a97e df3d
00000080: 0d59 bcbd 0706 0ebe c16e cbbc b085 c03c
00000090: 148f 7838 7a4d cebe 6f4a 83bd bc56 553c
000000a0: dfa5 39bd 60d0 e5bd 0bc1 5a3d 112a 2dbd
000000b0: e951 fe3c 331a 0c3c c83a 49be 6549 2fbe
000000c0: 7025 6f3e 19e2 9e3d 1e5a d8bc a63f 393e
000000d0: c641 933e 92f5 ae3b fbab 733d c012 d2bd
000000e0: 5559 b0bd 4f99 9fbd fbba e2bd 4d8d 713e
000000f0: 241e 73bb 8641 dabd e423 53be f101 0b3e
00000100: 2019 bdbd ee64 a83c cab2 0cbd f4bc e03d
00000110: 2425 ecbd 3251 e6bc 4b28 583d 4b60 e73d
00000120: 9a40 193e 7905 133c 34b4 20be 8de0 2e3e
00000130: ead2 06be c458 433e 62f5 d73c 382b a33d
00000140: 8a0e 8cbd 8457 67bd 3716 e1bc 49f7 bebd
00000150: afc2 4ebe 957a 3cbc 7ec8 39bd 8fb0 203a
00000160: 2ce5 843d 1bad 7abe 8449 c73c 6e57 1fbe
00000170: c64b 81be c1ad 4cbc c9f8 253d 535f e6bd
00000180: 204e 643d 0216 b9bd 512f 18be 65ca dc3c
00000190: 4941 10be 89db b73d 9110 03bc 1998 813d
000001a0: d3a1 e7be 50ba b03d 6d39 4fbc 0924 703d
000001b0: 96c8 643d 0884 0e3e 4b13 68bd 676f 8d3e
000001c0: 6ba9 c23d 0ad0 a2be f5d9 4b3e f41e d6bc
000001d0: 2156 2cbd e9a4 c2bd 0ced 23be 4833 213e
000001e0: 959c cb3d 0c14 babc e2ed 4b3e a771 f7bd
000001f0: d401 aa3d 83a9 d6bd 336e 5fbe a394 27be
00000200: 632a 10be 2e81 e8bc a167 89bd 48bd b6bc
00000210: 94c8 6ebe 38c2 afbd cbbd 76be c18f c53c
00000220: 53b3 9abe 8fe9 32be 38bf 09bd 2d87 acbe
00000230: c854 7a3e 343b 74be 1e51 5dbd 2548 293d
00000240: c42f b6be 599e afbe 4545 95bd e72c 30be
00000250: 24a2 87be 03a1 f1bd ebbc 9a3d 11ca 5ebe
00000260: ed0b dfbc c4e6 43bd 68e3 0c3d d027 6dbe
00000270: 4481 5dbe 33c8 a3bd 5a0f 00be 4720 2cbe
00000280: 4c22 bf3b fa6e 183d 2165 f3bd 90be 8cbe
00000290: 3876 443e ccad c4bd 5d4d 743e 8c2d 7bbc
000002a0: e38a 2f3e 4ee4 833e b1fa de3d 7687 40be
000002b0: fedd 68be c835 58be 5cff ee3c 8fff 143d
000002c0: 142f 133d 5e96 b93c 1fea c83d 1ebd 183e
000002d0: 000a 84bd ea9b 673d a9b8 84bd 9ebd bc3d
000002e0: 0812 eabd 9dea 9f3c b894 ecbc 3f45 68bc
000002f0: 8804 993d 7613 37bd 33ed 493e d106 183e
00000300: 0f0a 133e 7769 263e 21c1 febc f7c1 003e
00000310: c438 11bc 6a72 e73c 3e86 a8be 4825 b1be
00000320: a360 dfbd bed5 363d c84b a33c b2b2 2c3d
00000330: 46e5 34be 23f0 1cbe dd6d 953d 2dca 42bd
00000340: fee2 013e 44c8 8fbe 864b c1bc d76c 183e
00000350: c96e 2a3c 030e e3bd 8725 483e 8f6c cf3d
00000360: e761 ff3d 9269 bdbd a500 043e 505c 253d
00000370: 2d76 f0bd df3a 113e 156c 74bd 1698 ee3c
00000380: a889 143e 28b3 563c 5ae6 123e 2c9d 633d
00000390: cb98 fbbc 09f8 8dbc a271 a23d 02e0 a73d
000003a0: 606a 9b3d 41c3 5dbe 4022 f8bb 0c69 233d
000003b0: 7b8b 863e 7a74 fa3d 4ec6 453e 8e6d 7b3e
000003c0: 5686 12be eef4 da3c 1d66 c1bd dc2c 77bd
000003d0: 32ae 893d 4dcd 50bd 479a f1bd d47c 7dbe
000003e0: 881b f93b c200 9abb 590b 56be d8ea 65be
000003f0: 964f ffbd e48b 523d f2e3 0fbe 0c3a 15bd

lstm.weight_hh_l0_reverse f4 [256, 64]
-0.10252791 -0.18166904 -0.056445092 -0.03845366 0.04420633 -0.2272391 -0.0001916994 0.07831487
-0.07511073 -0.08115337 -0.028378988 0.10230338 0.06698459 0.13222192 -0.13605495 0.018353775
-0.060963318 0.082024746 -0.15973923 -0.02120045 0.14023414 0.16713834 -0.20912383 -0.13941184
0.11021622 0.21923862 0.015504395 -0.1601144 -0.0226483 0.18061374 0.022099439 0.0034090562
0.08462147 -0.039903305 0.038322326 -0.1075987 -0.0652715 0.11449443 0.14133029 -0.17254178
0.11661963 0.16382588 0.014302169 0.086124584 -0.11493984 -0.10722802 0.1216538 -0.12372426
0.1627514 0.1091379 0.10522154 -0.024846666 0.010530761 0.045133833 0.11712094 -0.14208883
0.13571613 0.18710561 -0.23436831 0.033043526 -0.06825337 -0.11673221 0.07536667 0.14394496
-0.049396645 0.060114708 0.029237814 -0.12361657 -0.21705426 -0.21175167 0.026506668 0.09659266
-0.056491747 -0.054833923 0.23641297 0.023762641 -0.113848604 -0.22236417 -0.25837103 -0.23084976
-0.1407564 0.26260465 -0.17198586 -0.22646841 0.1005076 -0.22289506 -0.04312485 -0.10786967
-0.14003946 0.04396171 -0.2938423 -0.08942933 0.045464776 0.13744585 -0.006403945 -0.07522061
0.14678581 -0.10869316 -0.04360164 -0.083838105 -0.13333777 -0.085668616 0.16573562 -0.18037827
-0.09989636 0.0936072 -0.023182629 0.1234302 -0.14653337 -0.0073719067 -0.0050380733 0.27854726
0.068527386 0.12644367 -0.071834125 -0.14411059 -0.0019876412 -0.021419207 0.2147719 0.020191861
0.0015097931 -0.17793813 0.15924215 0.116002075 -0.027211986 -0.114887804 -0.0034649929 -0.10616798
-0.061791044 0.05112158 -0.021581946 -0.15635832 -0.2101259 0.049081117 0.05831646 -0.13962965
0.14969489 -0.034462504 0.06839022 0.00033610815 0.011066778 0.07200908 -0.10155908 -0.13135564
0.111065514 0.11256756 -0.13760763 -0.19327517 -0.03237467 -0.014369652 -0.23216866 0.032093514
0.024482897 0.044314187 -0.042914744 -0.18579955 0.1705056 0.103679195 -0.20345262 -0.05246633
0.04400714 0.03445244 -0.1058783 0.07419007 -0.065658614 -0.004692548 0.013647826 -0.19567998
0.028724996 0.052251875 0.086089335 0.060214773 0.1335641 -0.06982133 0.1258374 0.017304659
0.071819894 0.09737333 -0.006130028 -0.05328249 0.12547 0.007419274 0.015409274 -0.0054385727
-0.008231536 -0.12835783 0.1348327 0.13853645 0.15914603 -0.077364005 0.11542607 -0.10886143
-0.03416452 -0.098240726 0.1503433 -0.09921052 -0.031701874 -0.22370248 -0.08778515 0.048321504
-0.021506092 -0.006067349 -0.13642187 0.09425219 -0.04558258 -0.10159951 0.0020386253 -0.21333204
0.05941292 -0.04004533 0.02704674 -0.14022498 0.008307397 0.088911355 -0.2304386 -0.11138132
0.14206776 0.108334444 -0.122414336 0.07042547 0.009090013 0.0972833 -0.06744948 -0.050209597
0.08810072 -0.11351901 -0.06632754 -0.15131786 -0.25490564 0.10720901 -0.034782905 -0.14778239
-0.007500784 0.019260969 -0.027301429 -0.14463243 -0.037855648 -0.17780879 0.07864562 -0.14479585
0.06958312 0.020342391 0.018895933 -0.05149487 0.3061031 -0.023407454 0.23207583 -0.18223144
0.050798234 0.11573491 0.11424708 0.02022026 -0.03644847 -0.1579018 0.015879717 -0.04603169
00000000: 27fa d1bd 7307 3abe f832 67bd 9681 1dbd
00000010: b211 353d 5eb1 68be ea02 49b9 8c63 a03d
00000020: a8d3 99bd bd33 a6bd 0d7b e8bc 6f84 d13d
00000030: 372f 893d 2f65 073e fd51 0bbe a85a 963c
00000040: acb4 79bd 97fc a73d ae92 23be 91ac adbc
00000050: 8a99 0f3e 5026 2b3e 8f24 56be fac1 0ebe
00000060: 0bb9 e13d 1780 603e 2506 7e3c 07f5 23be
00000070: ed88 b9bc cff2 383e e209 b53c 796a 5f3b
00000080: 054e ad3d a671 23bd dff7 1c3d b55c dcbd
00000090: 10ad 85bd 0e7c ea3d e3b8 103e cbae 30be
000000a0: 46d6 ee3d f9c1 273e a553 6a3c 1662 b03d
000000b0: 9465 ebbd 5d9a dbbd a125 f93d 2563 fdbd
000000c0: 4ea8 263e b183 df3d 647e d73d 3c8b cbbc
000000d0: 3789 2c3c 41de 383d 1add ef3d bc7f 11be
000000e0: 2bf9 0a3e 9d98 3f3e 3ffe 6fbe a658 073d
000000f0: 6cc8 8bbd 4c11 efbd d759 9a3d 4f66 133e
00000100: 2354 4abd d73a 763d 2484 ef3c af2a fdbd
00000110: 7943 5ebe 6ed5 58be 8324 d93c 5fd2 c53d
00000120: e463 67bd 8999 60bd 3e16 723e dfa9 c23c
00000130: 7529 e9bd 6fb3 63be 3549 84be e163 6cbe
00000140: 7222 10be 1e74 863e 101d 30be 56e7 67be
00000150: eed6 cd3d 9a3e 64be afa3 30bd c6ea dcbd
00000160: 8166 0fbe 3211 343d 7f72 96be b926 b7bd
00000170: 4639 3a3d 9bbe 0c3e 2fd8 d1bb 430d 9abd
00000180: 054f 163e 859a debd a297 32bd 50b3 abbd
00000190: b289 08be 0773 afbd 99b6 293e 15b5 38be
000001a0: 7696 ccbd 22b5 bf3d 7fe9 bdbc f9c8 fc3d
000001b0: d80c 16be 0990 f1bb 6c16 a5bb bf9d 8e3e
000001c0: 1658 8c3d 737a 013e c51d 93bd ba91 13be
000001d0: 1643 02bb 5577 afbc 2aed 5b3e 6769 a53c
000001e0: 40e4 c53a 6a35 36be 6010 233e 7f92 ed3d
000001f0: aceb debc 4c4a ebbd ef14 63bb 996e d9bd
00000200: 9b18 7dbd dd64 513d 9fcc b0bc 651c 20be
00000210: 3e2b 57be 4809 493d 3edd 6e3d 13fb 0ebe
00000220: 9e49 193e 8e28 0dbd 2c10 8c3d ac37 b039
00000230: 6e51 353c 7f79 933d 35fe cfbd 1882 06be
00000240: 5176 e33d d289 e63d 04e9 0cbe ede9 45be
00000250: 4d9b 04bd b06e 6bbc 9fbd 6dbe 7d74 033d
00000260: 5b90 c83c cb82 353d 5fc7 2fbd 3d42 3ebe
00000270: 0599 2e3e c255 d43d e255 50be efe6 56bd
00000280: d540 343d 001e 0d3d b9d6 d8bd f7f0 973d
00000290: 0678 86bd f2c3 99bb 229b 5f3c 5560 48be
000002a0: af50 eb3c 1006 563d 9b4f b03d c4a3 763d
000002b0: 07c5 083e 7cfe 8ebd 85db 003e 80c2 8d3c
000002c0: 4f16 933d ab6b c73d 67de c8bb bd3e 5abd
000002d0: 357b 003e 621d f33b 2e77 7c3c 0e36 b2bb
000002e0: 90dd 06bc 3c70 03be 9511 0a3e 80dc 0d3e
000002f0: 2df7 223e 0571 9ebd 8164 ec3d bef2 debd
00000300: 19f0 0bbd 6f32 c9bd 98f3 193e e32e cbbd
00000310: d3d9 01bd 4312 65be b3c8 b3bd c5ec 453d
00000320: 8b2d b0bc 9dd0 c6bb 2db2 0bbe 4b07 c13d
00000330: cdb4 3abd 6713 d0bd 759a 053b b773 5abe
00000340: f65a 733d 9206 24bd 2091 dd3c 2397 0fbe
00000350: c01b 083c 2817 b63d 19f8 6bbe e41b e4bd
00000360: 367a 113e 73de dd3d 5eb4 fabd 3b3b 903d
00000370: 47ee 143c 773c c73d f422 8abd 94a8 4dbd
00000380: 266e b43d a87c e8bd bcd6 87bd 12f3 1abe
00000390: fe82 82be 6690 db3d 8578 0ebd 4454 17be
000003a0: 23c9 f5bb 2ec9 9d3c 3fa7 dfbc 861a 14be
000003b0: 860e 1bbd 8213 36be f410 a13d 5d45 14be
000003c0: 9881 8e3d 16a5 a63c a5cb 9a3c 49ec 52bd
000003d0: 8cb9 9c3e fdc0 bfbc 49a5 6d3e e19a 3abe
000003e0: cf11 503d 6d06 ed3d 60fa e93d f5a4 a53c
000003f0: fe4a 15bd 02b1 21be 2e16 823c ba8b 3cbd

lstm.bias_ih_l0_reverse f4 [256]
0.096218124 0.11704773 0.18943506 0.07595313 0.22207895 0.19032587 0.07813127 0.20978579
0.4638509 0.11374983 0.15642844 0.08172946 0.08135804 0.14008634 0.23752815 0.22774884
0.1320854 0.120733015 -0.058768228 0.038614456 0.2256854 0.04341729 0.16243277 0.19879352
0.19358145 0.3404857 0.032678258 -0.101119004 0.17530578 0.1665918 0.23324198 0.06343212
0.28871068 0.0060666236 -0.0014107975 0.31106493 0.037533455 0.13441771 0.18086727 0.13016953
0.13554324 0.071500435 0.22764485 0.21680155 0.25331703 0.17875458 0.09104141 0.11271571
0.30141982 0.23330666 0.26103687 0.08327541 0.13593194 0.22991733 0.22686782 0.106385015
0.037530888 0.11767623 0.09749099 0.15674184 0.20280465 0.08253058 0.10997868 0.047038972
-0.10245392 0.024956832 -0.028323622 0.050893042 -0.010101309 -0.11819367 -0.017317595 0.023249647
0.11035434 0.15438011 0.15357473 0.09542122 0.17224167 -0.0260924 0.0010000941 0.04560851
0.11611494 0.10757614 0.004007719 0.012802152 -0.080272146 0.041321926 -0.091405 -0.026732285
0.07316699 0.037334893 0.119709626 0.004012983 0.10609215 -0.05425303 0.08124154 -0.08608683
0.081368476 0.06936863 0.16502239 -0.024212342 -0.09127836 -0.105014145 0.08909706 -0.11949978
0.10314803 0.016318133 0.15040594 -0.1006748 -0.055097662 -0.013016314 0.15331966 0.0113110375
0.060218237 0.0381738 -0.10386664 0.07951875 0.15368307 0.0014318121 0.122086026 -0.043727685
0.09525973 0.08681356 0.055602282 -0.043750655 -0.10167791 0.13009344 -0.06593237 0.062229685
-0.1105184 -0.06548755 0.07633933 0.09748932 -0.035945933 0.028794184 0.16264246 -0.0043566152
0.056788556 -0.124482445 -0.1099454 0.07546127 -0.05486021 0.05069655 -0.059945557 -0.07490501
0.009778053 -0.029832684 -0.008551102 -0.13678345 0.17163423 0.07107846 -0.114814535 -0.11071261
0.10100053 0.015083498 -0.047567923 -0.10684989 0.005224727 -0.0018378547 -0.016858717 -0.15007086
-0.04128459 -0.0011657841 0.10223155 -0.044602316 -0.0995393 -0.05998632 0.12815751 -0.09729914
-0.054880314 0.057634052 0.046948344 0.020021627 -0.10705298 -0.09550074 0.04722321 -0.05532122
0.010543884 0.02048265 0.017608335 -0.060702093 0.07611941 -0.08331218 0.020487174 0.02331916
0.13301504 -0.07175043 -0.08650264 0.15358847 0.030713221 -0.073422834 0.12784784 -0.035251055
0.06741325 0.16697945 0.0683692 0.08935904 0.14186206 0.20282526 0.009136212 0.19316334
0.17973955 0.049466822 0.07337684 0.084572226 0.07306088 0.013417032 -0.040216625 0.07430039
0.057357226 0.08439752 0.061234362 0.051234916 0.10455644 -0.0141608175 -0.05986937 0.02825639
-0.008939546 0.011833502 0.08181028 -0.05495426 0.04948471 0.07157865 -0.032880463 0.101373486
0.35037178 -0.082107626 0.10360602 0.1509661 0.21642888 -0.022316353 0.06325706 0.020296158
0.13398284 0.030709991 -0.024664035 -0.0014790762 0.2254589 -0.11352832 0.069489785 0.05242723
0.06934167 0.17953645 0.09784988 0.2048072 0.14897548 0.29698107 0.009608103 0.044284258
0.12696603 0.095892996 0.12880087 0.13039868 0.14710732 0.041653495 -0.008216869 0.007678391
00000000: 020e c53d b8b6 ef3d 44fb 413e 518d 9b3d
00000010: aa68 633e c9e4 423e 4a03 a03d 16d2 563e
00000020: dd7d ed3e acf5 e83d c72e 203e c661 a73d
00000030: 0b9f a63d cb72 0f3e 943a 733e fe36 693e
00000040: 6541 073e df42 f73d f4b6 70bd 312a 1e3d
00000050: 131a 673e 54d6 313d c754 263e 8790 4b3e
00000060: 373a 463e 2454 ae3e a3d9 053d 7b17 cfbd
00000070: 5c83 333e 0a97 2a3e fcd6 6e3e b3e8 813d
00000080: e3d1 933e 87ca c63b 82ea b8ba e743 9f3e
00000090: aebc 193d cca4 093e 4535 393e 294b 053e
000000a0: d9cb 0a3e d26e 923d bb1b 693e 3a01 5e3e
000000b0: c5b2 813e 710b 373e eb73 ba3d 7fd7 e63d
000000c0: b353 9a3e f1e7 6e3e a0a6 853e 4c8c aa3d
000000d0: be31 0b3e 736f 6b3e 0a50 683e 63e0 d93d
000000e0: fdb9 193d 3c00 f13d 5ba9 c73d ef80 203e
000000f0: 06ac 4f3e cb05 a93d 813c e13d f0ab 403d
00000100: 5cd3 d1bd 4572 cc3c f106 e8bc 3975 503d
00000110: f67f 25bc 860f f2bd a1dd 8dbc 0b76 be3c
00000120: 7501 e23d d215 1e3e b242 1d3e 336c c33d
00000130: 1f60 303e bbbf d5bc 9715 833a fdcf 3a3d
00000140: abcd ed3d e150 dc3d 2f53 833b 1ec0 513c
00000150: b965 a4bd 2e41 293d 8b32 bbbd aafd dabc
00000160: 93d8 953d 79ec 183d 522a f53d 577f 833b
00000170: d746 d93d 6d38 5ebd f761 a63d 4b4e b0bd
00000180: 84a4 a63d 2411 8e3d a1fb 283e f658 c6bc
00000190: 26f0 babd a811 d7bd 8578 b63d 4dbc f4bd
000001a0: 463f d33d 9bad 853c 0404 1a3e 972e cebd
000001b0: 16ae 61bd 6142 55bc d4ff 1c3e ee51 393c
000001c0: 66a7 763d 215c 1c3d 08b8 d4bd bada a23d
000001d0: 185f 1d3e a4ab bb3a 3d08 fa3d cd1b 33bd
000001e0: 8917 c33d 4fcb b13d 38bf 633d e333 33bd
000001f0: 823c d0bd 3737 053e 8d07 87bd 8ee4 7e3d
00000200: 7957 e2bd 561e 86bd cb57 9c3d 7ba8 c73d
00000210: 0b3c 13bd c8e1 eb3c bf8b 263e f0c1 8ebb
00000220: 1e9b 683d a7f0 febd 0e2b e1bd 708b 9a3d
00000230: 19b5 60bd 30a7 4f3d 7989 75bd cc67 99bd
00000240: 2034 203c ac63 f4bc ec19 0cbc f610 0cbe
00000250: e2c0 2f3e 9591 913d e223 ebbd 4bbd e2bd
00000260: 5ed9 ce3d c720 773c 95d6 42bd 1dd4 dabd
00000270: 3034 ab3b 2ce4 f0ba 4b1b 8abc 2dac 19be
00000280: 081a 29bd 39cd 98ba c65e d13d ebb0 36bd
00000290: 43db cbbd 37b4 75bd b93b 033e c644 c7bd
000002a0: 2eca 60bd af11 6c3d e84c 403d 6504 a43c
000002b0: 983e dbbd e495 c3bd 206d 413d 8198 62bd
000002c0: 41c0 2c3c 3bcb a73c 5b3f 903c c2a2 78bd
000002d0: 7ee4 9b3d 949f aabd b8d4 a73c d307 bf3c
000002e0: 1835 083e e4f1 92bd 4c28 b1bd 4c46 1d3e
000002f0: 4b9a fb3c b65e 96bd 8bea 023e 6963 10bd
00000300: f50f 8a3d a9fc 2a3e 2705 8c3d df01 b73d
00000310: 4a44 113e 6db1 4f3e 0db0 153c 9ccc 453e
00000320: a50d 383e b99d 4a3d 9946 963d 3434 ad3d
00000330: f1a0 953d 1cd3 5b3c 30ba 24bd ce2a 983d
00000340: 69ef 6a3d 9bd8 ac3d e2d0 7a3d b4db 513d
00000350: b021 d63d c602 68bc 9639 75bd f279 e73c
00000360: 2c77 12bc 4ee1 413c 268c a73d b817 61bd
00000370: 7bb0 4a3d d497 923d aaad 06bd e79c cf3d
00000380: ee63 b33e 0b28 a8bd 652f d43d db96 1a3e
00000390: 889f 5d3e c9d0 b6bc eb8c 813d 2144 a63c
000003a0: cc32 093e 8593 fb3c 3b0c cabc 90dd c1ba
000003b0: b3de 663e 8981 e8bd a950 8e3d efbd 563d
000003c0: 0103 8e3d 67d8 373e 8565 c83d fbb8 513e
000003d0: 078d 183e e70d 983e 4e6b 1d3c 6963 353d
000003e0: 6203 023e 8c63 c43d 60e4 033e 3b87 053e
000003f0: 4da3 163e db9c 2a3d 0ca0 06bc 039b fb3b

lstm.bias_hh_l0_reverse f4 [256]
0.12277573 0.1453546 0.26605415 0.028118808 0.2982962 0.1660804 0.18643092 0.2073786
0.36897382 0.12818709 0.22543795 0.2822026 0.060760003 0.22372748 0.22421485 0.13319013
0.1570868 -0.016559882 0.048205182 -0.023428041 0.24935827 -0.026303502 0.18093865 0.18473206
0.07827676 0.14597918 0.2076057 0.021158488 0.094177 0.011590371 0.014256329 0.061360013
0.37157437 0.20120396 0.1188439 0.28635374 0.16628832 0.112344526 0.21308883 0.011797864
0.1920593 0.28211915 0.06562788 0.264573 0.37383524 0.10386385 0.11323533 0.31048962
0.25615767 0.28541815 0.092428245 0.13793717 -0.063204974 0.1765355 0.22215837 0.03844694
0.17157774 0.09467885 0.111116774 0.14808725 0.06623727 0.22154403 0.18412545 0.05520813
0.016762232 0.09274962 0.11934992 -0.031213632 0.122608796 -0.11352433 -0.08380642 0.061910048
0.09704255 0.1112089 0.10609483 0.090474166 0.1648 -0.026173556 0.10388451 0.10289898
0.059493307 0.11683986 0.050271127 -0.006171082 -0.03786017 0.03368452 0.08659641 0.018620748
0.018232873 -0.04667667 0.08269057 -0.046441972 0.11582691 -0.05585723 0.035206523 0.013065977
0.032456897 0.12668355 0.017461183 0.032946404 0.13833836 -0.05704234 0.11572493 0.09237801
0.05930514 -0.048097007 0.13811257 0.12303339 0.1030618 -0.057352293 -0.024254633 0.06160096
0.08894088 0.16830593 -0.074400455 0.081456676 0.078784354 0.030270442 -0.049934097 0.009469506
-0.06882662 0.08073341 0.12696382 -0.07554813 0.06920341 0.1540692 -0.054641537 0.16001043
-0.11615714 0.037533484 -0.04425856 -0.057742666 -0.05813664 -0.099915646 0.09329927 0.0032598227
-0.12774026 -0.014345402 -0.05734334 0.16637447 -0.029022656 -0.10988094 -0.1439356 -0.005044823
-0.12926202 -0.034343846 -0.1275229 -0.061931502 0.14621374 -0.14037742 -0.13352479 -0.04547105
0.073473305 0.12664863 -0.03419977 -0.09240741 -0.106887124 0.12186311 0.080432855 -0.14410986
0.061471965 -0.09274869 0.05340242 -0.021161957 -0.0052511664 -0.023204872 -0.05748187 -0.051664267
0.06253956 -0.11136746 -0.030400055 -0.06486413 -0.0066543478 -0.058228914 0.09452985 -0.028153697
0.076113045 0.1343207 -0.024605582 -0.029032229 -0.08009806 0.07613532 0.055690717 -0.10847567
-0.010478886 0.1490155 0.050530616 0.06475641 0.07535807 -0.1394597 -0.0003259424 -0.09969102
0.019386873 0.07185008 0.18831635 0.122006886 0.094942175 0.09070976 0.07197928 0.25320774
0.27119556 0.011729915 0.042262763 -0.00816976 0.11357527 0.1529069 0.13528693 0.2660986
0.021622699 0.066571556 0.073181465 0.017165307 0.053627327 0.033009674 -0.022286389 -0.018166397
0.09187771 0.13612154 0.20174727 -0.04267603 -0.017784368 0.23051581 0.061277155 -0.04634732
0.41604018 -0.004726969 0.08773247 0.19107522 0.1817137 0.06411892 -0.005927584 0.011872212
0.14292172 0.10813964 0.14612304 0.1830892 0.39601183 0.04271113 0.10640638 0.15049309
0.058724284 0.06064008 0.14951977 0.21022235 0.057311587 0.09562959 0.12407458 0.14125343
0.10281963 0.08044413 0.11080659 0.16665699 0.08680844 0.054532293 -0.03530628 -0.007120907
00000000: d871 fb3d d6d7 143e 4038 883e 6a59 e63c
00000010: 48ba 983e fb10 2a3e bfe7 3e3e 0e5b 543e
00000020: 23ea bc3e 7a43 033e 35d9 663e dc7c 903e
00000030: 7bdf 783d d118 653e 9498 653e fe62 083e
00000040: 5ddb 203e 97a8 87bc cc72 453d 2aec bfbc
00000050: c657 7f3e 717a d7bc fb47 393e 672a 3d3e
00000060: 914f a03d 917b 153e 9796 543e 9154 ad3c
00000070: dfdf c03d 8ae5 3d3c 6193 693c a354 7b3d
00000080: ff3e be3e 6908 4e3e 6e64 f33d f59c 923e
00000090: 7c47 2a3e e314 e63d f533 5a3e d44b 413c
000000a0: 31ab 443e ec71 903e e967 863d 1d76 873e
000000b0: 5567 bf3e 92b6 d43d ede7 e73d 7ff8 9e3e
000000c0: 1927 833e 5422 923e 054b bd3d 673f 0d3e
000000d0: 9c71 81bd b9c5 343e 7c7d 633e 8a7a 1d3d
000000e0: 13b2 2f3e fce6 c13d 3191 e33d 2fa4 173e
000000f0: 68a7 873d 70dc 623e 628b 3c3e ec21 623d
00000100: f350 893c 83f3 bd3d bb6d f43d bbb3 ffbc
00000110: 521a fb3d 727f e8bd b3a2 abbd 6495 7d3d
00000120: 3fbe c63d 7ec1 e33d 3f48 d93d 854a b93d
00000130: 55c1 283e ed69 d6bc 67c1 d43d b3bc d23d
00000140: 41af 733d bd49 ef3d 19e9 4d3d ca36 cabb
00000150: 4413 1bbd c7f8 093d 7559 b13d 8a8a 983c
00000160: 1b5d 953c 0930 3fbd ac59 a93d f039 3ebd
00000170: a936 ed3d 8dca 64bd b734 103d ae12 563c
00000180: 86f1 043d 55b9 013e c10a 8f3c cff2 063d
00000190: 92a8 0d3e 3ba5 69bd 3101 ed3d af30 bd3d
000001a0: f2e9 723d 5e01 45bd 626d 0d3e eef8 fb3d
000001b0: 1112 d33d 3dea 6abd a7b1 c6bc 4a51 7c3d
000001c0: a326 b63d 6458 2c3e 445f 98bd c2d2 a63d
000001d0: b159 a13d b8f9 f73c b287 4cbd fd25 1b3c
000001e0: f9f4 8cbd 8f57 a53d ce02 023e fab8 9abd
000001f0: 84ba 8d3d 51c4 1d3e cecf 5fbd c6d9 233e
00000200: cbe3 edbd b6bc 193d 7748 35bd 9383 6cbd
00000210: af20 6ebd 93a0 ccbd b013 bf3d c0a2 553b
00000220: 58ce 02be fa08 6bbc dae0 6abd 125e 2a3e
00000230: ecc0 edbc 4209 e1bd db63 13be 0b4f a5bb
00000240: 435d 04be 22ac 0cbd 5d95 02be e3ab 7dbd
00000250: 0eb9 153e 19bf 0fbe b9ba 08be da3f 3abd
00000260: 2c79 963d 2eb0 013e 0f15 0cbd 1940 bdbd
00000270: a3e7 dabd 5e93 f93d fbb9 a43d 8991 13be
00000280: 07ca 7b3d 06f3 bdbd 7fbc 5a3d d75b adbc
00000290: fa11 acbb 2518 bebc 1c72 6bbd e99d 53bd
000002a0: be14 803d 9f14 e4bd 8909 f9bc 7cd7 84bd
000002b0: b70c dabb 7181 6ebd de98 c13d 95a2 e6bc
000002c0: 28e1 9b3d 5e8b 093e a591 c9bc ffd4 edbc
000002d0: 740a a4bd d6ec 9b3d f31b 643d 7e28 debd
000002e0: a2af 2bbc 8597 183e 31f9 4e3d 029f 843d
000002f0: 5555 9a3d 86ce 0ebe 40e3 aab9 ce2a ccbd
00000300: 38d1 9e3c 2226 933d 00d6 403e bfde f93d
00000310: 0b71 c23d 0ac6 b93d df69 933d 72a4 813e
00000320: 25da 8a3e d42e 403c b81b 2d3d 75da 05bc
00000330: 279a e83d a093 1c3e a888 0a3e 133e 883e
00000340: 1622 b13c ab56 883d 2ae0 953d 429e 8c3c
00000350: 54a8 5b3d 2735 073d f291 b6bc b2d1 94bc
00000360: 612a bc3d 7263 0b3e d696 4e3e 10cd 2ebd
00000370: 86b0 91bc 560c 6c3e c1fd 7a3d b0d6 3dbd
00000380: 3803 d53e b1e4 9abb 15ad b33d 39a9 433e
00000390: 2813 3a3e c850 833d 2e3c c2bb ab83 423c
000003a0: 125a 123e 5178 dd3d 47a1 153e bc7b 3b3e
000003b0: 10c2 ca3e def1 2e3d 97eb d93d dc1a 1a3e
000003c0: e088 703d bc61 783d b61b 193e 8744 573e
000003d0: 8ebf 6a3d 72d9 c33d d01a fe3d bda4 103e
000003e0: 1993 d23d e4bf a43d 91ee e23d 21a8 2a3e
000003f0: a0c8 b13d 415d 5f3d 519d 10bd 7f56 e9bb
